model2.npz (npz, 224528 bytes, 8 tensors)

l1/b f4 [162]
00000000: 5620 9c37 772a 03ba 1920 86bb 86d8 51b8
00000010: 91bf cb3a b837 623a f216 c13a ef31 31bb
00000020: 53a8 daba d381 c4ba c416 3ab9 2e06 1339
00000030: 962f 003b 17f7 673a 064c 9f37 e070 53b6
00000040: 6f11 08ba 6550 28bb 33f1 cd39 f28f 18bb
00000050: d873 f639 ee36 cd3a 4144 0e3a 3d53 fc39
00000060: 24a7 173a 5832 5ebb b02a 1fbb 3285 1fba
00000070: 288e 5e3a 76c3 f8ba 2e40 c339 7b03 a539
00000080: f596 bc39 1c2b 1eb9 c461 0bba a4c3 1e3a
00000090: 429e 9db9 a3fa 5bba b713 003a 46a0 08b9
000000a0: b586 10bb 90fd 02ba ecff acba 6dcf 623a
000000b0: 10a3 4ab6 a5f7 0d39 396b bdbb 00a1 d039
000000c0: bc66 4c3a ad1b d6b9 29a4 013b 3825 d8ba
000000d0: be11 85b9 c16c 8c39 dd1c 1e3a cb66 2f3a
000000e0: 3265 0339 1f03 77ba 6f93 00b9 3c3b 29b9
000000f0: 4931 ea3a d4e4 cab8 d1ae c039 4dbe c238
00000100: 381b 02b8 0cf5 a4ba 3a90 aeba a758 403a
00000110: 23f1 08ba e6f4 36bb 54c4 34ba 949f 20ba
00000120: 7bc8 9e39 e516 7cbb 0055 5a36 67e7 a5ba
00000130: f1d1 1bba 1ac7 2f3a 417d 8bba 4eb9 4939
00000140: 866f c438 3f6b d239 4dfb 6b39 4a65 61ba
00000150: 2123 b5bb 9b3b 2f3a 641b efb8 3ae1 703a
00000160: b9af 54bb 3ba4 f4ba 2cf5 f9ba 4014 1636
00000170: 0633 063b 92dc 3a3a 46f9 d139 0c8f 9039
00000180: 4c6e 383a 427a 7139 2143 81ba 09ee 103b
00000190: 2833 1bbb c964 24bb 13b7 073b ac4e 5339
000001a0: e06c 9639 7668 6bb8 47ff 863a 5f67 5c3a
000001b0: 7360 20b9 733a 54bb 1638 0a3b fb76 7fb9
000001c0: 98dc d5ba 28ba 3fb7 ce6d a339 7f08 28bb
000001d0: 7c6f 6f39 2e4a 4a3a 88ec 6c3a 21b2 46bb
000001e0: 90c6 9d39 8555 32bb 23f7 56ba 4bf6 26bb
000001f0: 8bb4 7c3a 229c 5238 1a1e 273b 57aa 74ba
00000200: e492 fc39 46ca 56bb dcc4 91ba 3225 c2ba
00000210: 60a8 9ab7 6816 5eba 8c56 08ba 3a36 33ba
00000220: 1e8c d6ba 68ba 9e39 0468 a439 243e b9b7
00000230: 447d 0fbb 5508 6eb8 51b3 a439 ad3f efba
00000240: 63c1 c83a 684f 54ba 4e80 4c3a 922a 6e39
00000250: d95f a5b9 eaea 40bb f772 55bb f430 7ab9
00000260: 4789 943a f25c a7ba 03ed 8f39 238d f6b9
00000270: b3d9 f03a 0891 96ba f1b0 10bb 8875 85ba
00000280: 371e 433a b2b7 69bb
1.8611707e-05 -0.0005003581 -0.004093182 -5.0031136e-05 0.0015544762 0.00086295186 0.001473157 -0.002703782
-0.0016682245 -0.0014992304 -0.00017746823 0.00014021315 0.0019559613 0.000884877 1.8989678e-05 -3.1507152e-06
-0.0005190586 -0.0025682684 0.00039280354 -0.0023279157 0.00047007087 0.0015656629 0.0005427041 0.00048127203
0.0005785099 -0.003390452 -0.0024286918 -0.00060852163 0.0008489811 -0.001897915 0.00037241116 0.00031473846
0.00035970626 -0.00015084114 -0.00053169974 0.00060563744 -0.00030063285 -0.0008391535 0.000488575 -0.00013029677
-0.0022052948 -0.000499689 -0.0013198829 0.00086521247 -3.019526e-06 0.00013539063 -0.005780604 0.00039792806
0.0007797291 -0.0004083788 0.0019781685 -0.0016490584 -0.00025380956 0.0002678391 0.00060315226 0.00066910376
0.00012530832 -0.00094227673 -0.00012261955 -0.00016139162 0.0017867471 -9.674733e-05 0.00036751342 9.286087e-05
-3.1019765e-05 -0.0012585237 -0.0013318129 0.0007337429 -0.00052239205 -0.0027916967 -0.000689571 -0.00061272946
0.00030285478 -0.0038465795 3.2534008e-06 -0.0012657464 -0.00059440645 0.00067053887 -0.0010642187 0.00019237885
9.366781e-05 0.00040134226 0.00022504963 -0.0008598162 -0.0055278693 0.0006684602 -0.0001140151 0.0009188835
-0.0032453372 -0.0018664667 -0.0019070259 2.2363529e-06 0.002047719 0.00071282045 0.0004004931 0.00027572399
0.00070354785 0.00023029096 -0.0009861925 0.0022114536 -0.0023681615 -0.0025084487 0.0020708486 0.00020151836
0.00028691348 -5.6125653e-05 0.0010299467 0.00084077375 -0.00015294719 -0.0032383471 0.0021090559 -0.00024363019
-0.0016316352 -1.142783e-05 0.00031171594 -0.002563983 0.00022834347 0.0007716742 0.00090379314 -0.0030318575
0.00030093314 -0.0027211618 -0.00082002784 -0.0025476392 0.000963994 5.021331e-05 0.002550012 -0.0009333244
0.00048174628 -0.0032774373 -0.0011121291 -0.001481211 -1.8436636e-05 -0.0008471967 -0.0005200885 -0.00068363885
-0.0016368662 0.00030274992 0.00031358015 -2.2082655e-05 -0.0021894732 -5.675138e-05 0.0003141412 -0.001825323
0.0015316423 -0.00080989907 0.00078011013 0.00022713307 -0.00031542665 -0.0029436895 -0.0032569745 -0.00023860094
0.0011332416 -0.0012768789 0.00027451673 -0.0004702593 0.0018375426 -0.0011487314 -0.0022078122 -0.0010182122
0.0007443162 -0.003566247

l1/W f4 [162, 40]
00000000: 2ba0 48be 8be6 0dbe d4cb 1cbb c107 493b
00000010: 85c0 28bd 73d0 0fbd b124 3fbd 5a51 233e
00000020: d228 6d3e 26fe d2bc 38db 53bc 78ae 3fbd
00000030: 985a 963e fb7f a13e fedb 9bbd b936 a63c
00000040: 0ea9 a1bd 7ed6 943e 3831 103d 0fc1 08be
00000050: 0a62 ff3d 32fb 493d 0e0f 7a3e 7aaf 00be
00000060: 2595 223d e95c 933d 86ab 603d 2cff 723e
00000070: 3b9d b3be 686b 43bd 0f14 7e3d dbb1 eb3d
00000080: b3f8 073e 31e5 67bd 9805 173d db90 17be
00000090: c3ac d03d 2a7a b03d 340a cbbd 99af 753d
000000a0: 7d55 b83c abdb 563d 3e45 90bd 909d 353e
000000b0: 0fff 863e 430c 4d3e fea2 05be af48 533e
000000c0: 282d 463e 4cff 42bd 9d76 08be 6646 42be
000000d0: c505 6a3e d766 2a3e 3dbe 63be 0cb9 c5be
000000e0: 8208 0bbd 88ae a8be e631 1d3e a5fd 4c3d
000000f0: df42 4f3e 1a54 a5be 2a22 1b3e 7835 99bd
00000100: 3b91 42bc 849e 853b b927 b0be 8bf1 14be
00000110: 5812 0e39 4707 993d 0d62 b83b 3c19 743d
00000120: c1e3 97ba 8669 813c f6d5 b23c ad42 c9bd
00000130: 52e4 4fbd a0b1 03be be91 52bd b699 b8be
00000140: 401b 713e b484 943d f383 fbbd aeed 4e3d
00000150: 9cf9 ff3d 045e 0a3e 219a 47be 1af2 f63c
00000160: 558c d5bc d9ba b2bd 4b36 ea3e c9d3 a2bd
00000170: 81a4 c8be a7ce a83d 84fa 44be 20c2 d23d
00000180: 9e83 31bc cd08 2bbc ac18 8bbd a7a4 3e3d
00000190: 0a89 9e3d 85ed e33d 79f4 723e 8be2 89be
000001a0: 1b27 373d 4131 33be 0827 4a3e 4c78 56be
000001b0: 6a94 37ba 5b6b 303e d845 eebd aeb0 d2bc
000001c0: 2609 3bbd 10db 2cbd cd4c 443e de65 173d
000001d0: acb4 103f a713 813d 32ca e33d 5cbf 8ebd
000001e0: 425d 043e 63db 363d bdc6 9ebe 702b 5e3d
000001f0: 1c6f 593e d10f 033e b155 45be 876b 1d3d
00000200: 72b4 35bc b8cc 583e 4d4f 893d c206 82bb
00000210: e0d7 8bbe b15a c83d 2480 d8bd 8cf9 053e
00000220: 658a e13c 3df5 31bd 2494 66be b2b4 d0bd
00000230: 1e73 aebd 9aab 94be 7860 57bb e599 9abc
00000240: 7426 27be e946 2cbe 0080 843d 394b d83d
00000250: 9cd8 313d 6e32 f93d ef0a e5bd f595 243e
00000260: 4cdf 53be 046d 0fbd 3c61 a2be d227 f6bd
00000270: 6b62 933e 81b7 9ebe 8e75 133d a5a1 b53b
00000280: c96b 8d3e 9a50 66bd 5f72 35be 462e b33c
00000290: 72c8 44be 46ee 053c f104 7ebb 6984 9fbe
000002a0: d234 7fbe 8f00 96be 9594 153e 09ff 113d
000002b0: 42cc 093e a431 a33e 7d12 4dbd ef0f 7c3e
000002c0: 6b9b 733d 1466 14be e463 333e 8bce 623d
000002d0: f497 803d 640c 71be 5932 8e3e e3a0 b4bd
000002e0: 83ee 623d 9176 2bbe b1c7 1ebe 01aa 4f3d
000002f0: 947b 83bc 052e 2a3e 9b1c 813d 6330 ab3d
00000300: 78dc 423e 7eeb 2d3d 108a 653d e8f5 3dbe
00000310: 194a c3be 9c5e 45bd 63f6 b63e f6ab ca3d
00000320: 131b 21be 8904 933e 51c1 103e 633d 803d
00000330: 6fa2 93be 8d69 373e 52a7 263d eb7c 713d
00000340: ee6c 0e3d dfb4 c6be b06f 11be c603 7dbe
00000350: ff3c bebd 961f f23d 314a 58bb 88e0 e8bd
00000360: 341e 8dbb 5d72 313e dd34 8cbc 43e7 443e
00000370: 965d 9a3e 0ce8 03bd b3b8 30be 01cb cebd
00000380: 2c14 12be f544 b93d 6296 08be 3f28 8c3d
00000390: 47d9 9abb 869d a03a 2bcd 5f3e b67a a93d
000003a0: c49b 903d 04ef c43d 308b 5c3e b455 bc3d
000003b0: 7b70 6e3e 06b0 97be 7ef2 7e3d b4eb 80bd
000003c0: f793 503e 6a17 6abe 350e 3f3e 5924 1abe
000003d0: 4351 32bd b829 1b3d 54a3 72bc d947 063d
000003e0: d628 9d3d 75e1 21be 0fc9 53be 7764 283d
000003f0: eebf 8abe bd1b 003e 3a8d 0e3c 8dc1 713d
-0.19592349 -0.13857476 -0.0023925202 0.0030674788 -0.041199226 -0.035110902 -0.04666585 0.15949002
0.23160103 -0.025755953 -0.012930684 -0.046797246 0.29365993 0.31542954 -0.076103196 0.020289766
-0.07893573 0.29069895 0.03520319 -0.13354896 0.12469871 0.049311824 0.24419805 -0.12566939
0.039693017 0.071954556 0.054851077 0.23730153 -0.35080895 -0.047709852 0.062030848 0.115085326
0.13278465 -0.05661506 0.03687057 -0.14801352 0.10189202 0.08617051 -0.099140555 0.059981916
0.022501701 0.052455585 -0.07044457 0.17735887 0.2636647 0.20024209 -0.13050458 0.20633195
0.19353163 -0.04760675 -0.13326497 -0.18972167 0.22853763 0.16640793 -0.22240539 -0.38617742
-0.03394366 -0.32945657 0.15351066 0.05004658 0.20240353 -0.32290727 0.15149751 -0.074809015
-0.011875446 0.0040777344 -0.34405306 -0.14545266 0.00013549009 0.07472091 0.005626923 0.059594378
-0.0011588262 0.015797388 0.02183054 -0.098271705 -0.050754853 -0.12860727 -0.05140852 -0.36054772
0.23545551 0.072518736 -0.12281027 0.050519638 0.12498781 0.13512427 -0.1949239 0.03014474
-0.026067892 -0.087270446 0.45744547 -0.07950551 -0.39188007 0.08242541 -0.19236189 0.10290933
-0.010834603 -0.01043911 -0.06791815 0.046543743 0.07740982 0.11129288 0.23726071 -0.2693065
0.04471503 -0.17499258 0.19741452 -0.20944327 -0.00070030114 0.17228453 -0.116344154 -0.025719013
-0.04566302 -0.0422011 0.19169922 0.036962382 0.56525683 0.063025765 0.1112255 -0.06970093
0.129262 0.044642817 -0.31011 0.054240644 0.21233791 0.12799002 -0.1927097 0.038432624
-0.011090385 0.21171844 0.067045785 -0.0039680908 -0.27313137 0.09782923 -0.10571316 0.13083476
0.027531812 -0.043446768 -0.22517449 -0.10190715 -0.085180506 -0.29037172 -0.0032863896 -0.01887221
-0.16323262 -0.16823925 0.064697266 0.105612226 0.043419465 0.12167822 -0.11183726 0.16072829
-0.2069065 -0.035016075 -0.3171481 -0.12019314 0.28786024 -0.30999377 0.03600078 0.005542951
0.27621296 -0.05622921 -0.1771941 0.02187265 -0.19217089 0.008174485 -0.003876027 -0.31155708
-0.24922493 -0.292973 0.14607461 0.03564361 0.13456824 0.3187381 -0.05006646 0.24615453
0.05947439 -0.14492065 0.17518574 0.055372756 0.06278983 -0.23539883 0.27772787 -0.08819749
0.055403244 -0.16744448 -0.15505864 0.050699238 -0.016050138 0.16619118 0.06304284 0.083588384
0.19029415 0.04246091 0.05603987 -0.18550837 -0.3814247 -0.04818593 0.35734853 0.0989608
-0.15732984 0.28714398 0.14136244 0.062617086 -0.28834864 0.17911358 0.040686913 0.05895702
0.034771852 -0.3880987 -0.14202762 -0.2470847 -0.09288978 0.11822431 -0.0033003206 -0.11370951
-0.004306579 0.17328782 -0.01711505 0.19228844 0.30149525 -0.03220372 -0.17257957 -0.10097314
-0.14265507 0.09046356 -0.13338616 0.06843614 -0.0047256085 0.0012253977 0.21855609 0.082753584
0.0706096 0.09615901 0.21537471 0.09196034 0.23285095 -0.29626483 0.062242977 -0.06294957
0.20368944 -0.22860494 0.18657763 -0.15052928 -0.04353453 0.037881583 -0.014809448 0.032783363
0.076738045 -0.15808661 -0.20682167 0.041111436 -0.27099556 0.12510581 0.008700663 0.059022475

l2/b f4 [162]
00000000: d5c0 20bb faf5 193a 6a53 533a 8ca5 d4ba
00000010: 0407 283a 1638 a5b9 7033 dfba b606 7738
00000020: 57bb aeba 8e47 a3b9 8f0a ffba baa3 b9ba
00000030: 355f c539 b967 0abb 6eff 5eba 07f5 b4ba
00000040: 646f cbba 762c d5ba d938 1b3a 96c1 5aba
00000050: 25bc 0a3a d30d efb8 c839 6cba 424f c1ba
00000060: 45a7 023b 49bf 2cbb 8880 51bb 56a1 d539
00000070: c375 7cbb ea14 b3b7 fcda 793a fad5 593b
00000080: 27fa 803a 2863 e7b9 f165 8639 0aaf fa39
00000090: 800d 37ba f821 65ba b2ec b2bb a9ce 03bb
000000a0: a62b 5739 91e2 65bb 8c2c 8a3a 6824 0dbb
000000b0: 2d57 53b9 159b 79ba f94b 10bb 9ee4 9bba
000000c0: 2c95 5eb9 70bf d339 cd3c 53ba 9feb a7b8
000000d0: 1995 a8b9 3abc 84bb 184b b9b8 6298 c639
000000e0: 5e9c d13a 83f4 cf3a 6b60 dfb9 78ad 8339
000000f0: 8e7f 32b9 7d26 2c3b e692 8339 05ae b3ba
00000100: 2535 79b8 58f6 23bb d25e 74ba 9ac2 a6bb
00000110: dd06 e03a 1b2f e639 2a6d cfba ab6b 8739
00000120: da94 60ba 1ac0 62ba dd41 04bb c885 abb7
00000130: 9586 69b8 8afb edb9 6997 553a 4ea9 61bb
00000140: 4b98 f1ba c254 f0b8 e0e0 fab8 f726 caba
00000150: 86e5 09ba ea35 063b d9ba 3abb cbed 75ba
00000160: 3619 12bb e6c2 f0ba a089 41bb 9111 5739
00000170: c087 1dbb d9f1 cebb 26af ebb9 c291 9339
00000180: ab9f 27bb f508 28ba f0ef 6439 c701 a33a
00000190: 30d5 82b9 615b 0ebb da16 da38 fd4f 58bb
000001a0: 8b69 2ebb 06ed a43a abef 22bb f939 72b9
000001b0: c2e7 4dba 8f7c 1bbb f321 393a eb99 5aba
000001c0: 4da8 723a c06b 6436 025e 11ba 8fea 823a
000001d0: 8204 cb3a 1203 5ebb b5fc 19bb e8d5 9cba
000001e0: 2eb2 133b 9d66 98b9 7404 a6ba 1d3a afb9
000001f0: 75db 04bb 7d27 dd39 7887 69bb 8adf 8039
00000200: 661b ad39 6c81 8a3a e237 2aba aede 3eb9
00000210: 75c9 7cba badf 52b9 1a3a f8b8 c6eb c037
00000220: efc6 9bba 1601 88ba db08 caba 2df3 0eba
00000230: 463f 8139 4a57 5d3a 3338 08ba 1554 87bb
00000240: 30fe 6bba 3ea2 2239 d694 503a 78fa 46ba
00000250: 3829 f438 e23e 3e39 73f0 9abb 3acc 41bb
00000260: b7b3 223a 7346 feb9 ac2e e1ba f12d 66bb
00000270: 7757 02bb f13d 50bb 182a b039 80ac afb9
00000280: 049c a7b9 522e 4cba
-0.0024529 0.000587314 0.0008061441 -0.0016223653 0.0006409737 -0.0003151304 -0.0017028879 5.889564e-05
-0.0013330978 -0.00031143095 -0.0019458103 -0.0014163174 0.00037645703 -0.0021118952 -0.000850669 -0.0013805934
-0.0015520868 -0.0016263861 0.0005921252 -0.00083448866 0.0005292318 -0.00011398983 -0.00090112956 -0.0014748352
0.0019936126 -0.0026359132 -0.003196748 0.0004074673 -0.003852234 -2.1348202e-05 0.00095312274 0.0033239112
0.0009840176 -0.0004413363 0.00025634424 0.0004781413 -0.00069829077 -0.00087407185 -0.005460345 -0.0020112193
0.00020520258 -0.003507767 0.001054184 -0.0021536592 -0.00020155004 -0.0009521705 -0.002201794 -0.0011893695
-0.0002122714 0.00040387688 -0.0008058071 -8.0070684e-05 -0.00032154543 -0.0040507587 -8.835475e-05 0.00037879037
0.0015992036 0.0015865717 -0.00042605711 0.0002511551 -0.0001702292 0.0026268058 0.00025095715 -0.0013708478
-5.941572e-05 -0.0025018658 -0.00093219907 -0.0050891163 0.0017091889 0.00043904115 -0.001582538 0.00025829425
-0.00085671025 -0.0008649841 -0.002018086 -2.0447085e-05 -5.567687e-05 -0.00045391574 0.0008147867 -0.003443319
-0.0018432228 -0.00011459879 -0.00011962815 -0.0015422989 -0.0005260337 0.0020478913 -0.0028492718 -0.0009381442
-0.002229286 -0.0018368631 -0.0029531494 0.00020510542 -0.0024037212 -0.0063154516 -0.0004495319 0.00028146623
-0.0025577347 -0.0006410026 0.00021833158 0.0012436443 -0.0002495437 -0.0021721947 0.000103993065 -0.003300666
-0.0026613201 0.0012582846 -0.0024862092 -0.00023100515 -0.0007854664 -0.0023725366 0.0007062249 -0.00083389756
0.0009256646 3.4037366e-06 -0.0005545319 0.0009988117 0.0015489014 -0.0033876342 -0.0023496572 -0.0011965604
0.0022536623 -0.00029068152 -0.0012666122 -0.000334219 -0.0020272408 0.00042181826 -0.0035633724 0.00024580612
0.00033017545 0.0010567135 -0.00064933125 -0.00018202767 -0.00096430565 -0.00020110505 -0.00011836384 2.2997974e-05
-0.0011884848 -0.00103763 -0.0015414016 -0.0005453106 0.0002465194 0.0008443488 -0.00051963626 -0.0041298964
-0.00090024155 0.00015509964 0.00079567486 -0.00075904233 0.00011642504 0.00018143238 -0.004728371 -0.0029571191
0.0006206589 -0.00048499144 -0.0017180047 -0.0035122598 -0.001988856 -0.0031775201 0.00033600698 -0.00033507124
-0.00031968963 -0.00077888847

l2/W f4 [162, 162]
00000000: 3f26 ef3d 0fbe f33c 854b e3bd 6a39 153e
00000010: 153c 2bbd 187d 27bd 5121 803d 00b2 a23c
00000020: 02c6 1dbd bcb1 133d 045c 273b 60b2 0ebd
00000030: 4fec a23b 9626 543c 5cf6 29bd 5e35 5bbc
00000040: 9f74 e8bd 6eff a3bc 7554 aabd f0be 9e3c
00000050: 8895 95bd 8fad 80bd 714d 4b3d 43c8 ad3c
00000060: ba92 1c3d 45bf 733d c183 303c 9945 b7bc
00000070: 31c3 9b3c 266a 62bd 16d3 9bbd fb04 ebba
00000080: 381c 103d 338f 273c 3ed2 483d 9743 3b3c
00000090: 6a98 b0bd 9aea d63d 2dec 563c c33c 7dbd
000000a0: bae5 24bd d72e 4f3d dca4 1a3e 1e75 1cbc
000000b0: cf27 28bd c031 ef3d 0026 bfbc e096 9b3d
000000c0: f632 11bd 6429 a13d b168 0b3e 9304 073e
000000d0: 1331 b63c bb06 913d 631a 66bd d3d8 983d
000000e0: 5bda 513c 05d7 0c3e 59b0 ab3d b1c1 e53d
000000f0: 3c42 9fbd 97cd ba3d 2767 bb3c ec22 f63c
00000100: e84c e3bc 3ebb 61bd 7949 923d b2f8 ae3d
00000110: 6b74 953c 3a2e 5abd c26e bd3d c88e 6b3d
00000120: ad9b efbd 0745 bebd f81f ccbb 14a8 1fbe
00000130: be3d 4a3c 175e 213d ba42 00be bc61 823b
00000140: 50e7 7b3c 4946 f73d 66ef ddbd e982 eebc
00000150: a805 a53c 74db ccbd 797e 223d f393 11bd
00000160: 2c1a 19be 4057 e7bd 6f34 ad3d 1bb0 53bd
00000170: 26b2 15be fce5 9b3d 5ce2 8f3d 7211 65bd
00000180: 225c da3b b9de 2bbd 9097 9b39 2844 d63c
00000190: b542 b8bc 1125 bb3d 4faa bfbd 58b9 5b3c
000001a0: 6532 ad3d cf0a adbd 972e 8e3d 2197 0bbd
000001b0: db94 403d f173 31bd aabd 103c da77 3fbe
000001c0: 6292 24bd 3fef 3a3e a605 a4bc a510 5b3c
000001d0: 6e9c 583e 0e88 2c3d 7253 cabb c034 c83d
000001e0: 0c40 b33d c99b 823d 53d4 963d a14b adbc
000001f0: 781f 80bc 862e 623c bbc6 c73d c4ae bcbd
00000200: 7d19 06bc e973 dabd 7ae0 cebd 0f72 123d
00000210: a0b7 a73d e4db 463e 566d 04be e8e6 9e3d
00000220: bc65 30bb 43e2 813d 829d c4bc c694 543e
00000230: ef09 a7bc 5b6c a7bc 04d1 593e 65ae 4bbd
00000240: ebb5 a2bc ae8d c33c 08c2 00bd 9a70 99bd
00000250: ae66 993d 6f03 83bd 043c 173d b876 1fbe
00000260: 4349 5b3d 36fd 9c3d 5fc9 41bd 7899 793d
00000270: 94ff 4bbd f6e7 86bb 20f1 dabd d72e 2bbc
00000280: e82c ba3d 4518 b6bd f170 8cbd 5e6d 32be
00000290: 7e89 ffbd 9d88 01bd c869 5c3c 6a62 84bd
000002a0: 4c6b 823c bccc 24bc eaa5 1dbe a97b e8bd
000002b0: df2f 70bd a0d0 30bc 015f 36bd c0e6 cc3c
000002c0: 2785 1d3d 9848 643d 3ba3 c5bd 9b91 a9bd
000002d0: c80a fa3d 4a6e f2bc e528 eabd bf6e d83d
000002e0: f910 2c3e 2ce9 e33b 11d4 b03d 1782 7d3d
000002f0: cda2 263d 6dac 3dbe a52d 423d fd43 a23c
00000300: 73c3 1ebe 1538 5ebd 6b75 163e 96cd 473d
00000310: 9e9d 95bd 09db b6bd b0ca 44bd 39d5 c1bc
00000320: b904 5fbd d2c4 efbc b1c5 623d 0f4c dc3c
00000330: 4437 4f3c 505a dabb 51a3 d63d e8f2 b937
00000340: ceb3 58bd aefb 413d 3af3 0c3d 382f 223d
00000350: 4912 1f3e 8c35 9a3c 420d 3d3b 62af 0d3d
00000360: 0327 b3bd 961b 373d 0d78 b1bd c192 973d
00000370: b429 a23c 3781 453d db9d d53b 539f bcbd
00000380: c7af 633b ed50 e0ba 70de 2abe 3c97 633e
00000390: d6e1 8abd 59c5 c8bd 8e00 4e3d ea02 3e3c
000003a0: f015 743d 629a 1abd 6ed5 e03c be48 c5bc
000003b0: d40e a43c 847c 37be 7526 fd3d 1b5f c0bc
000003c0: ca7c 4cbd 69cd 5c3c 3a73 9bbd 278e 313e
000003d0: d438 e0bd a365 2abc bbdf 95bd 820e 893d
000003e0: bf2c fcbd 1300 913b d2ed c1bd 6793 20be
000003f0: 1701 703c 7c97 18bd 1423 083c c1dc 33bd
0.11677217 0.029753713 -0.110983886 0.14572683 -0.041805346 -0.040890783 0.062563546 0.019860268
-0.038518913 0.036058173 0.0025537023 -0.03483808 0.004972018 0.012948653 -0.041494712 -0.013379423
-0.11350369 -0.02001926 -0.0831689 0.019378155 -0.073039114 -0.06283104 0.0496344 0.021213656
0.038225867 0.05950858 0.0107736 -0.022372054 0.019013973 -0.055277012 -0.07608621 -0.0017930561
0.03518316 0.010227012 0.049028628 0.011429689 -0.08622821 0.104939654 0.013117832 -0.061825525
-0.040258147 0.05058178 0.15101951 -0.009549407 -0.04105359 0.11679411 -0.02333355 0.075971365
-0.03544899 0.07869223 0.13614155 0.13185339 0.022240197 0.07081362 -0.056177508 0.07463231
0.012808408 0.13753898 0.08383245 0.11218584 -0.07776305 0.091212444 0.022876335 0.030045949
-0.027746633 -0.05511021 0.0714292 0.085435286 0.018243989 -0.05326674 0.09249641 0.057509214
-0.11699615 -0.0929051 -0.006229397 -0.1559146 0.012343822 0.03939637 -0.12525454 0.003978936
0.015374973 0.12073953 -0.10836677 -0.029115157 0.020144299 -0.10002795 0.039671395 -0.035541486
-0.1495139 -0.112959385 0.084572665 -0.05168162 -0.1461874 0.076122254 0.070255965 -0.05592484
0.006663815 -0.04196045 0.00029676827 0.026155546 -0.022492746 0.09137929 -0.09358656 0.013410889
0.084568776 -0.08449327 0.0694248 -0.034079675 0.04701696 -0.04332346 0.008834282 -0.18698063
-0.040178664 0.18255328 -0.020022225 0.013370668 0.21153423 0.04212194 -0.0061744982 0.09775686
0.0875245 0.0637737 0.073647164 -0.021154227 -0.015640005 0.013805037 0.09754702 -0.092130214
-0.008184788 -0.10666639 -0.10101409 0.035753306 0.081893206 0.19419819 -0.12932333 0.077588856
-0.0026916107 0.06341984 -0.024000887 0.20759878 -0.020390479 -0.02043741 0.2127114 -0.049726862
-0.019862136 0.02387127 -0.031435043 -0.0749218 0.07490288 -0.06397139 0.03692247 -0.15572631
0.053536665 0.07665484 -0.047311183 0.060937375 -0.049804285 -0.0041170074 -0.10690522 -0.010448179
0.090905964 -0.08891348 -0.06857479 -0.17424533 -0.124773964 -0.031624425 0.013452955 -0.064640835
0.015920304 -0.010058578 -0.15395322 -0.11351711 -0.058639403 -0.010791928 -0.044524197 0.025012374
0.038457062 0.055733293 -0.09650274 -0.08279725 0.122090876 -0.029593606 -0.11433581 0.10567998
0.1680335 0.0069552865 0.086341985 0.06189164 0.040682603 -0.18522806 0.04740681 0.01980781
-0.15504245 -0.054252703 0.14693229 0.048780046 -0.07305454 -0.089284964 -0.04804486 -0.023661243
-0.054447863 -0.029268656 0.055364314 0.026891736 0.012647454 -0.006663598 0.10480369 2.216683e-05
-0.05290585 0.04735916 0.034411646 0.039595813 0.15534319 0.018824361 0.0028847014 0.034591086
-0.08747675 0.044704042 -0.08665476 0.07401038 0.019795276 0.048218932 0.006519062 -0.09210076
0.0034742223 -0.0017113962 -0.16686416 0.2222566 -0.06781356 -0.09803266 0.050293498 0.011597374
0.059591234 -0.037744887 0.027445521 -0.024082538 0.020026602 -0.17918593 0.12360851 -0.02348285
-0.049923696 0.013476708 -0.07590337 0.17339383 -0.10948339 -0.010400209 -0.07318064 0.0669222
-0.12313222 0.0044250577 -0.09469189 -0.1568123 0.014648697 -0.03725384 0.0083091445 -0.0439117

l3/b f4 [162]
00000000: c1d3 c4b9 3f22 fe3a 9e9d 82bb bff1 cfb8
00000010: ab59 5dba cd8b 7fbb 96fc 1039 d750 c53a
00000020: 9ebe a439 bccf 4ab8 4a25 f339 8b0c f839
00000030: 78e7 0138 7bc3 1b39 1eb9 18bb c0cc 06bb
00000040: 914c 2eba 344e 9abb a527 67bb 4e62 96b9
00000050: 42b4 99bb 1d61 cb39 05a0 55ba 7f1d d6ba
00000060: a07c ceb9 c9e8 4b3a de6f 5cbb bc0b 56bb
00000070: abfc 653a 3c27 383a 3df0 1dba a804 cfba
00000080: 0e98 7e39 686e 07bb e36d 34ba 5bac 2ebb
00000090: 3809 73bb 84fe d3ba ceba a038 8de9 85ba
000000a0: 03a7 c4b8 3d51 bdba 580b c439 cb0a 6abb
000000b0: c755 44ba 0094 cbb8 3e1d b4b9 ae1b 693a
000000c0: 73aa 6aba 9a34 e439 0906 40bb 32a5 2cba
000000d0: 4f78 213a 4014 aa39 1b65 17ba 5e7b 2b39
000000e0: a437 57bb 40d2 a735 3210 9fba d2a6 0b3b
000000f0: cf03 09bb e65d 5abb e299 a238 791f f9ba
00000100: 14bc 2bb8 4002 54ba 44a1 b73a 60f8 8eb9
00000110: 701e bd39 2e41 28ba aaf7 ee39 48ff 20ba
00000120: f8f5 bcb6 bf8e 9aba 49cd 77bb 9375 03ba
00000130: a89e c0b7 e0df b4b6 dae5 f5b9 9e07 9ab9
00000140: 1706 baba 12fd 8738 1975 c03a 3a10 f739
00000150: 5d71 9a39 89d0 993a 0dc7 823a 28c4 023b
00000160: f6c8 6c3a 9e05 6eba 9461 7bb9 cdbf 11b8
00000170: d26e 3439 7593 4b38 81c1 4aba f715 f339
00000180: f01e a43a 8b09 45bb 3935 043a b9c5 4c3a
00000190: 6caa 643a 7bd0 f7bb 53bf e4ba 6eb3 5eba
000001a0: 6092 b63a c4f7 ce38 2a64 57ba fdf9 01bb
000001b0: 1e34 1ab8 bf9b aa3a 9671 79bb 4dbc a4ba
000001c0: bb11 98ba d89e 6bbb 8313 c1bb 3ac8 21bb
000001d0: b5a5 8ebb cd26 fc39 c37e 1bbb 1c88 1abb
000001e0: 3a57 19ba ddbf c7ba d986 063b ebe3 ef39
000001f0: a790 fdb9 f4f6 4d3a 79ab 00ba 8a9b b43a
00000200: 7c79 a638 7ae5 383a 7ab0 903a bfc8 7b39
00000210: cd24 ff39 12fd 9839 4c22 e2ba 902d 70bb
00000220: 3c51 bdba bc13 1d3a 0deb 9a3a b67b f3ba
00000230: a803 fd39 1e54 cbb9 51ec 7cbb 6a8c 09ba
00000240: 0cd6 f03a 3638 c83a bc83 a13a 4cb7 ee3a
00000250: 5006 79b9 ba25 c739 928e 86ba 4e2a 6dba
00000260: f38b 52bb 4c22 113a 0420 3138 efb9 d4b9
00000270: 7449 6ebb d6d9 983a dc77 4dba 5a47 b439
00000280: f28f f8bb 7d5f 503a
-0.00037541802 0.0019388868 -0.0039860746 -9.915558e-05 -0.00084438425 -0.003899324 0.00013827006 0.0015053999
0.00031422538 -4.835402e-05 0.00046376354 0.0004731159 3.097157e-05 0.00014854774 -0.0023303698 -0.0020568818
-0.00066489825 -0.0047090296 -0.0035271433 -0.00028683472 -0.004690678 0.00038791532 -0.000814915 -0.0016335695
-0.00039384235 0.0007778523 -0.0033636014 -0.0032660803 0.0008773307 0.00070248893 -0.0006024873 -0.0015794234
0.00024279972 -0.0020665172 -0.00068828295 -0.0026653025 -0.0037084352 -0.0016173874 7.6641896e-05 -0.0010216698
-9.377117e-05 -0.0014443767 0.00037392485 -0.0035712 -0.00074895885 -9.7073615e-05 -0.00034354063 0.0008892369
-0.00089517905 0.0004352674 -0.0029300472 -0.00065858953 0.000615959 0.00032440014 -0.0005775259 0.00016353789
-0.003283956 1.250366e-06 -0.0012135564 0.002130915 -0.002090681 -0.0033320128 7.753425e-05 -0.0019006572
-4.094474e-05 -0.00080874935 0.0014009853 -0.00027269404 0.00036071567 -0.0006418404 0.00045579422 -0.00061415555
-5.631471e-06 -0.0011791809 -0.0037811568 -0.00050147733 -2.2962064e-05 -5.3904805e-06 -0.00046901294 -0.00029378844
-0.0014192489 6.48444e-05 0.0014683335 0.000471236 0.0002945763 0.0011735122 0.0009977535 0.0019953344
0.0009032631 -0.00090798165 -0.00023973576 -3.4749322e-05 0.00017207421 4.85363e-05 -0.0007734523 0.00046364937
0.0012521427 -0.0030065503 0.0005043331 0.00078114454 0.00087229046 -0.0075626946 -0.0017452039 -0.0008495365
0.0013929121 9.8689954e-05 -0.0008216525 -0.0019832843 -3.6765e-05 0.0013016387 -0.0038062087 -0.0012568325
-0.0011601964 -0.0035952833 -0.0058922186 -0.0024685995 -0.00435325 0.00048094094 -0.002372668 -0.0023579663
-0.00058494846 -0.0015239675 0.0020527153 0.00045755444 -0.00048363695 0.0007856928 -0.0004908364 0.0013779264
7.938125e-05 0.00070532376 0.0011038922 0.00024012009 0.0004866481 0.0002918025 -0.0017252653 -0.003664825
-0.0014443765 0.00059920154 0.0011819318 -0.0018576297 0.00048258645 -0.0003878185 -0.0038593004 -0.00052470586
0.0018374338 0.0015275541 0.0012322585 0.0018212586 -0.00023748842 0.00037984346 -0.0010265878 -0.00090471364
-0.0032126873 0.00055364217 4.2229905e-05 -0.00040574322 -0.00363597 0.00116616 -0.000783799 0.00034385436
-0.007585519 0.0007948799

l3/W f4 [162, 162]
00000000: 29df 5dbd cbc7 55bd 7c7f 803d 8113 b63d
00000010: 723d e2bd 35f8 a13c bcbd 9abd dd3d 993d
00000020: 44af 97bd 1cd4 2cbe 15db 53bd dea6 783d
00000030: 956a 8cbd 3137 e8ba fa79 d43c 20b9 263d
00000040: b820 9b3d cbec 263c 030e 7fbd e6f2 ec3d
00000050: 7dff 01bd 88c6 a93d 6a7b 0b3e 4447 a73d
00000060: 3cad a73c 591d 983c 5932 243e be2b cbbd
00000070: 6646 4b3c 0063 abbc 0cd2 6ebd d4d9 463d
00000080: bb39 073d 8933 bfbc d8f8 1abe f2e1 e93c
00000090: 0d82 343d d2cc fbbc 03ea 15bd 8af6 d5bc
000000a0: 4270 9bbd 324c fe3c b4bb 8c3d 88f3 0c3d
000000b0: 3aa2 913d 3e1e ca3d 0c78 f1bc b6b5 b23d
000000c0: d546 99bd 4ca6 b93d 3ac1 25bd b6de 21bd
000000d0: e811 10bd 380f 12be 055d 15bd 5ce3 84bd
000000e0: fba0 aebc 90d6 f63b 1bd5 41bc 18ac 1bbe
000000f0: c7c9 a93d 816c a3bd f8ee 28bd c57b 95bd
00000100: 11b0 a3bc 712b e33c 5688 7fbb 2853 863d
00000110: b083 183e 295d 563c e606 9a3d 8580 8ebd
00000120: f69d 45bd 66f2 a23d a0f1 573d dd78 cd3d
00000130: 90c8 09be 1150 d7bd 1b30 cbbb cc4b dfbd
00000140: 13ed a63d 90ce 473d c520 aabd 5fff c9bd
00000150: a9f2 223c a8f1 86bd 62a7 093b 0e20 f3bd
00000160: f873 16bd e5c8 3cbd e71d aebb 15ae 0a3d
00000170: 2fb3 c83c 3bd7 cfbc 4e3d fa3d cbc8 e33d
00000180: cedf 3ebd e579 2f3d 94e2 313d a58a 9f3d
00000190: b960 a8bd 0e10 483d e24e 203b db60 e2bd
000001a0: 6e4e febc 594c b6bd c806 893d e0d4 8e3d
000001b0: d84c 19bc dcff 693c 6a6c 74bd 8e7e 3ebd
000001c0: 9d61 72bd d5f5 a73d 0385 263d 6bf0 86bd
000001d0: f714 853d 1a2e 38bc 0f92 d9bb 0662 b83d
000001e0: c01f 1dbc 518b 84bd efd3 2cbd 3301 9cbd
000001f0: 5299 d2bd 6539 e43d 73dc cc3d be97 773d
00000200: 80cd 1e3d 4f04 3e3d 1694 993d b7d5 21be
00000210: 2286 eebc 7c1c 773d 3710 92bd 22a0 833b
00000220: 0a7a 163e c3da e3bd 39b5 bf3d 7f06 dd3c
00000230: aa85 05be 12ec aabd fa6f bcbc 9141 d2bd
00000240: 5e9b 18bc 1a36 fe3d 3e15 0b3e 4986 54bd
00000250: a381 1ebe 4a9b c13b 06a0 59bd 62fb e3bc
00000260: 3cfa 423d 2291 8b3d 88a3 25bc 3466 d83d
00000270: 2d5e 343c 5862 e8bd f3c5 f33d 91c4 4f3c
00000280: c640 933d 08f1 9bbd 926b abbd d5b2 f0bd
00000290: c065 44bd 4bc1 b13d 7495 d53d 260a b8bc
000002a0: 5d68 8a3d 1763 dc3d ac12 093e 696d d33a
000002b0: e53d a23c 9a1d 20be 1ec3 5d3d 0e68 273e
000002c0: 73d7 a4bd 3e95 993d 4f11 ba3d 8e1a a43d
000002d0: e931 3bbc a2b0 0c3e 0215 d33d f10b d4bb
000002e0: fba1 d7bd b2a0 f83d dd43 c5bd a2f3 05bd
000002f0: b95a ff3b 8c6d f0bd 2806 27bc 1a8e 70bd
00000300: 9bdd a5bd 84a4 223e 7539 f23d c626 efbc
00000310: 1439 00bd 1bec f13d d323 1c3d a681 a239
00000320: 6308 44bc 5854 b53d d51b 8abc a67a 1e3d
00000330: afef 0b3d 82eb 143d bb70 18be 8db0 af3d
00000340: 6981 84bd a60f ae3c b142 06be f94b c5bd
00000350: 436c d7bd 940e 6ebd 21b7 753d 2da5 9239
00000360: 12f3 fb3c 6374 1e3e b1ed 033d ea1f 873c
00000370: 9b4d c03d 235e 5dbd b03f d63d d538 cebc
00000380: 6f93 0dbc 06dd 49bd 5d96 843d 626c 8f3c
00000390: 6bcd 3dbc ba48 d23c 4f26 b63d 107a d9bd
000003a0: c6a2 3f3c 657c cb3c 3f24 d13d fecf 7bbd
000003b0: 709a a7bd 4f52 d23c 443d 8fbd 24f9 dd3d
000003c0: cb29 22bd fa54 4b3d 058c 9cbd 12cc 42bd
000003d0: 0a8e 0c3e 1463 983d 64fa f7bc 3692 0c3d
000003e0: a497 ff3c c90f 5c3d 0da4 8d3c c640 13be
000003f0: 27b8 8bbd 0a19 17be 6ded 7d3d 9e56 f2bc
-0.0541679 -0.05219249 0.06274316 0.08890439 -0.11046876 0.019771675 -0.0755572 0.074825026
-0.07406476 -0.16877788 -0.051722605 0.060706012 -0.068562664 -0.0017716644 0.02593707 0.040703893
0.075746 0.010188292 -0.062269222 0.11569767 -0.031737793 0.0828982 0.13621297 0.0816789
0.020468347 0.018568682 0.16034831 -0.099204525 0.012406921 -0.02092123 -0.058305785 0.04854758
0.03301404 -0.023340004 -0.15133989 0.028550122 0.04406934 -0.030737314 -0.036600124 -0.026118536
-0.07589771 0.031042192 0.06871739 0.034411937 0.071110204 0.098690495 -0.029476188 0.08726065
-0.07484213 0.09064922 -0.04046748 -0.039519034 -0.035173327 -0.14263618 -0.036465663 -0.06488678
-0.021316996 0.007532902 -0.011830593 -0.15202367 0.08290439 -0.0797968 -0.041243523 -0.07298998
-0.019981416 0.027730675 -0.0038991175 0.065588295 0.14893985 0.013083735 0.07520847 -0.06958107
-0.048246346 0.0795639 0.052720666 0.100328185 -0.13455415 -0.10513318 -0.006200803 -0.10903129
0.08150687 0.048780978 -0.083070315 -0.09863161 0.00994555 -0.06589061 0.002100431 -0.11871348
-0.03673169 -0.046090025 -0.005313623 0.033857424 0.024499504 -0.025371185 0.12218724 0.111222826
-0.046600156 0.042840857 0.043428972 0.07790116 -0.082215734 0.048843436 0.002446108 -0.1105363
-0.031043258 -0.08901281 0.066907465 0.069741964 -0.0093567 0.014282193 -0.059673704 -0.04650741
-0.059175123 0.082011856 0.040654194 -0.06588825 0.06498139 -0.01124146 -0.006639726 0.090030715
-0.009590089 -0.06471885 -0.042194303 -0.07617416 -0.1028315 0.1114376 0.10002985 0.060447447
0.0387702 0.046390828 0.07498948 -0.15804182 -0.029116694 0.0603299 -0.07131999 0.004016892
0.14694992 -0.1112571 0.09360737 0.026980637 -0.1303927 -0.08345808 -0.023002613 -0.10266412
-0.009314386 0.12412663 0.13582322 -0.051885877 -0.1547914 0.0059084045 -0.053131126 -0.02782983
0.047601923 0.06814791 -0.01010979 0.10566369 0.011008781 -0.113468826 0.1190299 0.012681142
0.07190089 -0.076143324 -0.08370127 -0.117528595 -0.0479486 0.08679446 0.104288965 -0.022465777
0.06758187 0.107610874 0.13386029 0.0016130629 0.019804904 -0.15636292 0.054141156 0.16348287
-0.08048906 0.07499169 0.090853326 0.080128774 -0.011425474 0.13739255 0.10306741 -0.00647115
-0.10528942 0.12140025 -0.096320845 -0.03270305 0.0077927974 -0.117396444 -0.010194339 -0.05872927
-0.080989085 0.1588307 0.11827365 -0.029193293 -0.031304434 0.11812612 0.038120102 0.00030995643
-0.01196489 0.08853978 -0.016858974 0.038691185 0.034164127 0.03635741 -0.14886753 0.08578596
-0.064699955 0.021247696 -0.13111378 -0.09633631 -0.10518696 -0.05811937 0.0599891 0.00027970356
0.030755553 0.15474086 0.032209102 0.01649471 0.09389802 -0.054044854 0.10461366 -0.025173584
-0.008641108 -0.04928305 0.06473992 0.017507736 -0.01158462 0.025669444 0.088940255 -0.10618985
0.011696523 0.02483959 0.102119915 -0.061477654 -0.081837535 0.025674013 -0.06994107 0.108385354
-0.039590638 0.049641587 -0.07643894 -0.047557898 0.13726059 0.07440773 -0.030270763 0.034319125
0.031200238 0.05372599 0.01729014 -0.14380178 -0.06822234 -0.14755645 0.061994005 -0.029582318

l4/b f4 [4]
00000000: 44f0 68bc a5ff 3a3c 98f2 703c bae8 15bb
-0.01421744 0.0114134895 0.014706276 -0.0022874312

l4/W f4 [4, 162]
00000000: 89ce 8cbd 4f3d ecbd 6f1d 903d a6d5 bf3b
00000010: 0212 ef3c 22ec 9d3d a124 0d3d 1214 59bd
00000020: dba7 2dbd c940 00bd eb26 7b3d 979c acbd
00000030: 1385 9b3c 9bf7 acbc 035a 023c 42cc 4e3c
00000040: 1a3a cd3b a9d8 fd3d a05b d53d 353a 703d
00000050: 9b3f fc3d e653 92bd c1fa 73bd 4a01 b1bc
00000060: 9e96 c6bb d6b0 ee3d aced ca3c 1bbf 8cbc
00000070: f0e9 ddbd 26a6 03bc e087 8dbd e1e6 a23d
00000080: c39d 0dbe 82fa 44bd f3e5 493d b0c5 cb3d
00000090: 3888 183e dab6 f3bb 1227 e5bb d4d0 ce3d
000000a0: 8ada bf3d bcc1 693d 8105 063d ac00 e4bb
000000b0: 9792 c53d 32b0 1a3d 5b4c b7bc 7acf a6bc
000000c0: 8eeb b0bc a556 5f3c df3d c23d 23cf 673c
000000d0: 0068 e23c 045a 32bb 322b 8dbc f0ef b3bd
000000e0: c9da ddbb 6ddc 2c3d abb0 09bd 8bf4 65bd
000000f0: d5fc 843d 440f 943b 329f 343d 4b52 ad3d
00000100: e8c6 babc da5b babd 6a90 2fbd 5fde 053d
00000110: 8e84 21be 0d2c 24bc 17b9 f8bc 3b82 7d3d
00000120: 9c63 00bd f109 673d 394a d33d 5737 7a3d
00000130: 7ffa a13d 2910 e2bc 3080 cc3d e2de d2bc
00000140: 7d85 a3bd 88b7 26bc a5d5 cabd bdca 10bd
00000150: c3f6 eabc 246f 46bd 6569 f4bd f5a0 a7bd
00000160: de4d adbd a0e3 b93d 56a7 aebc 932b 08bc
00000170: da05 65bd 1360 9c3c 95b0 c43d 0c55 0dbc
00000180: 4f36 513a 138d bd3d fb5d 11bd e6f9 613d
00000190: 619c e3bc d2d0 c93d 63c9 86bd dd53 38bd
000001a0: 274a 98bd 1d15 1bbd 4541 ea3c 35bc cdbb
000001b0: cf30 7a3b 1619 42bd 73ad 86bd 1dfb 33bd
000001c0: 76f6 c0bc 004b 3a3d ffed 033e 80e1 e7bc
000001d0: ff92 1d3e 6b3e abbc b025 d33d 94e6 163c
000001e0: 8acf 273d 47c0 bd3d 1280 073c be77 cbbc
000001f0: e6da a43d e1e5 cb3d 1806 4c3e 2744 80bd
00000200: bc48 073d f857 893c ff94 1e3d eee0 683c
00000210: 285d 4b39 fac4 803c ee84 953d 1f7f 593d
00000220: 2b17 fa3d 217f b83c cbdb e3bc 7ab9 9fba
00000230: bae6 533c 761d 763b c2c5 b33d 7914 f73d
00000240: d0bd 8abd 1b6c 3abe 4649 39bd c88f a5bd
00000250: 5c33 a23b f8c7 1dbd b13a 6cbd 8976 913d
00000260: 7b93 5e3d ecfa 153c 3f2e 4bbd 1298 e8bc
00000270: c1aa 223d 9fef 4abd 86d5 c73c d665 113c
00000280: 1315 433e 7ffe 9ebd bb50 c7bd a4a5 873d
00000290: 43d4 31be c359 8c3d c695 46bd cce8 fd3d
000002a0: fa9d 923d 728f b2bc 2cb4 54bd 0af6 8bbd
000002b0: d0ba 39bd 199f 73bd df74 8b3d 272a 343c
000002c0: dd92 2b3d 8ac0 9fbd e608 f0bc 00c4 b53c
000002d0: e494 d6bd 8220 d6bd a679 a3bd 301c 413d
000002e0: 3381 2abd 0cb4 94bd c37c d53d e28c fb3c
000002f0: ed4f 5cbe 73ed d2bd f541 44bd 2ebe d7bb
00000300: 4459 043e d3ca 45bd 0195 8abd 9d37 b23d
00000310: 7a4a 883c ab2b 133e 54dc ddba b936 9dbd
00000320: 89fa 1fbd 0aca d3bc 1493 ad3c 2867 a53d
00000330: 0be9 403d 6096 9dbd f6a5 91bd 96f5 343d
00000340: 8d67 9a3c c199 343d 58f4 6c3d 5471 4a3e
00000350: 2289 123e 8521 f5bc 7eb7 34bd 0e99 a43d
00000360: 00ac 653d d30e e5bc 5eab 823a c099 f73c
00000370: ed38 40bd 85b6 10bd 8cd8 c2bc e699 1bbe
00000380: 89c1 debb 1f28 8b3d 44c5 87bd d77b 3abe
00000390: c410 883e 8d95 bf3c 4240 ca3c c941 733c
000003a0: eee7 72bb 050e 14be f5fb 2a3c 80d8 ce3d
000003b0: ca5e 19bc 4214 853d 03d5 bbbc a80a 21bd
000003c0: b1bb 493c 5d5a 8fbd fbd6 ea3d cea4 b93c
000003d0: 938e 093d 9daf 13bd 4e0c 0abb 0765 713d
000003e0: dec1 eabc e4cd 823d 7616 c13a 5f03 773d
000003f0: d340 763d e3df 523d 08e0 1b3d a902 1e3e
-0.06875331 -0.11535131 0.07036864 0.0058543263 0.029183391 0.077110544 0.03445876 -0.052997656
-0.042396408 -0.031311784 0.061316412 -0.08428305 0.018984353 -0.021114161 0.007956031 0.012621941
0.0062630298 0.1239484 0.10417867 0.05864926 0.12316819 -0.071449086 -0.05956531 -0.02160706
-0.0060604354 0.116548225 0.024771534 -0.01718097 -0.10835636 -0.008035218 -0.06910682 0.07954193
-0.13829713 -0.048090465 0.049291562 0.09949815 0.14895713 -0.007437569 -0.006993183 0.100984246
0.09367855 0.057069525 0.032720093 -0.006958088 0.096471004 0.03776569 -0.022375276 -0.020362604
-0.021596696 0.0136314975 0.09484457 0.014148506 0.027637482 -0.0027214298 -0.017232511 -0.08785999
-0.006770466 0.042202402 -0.03361575 -0.056141417 0.064935364 0.0045184214 0.044097133 0.08462962
-0.022799924 -0.090995505 -0.042862333 0.032682773 -0.15773222 -0.010020268 -0.030361695 0.061891776
-0.031344995 0.056405965 0.10316891 0.061087932 0.079091065 -0.027595596 0.09985387 -0.025741044
-0.07984445 -0.010175593 -0.09904031 -0.035349596 -0.028682118 -0.048445836 -0.11934165 -0.08184997
-0.084621176 0.09076619 -0.021320026 -0.00831117 -0.055913784 0.01908878 0.09603993 -0.008626234
0.000798081 0.092554234 -0.035490017 0.055169962 -0.027784528 0.098542824 -0.0658138 -0.045001853
-0.074360184 -0.037861932 0.028595576 -0.0062785395 0.0038176065 -0.047387205 -0.065760516 -0.043940652
-0.023555022 0.04548168 0.12883757 -0.028305769 0.15388106 -0.020903787 0.10309923 0.009210248
0.04096941 0.092651896 0.00827028 -0.024837371 0.08049564 0.09955955 0.199242 -0.06262999
0.03302835 0.01676558 0.038716312 0.014213784 0.00019394292 0.015718926 0.07300745 0.053099748
0.1221145 0.022521557 -0.027814766 -0.0012186014 0.0129334275 0.0037554181 0.08777954 0.12064452
-0.06774485 -0.18205301 -0.045235895 -0.08084065 0.00494997 -0.038520783 -0.05767316 0.07102687
0.054339867 0.009154063 -0.04960465 -0.028392825 0.039713625 -0.049544927 0.024393808 0.008874377
0.19051008 -0.07763385 -0.09732195 0.0662339 -0.17366128 0.06853058 -0.04848268 0.12397918
0.07159038 -0.021796916 -0.051929638 -0.068340376 -0.045344174 -0.0594779 0.06809401 0.010996378
0.041888107 -0.07800396 -0.029301118 0.022188187 -0.104776174 -0.10455419 -0.07982187 0.047146022
-0.04162712 -0.07260904 0.10424187 0.030706827 -0.21514864 -0.10299196 -0.047914464 -0.0065839505
0.12924677 -0.04828913 -0.067667015 0.08702014 0.016637076 0.14372127 -0.0016926625 -0.07676453
-0.03905729 -0.025853176 0.021188296 0.08076316 0.047097247 -0.076946974 -0.07111733 0.04417952
0.018848205 0.044091944 0.05785021 0.19769794 0.14310125 -0.02992321 -0.044120304 0.08037005
0.056072235 -0.02796117 0.0009969284 0.03022468 -0.04692929 -0.035330314 -0.023784898 -0.15195426
-0.0067979735 0.06794762 -0.06629422 -0.18211304 0.2657529 0.023386741 0.024688844 0.014847227
-0.003706451 -0.14458473 0.010436048 0.10099888 -0.009360978 0.064980045 -0.02292872 -0.039316803
0.0123128155 -0.06999657 0.114667855 0.022661593 0.033583235 -0.03605615 -0.0021064463 0.058934238
-0.028656896 0.06386927 0.0014731425 0.06030595 0.060120415 0.051483046 0.03805545 0.15430702
