model2.npz (npz, 224835 bytes, 8 tensors)

l1/W f4 [162, 40]
0	0xbd702c97	-0.058636274
1	0xbdf55792	-0.11979593
2	0xbec64f54	-0.38732398
3	0x3ec0b689	0.37639263
4	0x3e51d517	0.20491444
5	0xbdb07a67	-0.086170964
6	0xbe87d0d5	-0.26526514
7	0xbe8d028c	-0.27541006
8	0xbe27f4f0	-0.1640203
9	0xbe338c07	-0.17533885
10	0x3d932802	0.07185365
11	0xbc670406	-0.01410008
12	0x3e19c0b8	0.15014923
13	0xbd174ce4	-0.036938563
14	0x3da4d768	0.08048898
15	0xbcca8fb4	-0.024726726
16	0xbd92aea7	-0.071622185
17	0x3e9c216c	0.3049425
18	0xbe2857e4	-0.16439778
19	0xbc9bbe78	-0.019011721
20	0x3da52546	0.0806375
21	0x3d4ef07b	0.05052231
22	0xbd02a41a	-0.03189478
23	0xbe9147c6	-0.2837507
24	0x3dc1ce10	0.094631314
25	0x3de2b99e	0.1107056
26	0x3cee66ea	0.029101808
27	0xbc9dce4a	-0.019263405
28	0xbdcd6fcc	-0.10031089
29	0x3e166a0f	0.14688896
30	0xbd7a5c7a	-0.06112335
31	0x3cfda494	0.030962266
32	0xbd0448b1	-0.032295886
33	0x3c820f6e	0.015876498
34	0xbe32403e	-0.17407319
35	0x3d1b4985	0.03791191
36	0x3e3c203c	0.18371671
37	0x3dccdef8	0.100034654
38	0xbd7c7bff	-0.06164169
39	0xbdb06bce	-0.08614312
40	0x3ddc1ee8	0.107480824
41	0x3d594b53	0.05305035
42	0x3d8ada6f	0.06779944
43	0x3d400a9b	0.046885114
44	0x3e6627f1	0.22476174
45	0xbe6cb06e	-0.23114178
46	0x3e9002e9	0.2812722
47	0xbecd26ae	-0.40068573
48	0xbe0be38a	-0.13661018
49	0xbe406f44	-0.18792444
50	0x3de0125a	0.10941
51	0xbe417b92	-0.18894795
52	0xbebd650c	-0.36991155
53	0x3f096ce0	0.53681755
54	0x3dc3f235	0.09567682
55	0xbe993108	-0.2992022
56	0x3d68773c	0.056754336
57	0x3ea367df	0.31915185
58	0x3d4650fe	0.048417084
59	0xbd834864	-0.06410292
60	0xbef53aa9	-0.47896317
61	0x3e19212e	0.14954063
62	0xbd8428c2	-0.064530864
63	0x3d890a55	0.06691424
64	0xbe6bba31	-0.23020245
65	0xbe395692	-0.1809943
66	0x3e458f7c	0.19293016
67	0xbea2790b	-0.31732973
68	0xbea44ade	-0.3208837
69	0x3e08ce72	0.13360003
70	0x3e26090c	0.16214389
71	0x3d39a096	0.045319162
72	0x3c6a3018	0.014293693
73	0xbe311f99	-0.1729721
74	0x3e47f621	0.19527484
75	0xbd855d63	-0.06511953
76	0x3d5ba076	0.053619824
77	0x3d78da08	0.060754806
78	0x3d0b33f5	0.033985097
79	0xbe994542	-0.29935652
80	0xbeb22533	-0.34794006
81	0xbe20e613	-0.15712766
82	0x3e375001	0.17901613
83	0xbcae138c	-0.021249555
84	0x3e893be9	0.2680352
85	0x3dc957e5	0.09831218
86	0x3e42d307	0.19025813
87	0xbe2a62a2	-0.16639188
88	0xbdb243a0	-0.08704305
89	0xbbdfc931	-0.006829404
90	0xbd08773a	-0.03331683
91	0xbe42089f	-0.18948601
92	0x3ef197a3	0.47186002
93	0x3d0c8f39	0.034316275
94	0xbe1ef62d	-0.15523596
95	0x3e4db79d	0.20089574
96	0xbe3df6cc	-0.18551177
97	0x3cf493c1	0.02985561
98	0xbd6ac0b8	-0.057312697
99	0x3dddc1f6	0.10828011
100	0xbd360866	-0.044441603
101	0xbe1d911d	-0.15387388
102	0x3cfc6083	0.03080774
103	0x3d40ef78	0.047103375
104	0x3d1493d1	0.03627378
105	0x3ecc8ec7	0.3995268
106	0xbe500d9b	-0.2031769
107	0x3cabfa97	0.020993514
108	0xbe92294e	-0.28547138
109	0x3dad21b1	0.08453692
110	0x3e9ecf64	0.310176
111	0x3bf47393	0.0074600666
112	0xbc9b0989	-0.018925445
113	0xbdac6a5d	-0.08418725
114	0x3e869177	0.26282856
115	0x3dbbaa78	0.09163374
116	0xbdd3f7c5	-0.10349993
117	0xbcd2cd98	-0.0257328
118	0x3e824a44	0.25447285
119	0xbd6d4cc2	-0.05793453
120	0xbdfbc4f7	-0.122934274
121	0xbd17fc59	-0.03710589
122	0x3d453304	0.048144355
123	0xbdb1db63	-0.08684423
124	0xbd9ab86c	-0.07554707
125	0xbe5bac4b	-0.21452443
126	0xbdeb45d7	-0.1148793
127	0x3e1ed3f0	0.15510535
128	0x3e61e90a	0.22061554
129	0xbe200153	-0.15625505
130	0xbe293746	-0.16524991
131	0x3dd75adc	0.10515377
132	0xbe7b7489	-0.24556173
133	0xbc590ba6	-0.013247406
134	0x3bc9fc05	0.0061640763
135	0x3e429b6f	0.19004606
136	0xbc1979c5	-0.009367411
137	0xbbe733aa	-0.0070557194
138	0x3ebf046b	0.37308058
139	0x3cf79950	0.030224472
140	0xbbb48f4b	-0.005510246
141	0xbe287ecb	-0.16454618
142	0x3dae0db7	0.0849871
143	0xbeb282c7	-0.348654
144	0xbc32e27a	-0.010918254
145	0xbe8b6ef8	-0.272331
146	0xbb1336a9	-0.0022463
147	0xbde110bc	-0.1098952
148	0xbda8e3e4	-0.08246592
149	0xbce112a1	-0.027474703
150	0xbc24f0af	-0.010067149
151	0xbe891c55	-0.26779428
152	0x3d407484	0.046986118
153	0x3cb8a207	0.022538198
154	0x3d3e75d9	0.046499107
155	0xbecb7a5a	-0.39741784
156	0x3e2ba150	0.16760755
157	0xbc69bbbb	-0.01426595
158	0x3db3344b	0.087502085
159	0xbd72f2c7	-0.05931356
160	0xbd461b81	-0.048366074
161	0xbd79db24	-0.061000004
162	0xbde7ef5c	-0.11324951
163	0xbbeb708c	-0.0071850475
164	0x3da786bc	0.081799954
165	0xbd9b9aa5	-0.075978555
166	0xbea9e05e	-0.3317899
167	0xbbedbe7c	-0.0072553735
168	0x3e405183	0.18781094
169	0xbe56d0bb	-0.20978062
170	0x3f523fb5	0.8212846
171	0xbe188afe	-0.14896771
172	0xbe1aaf58	-0.15105951
173	0x3c2f7cca	0.010710904
174	0xbe692791	-0.22769
175	0x3dc6d980	0.097094536
176	0x3d6a0236	0.057131015
177	0xbe72bff3	-0.23706035
178	0x3d8bb97f	0.0682249
179	0xbcefdd0f	-0.029280214
180	0x3daadcb5	0.08342878
181	0x3d10e4e2	0.03537453
182	0x3c375700	0.011190176
183	0xbc4c9ea6	-0.012488997
184	0x3e4c1e8c	0.19933528
185	0xbb01e970	-0.0019822977
186	0x3b981e0e	0.0046422547
187	0xbe1dbd4d	-0.15404244
188	0xbce1d711	-0.027568372
189	0xbdfabdaa	-0.12243207
190	0x3d6a2170	0.057160795
191	0x3d80e49d	0.062936045
192	0x3dec921e	0.11551307
193	0x3c58684a	0.013208458
194	0x3e2d671e	0.16933867
195	0xbe3e09c8	-0.18558419
196	0xbd31f070	-0.04344219
197	0x3e56226a	0.20911565
198	0x3dd3795c	0.10325882
199	0xbe278c49	-0.16362108
200	0x3ee19133	0.4405609
201	0xbe49d20e	-0.19709036
202	0x3d994731	0.07484282
203	0xbde16387	-0.110053115
204	0xbe05bbc8	-0.13059914
205	0xbcc4b054	-0.024009861
206	0x3e1b20bb	0.15149204
207	0xbe9d84d3	-0.307654
208	0xbd289a47	-0.041162755
209	0x3e10670b	0.14101808
210	0xbe5e3359	-0.21699275
211	0x3ea80bcd	0.32821503
212	0xbdb4ab66	-0.08821754
213	0xbe9b67e0	-0.30352688
214	0xbd084fab	-0.033279102
215	0x3e677e48	0.22606766
216	0xbe0286fe	-0.12746808
217	0xbde75f23	-0.11297443
218	0xbe1ede43	-0.15514474
219	0xbe197e8c	-0.1498968
220	0x3e39b13c	0.18134016
221	0xbd2b219c	-0.0417801
222	0x3dca474a	0.098768786
223	0x3ea2163f	0.31657597
224	0xbba9523c	-0.005167274
225	0xbd54be12	-0.051939078
226	0xbcbc0fba	-0.022956718
227	0x3e1c396d	0.15256281
228	0x3dacd04f	0.08438169
229	0xbda8eafc	-0.08247945
230	0xbe4d20d5	-0.20032056
231	0x3bfb9bb9	0.0076784757
232	0x3dff3443	0.1246114
233	0xbe46f572	-0.19429567
234	0xbdf512a5	-0.11966447
235	0x3e0fffe6	0.14062461
236	0x3e97fc57	0.29684708
237	0x3d91d8e8	0.0712145
238	0x3dd6f49c	0.10495874
239	0x3e04da54	0.1297391
240	0x3e14004b	0.14453237
241	0x3b4440d1	0.002994586
242	0x3d8c2163	0.068423055
243	0x3ea1f30d	0.31630746
244	0x3db785ce	0.08961068
245	0xbe5d77fd	-0.21627803
246	0xbd51f2b8	-0.051256865
247	0x3d6c479d	0.057685483
248	0x3e125766	0.14291152
249	0xbe5d91eb	-0.21637695
250	0xbd033f5d	-0.03204285
251	0xbdec0a97	-0.11525457
252	0x3e06550f	0.13118385
253	0xbd905217	-0.070469074
254	0xbe0c20bb	-0.1368436
255	0xbd6cbc26	-0.05779662

l1/b f4 [162]
0	0xbdec576c	-0.11540112
1	0xbeb8975e	-0.36052984
2	0xbe44c9a6	-0.19217548
3	0x3bd581fe	0.0065157404
4	0xbef6f511	-0.48233846
5	0xbd3c58ac	-0.045983
6	0xbdec018e	-0.11523734
7	0xbed35cdf	-0.41281793
8	0xbecc7ebb	-0.39940438
9	0xbe01b76f	-0.1266763
10	0xbe8337e5	-0.25628582
11	0x3ecb8290	0.3974805
12	0xbe047c00	-0.12937927
13	0x3ea15b1b	0.3151482
14	0x3d5c97e7	0.053855803
15	0xbe66c210	-0.22534966
16	0x3e6c3bb2	0.23069647
17	0x3dbe888e	0.093033895
18	0x3f076ef4	0.52903676
19	0x3d4b13c7	0.049579408
20	0xbdfe2aac	-0.12410483
21	0xbe3097f0	-0.1724546
22	0xbe666ea7	-0.22503148
23	0x3bc59b02	0.0060304413
24	0xbcd6ff38	-0.026244745
25	0xbe1c5193	-0.15265493
26	0xbe046bc4	-0.12931734
27	0xbe4bdf20	-0.19909334
28	0xbe92ad53	-0.2864786
29	0xbda64b7a	-0.08119865
30	0x3dbfd2fd	0.09366415
31	0xbe1d990d	-0.15390415
32	0xbc5c29b9	-0.013437682
33	0xbe81c352	-0.2534433
34	0x3caa37d9	0.020778583
35	0x3ec4c00b	0.38427767
36	0xbe555442	-0.20832923
37	0xbd992e34	-0.07479516
38	0xbdafbe44	-0.08581212
39	0xbdce0f1d	-0.100614764
40	0xbe75b681	-0.23995401
41	0xbde49c2c	-0.111626
42	0x3d20b29f	0.039232846
43	0xbeb0b70a	-0.34514648
44	0x3d3a569e	0.04549276
45	0xbed73bcc	-0.4203781
46	0xbe4edb82	-0.20200923
47	0xbe79f0b6	-0.2440823
48	0xbec60886	-0.38678378
49	0xbe897bea	-0.2685235
50	0xbd72a820	-0.059242368
51	0xbe9ae811	-0.30255178
52	0xbda60f6b	-0.081084095
53	0xbe0f324a	-0.13984028
54	0xbe95e143	-0.29273424
55	0xbece7a53	-0.403277
56	0x3d8be82f	0.06831395
57	0xbed491fa	-0.4151762
58	0x3da84fbe	0.082183346
59	0xbdb34ffa	-0.08755489
60	0xbe824956	-0.25446576
61	0xbe810838	-0.25201583
62	0xbe290424	-0.16505486
63	0xbe843253	-0.25819644
64	0x3caad2eb	0.020852527
65	0x3eb1ce37	0.34727642
66	0xbc5cbddc	-0.013473
67	0xbde894e9	-0.11356527
68	0xbea71201	-0.32630923
69	0xbd0c9640	-0.034322977
70	0xbe9d16c6	-0.30681437
71	0xbcf21ce8	-0.0295548
72	0xbdfcaa61	-0.12337185
73	0xbde3e08b	-0.111268125
74	0xbe8e9dfe	-0.27854913
75	0xbe29c317	-0.16578327
76	0xb8afe6a0	-8.3876075e-05
77	0xbe9bc2ab	-0.30421957
78	0xbca65666	-0.02030487
79	0xbd830677	-0.063977174
80	0xbd2d928e	-0.042376094
81	0xbe4306ce	-0.19045565
82	0xbe22ff95	-0.1591781
83	0xbc5ca251	-0.013466434
84	0x3d5b7ae1	0.053583983
85	0xbe6bbd30	-0.23021388
86	0xbe3bb7ec	-0.1833188
87	0xbb8b15e6	-0.004244554
88	0xbe02da9d	-0.12778707
89	0xbe4f22f7	-0.20228182
90	0xbdb546e2	-0.088514104
91	0xbbf6b92c	-0.0075293984
92	0xbde54432	-0.11194648
93	0xbd31992b	-0.043358963
94	0x3e7cc654	0.24685031
95	0xbcf7fd87	-0.030272258
96	0xbe543617	-0.20723759
97	0xbed0d0a8	-0.40784192
98	0xbda1ae3f	-0.07894563
99	0xbec5f457	-0.3866298
100	0xbe1d9e20	-0.15392351
101	0xbe3be958	-0.18350732
102	0xbe527a87	-0.20554553
103	0xbdf03399	-0.117285915
104	0xbe1aa350	-0.15101361
105	0xbde75e44	-0.112972766
106	0xbe80554a	-0.2506507
107	0xbe2d3d86	-0.16918
108	0xbe738c36	-0.23783955
109	0x3c57fa9d	0.013182309
110	0xbf3de6e6	-0.7418045
111	0xbe32f6f4	-0.17477018
112	0xbe86a6b8	-0.2629907
113	0xbe1c6ccf	-0.15275882
114	0xbe6c287f	-0.23062323
115	0x3e3f5cdb	0.18687765
116	0x3d6294de	0.055317752
117	0xbd1f6fc6	-0.038924955
118	0xbdc712ba	-0.09720369
119	0xbe259c73	-0.16172962
120	0x3d47b485	0.04875614
121	0xbe8ac161	-0.2710066
122	0xbd3899d4	-0.045068577
123	0xbe9e4a0b	-0.30915865
124	0xbe09d7eb	-0.13461272
125	0xbe8599cd	-0.26093903
126	0xbe2256b8	-0.15853393
127	0x3e07943f	0.13240145
128	0x3e82427d	0.25441352
129	0xbea8dd4a	-0.3298133
130	0xbe9a7c4a	-0.3017295
131	0xbde69136	-0.112581655
132	0xbe758f26	-0.23980388
133	0xbe13fa81	-0.14451028
134	0xbea6f065	-0.3260528
135	0xbd0060cd	-0.031342316
136	0xbe7c588f	-0.24643157
137	0xbd0df72f	-0.03465956
138	0xbe36a829	-0.17837586
139	0xbe1c34eb	-0.15254562
140	0xbd1b37d1	-0.037895028
141	0xbbc9485e	-0.00614266
142	0xbece8269	-0.4033387
143	0x3e8cd6cf	0.27507636
144	0x3ea79efc	0.32738483
145	0xbdf325f3	-0.118724726
146	0xbdad4824	-0.08461025
147	0xbd257735	-0.040396888
148	0xbdbcd75b	-0.09220763
149	0xbd99c5c4	-0.07508424
150	0xbe2018e3	-0.15634494
151	0xbe2eaf74	-0.17059118
152	0xbd858d95	-0.06521145
153	0xbdde29b3	-0.10847797
154	0xbd98b162	-0.07455708
155	0x3d55473d	0.05206989
156	0x3e367b16	0.17820391
157	0xbd77626b	-0.060396593
158	0xbd8a8e96	-0.06765477
159	0x3e13dcaa	0.14439645
160	0xbe408bd5	-0.18803342
161	0xbe48aa49	-0.19596209

l4/W f4 [4, 162]
0	0xbba6c81f	-0.0050897743
1	0x3e8a7b52	0.2704721
2	0xbe5f07d9	-0.21780337
3	0x3e3c7782	0.18404964
4	0x3d01269d	0.031530965
5	0x3e341303	0.17585377
6	0xbb5f2908	-0.0034051556
7	0x3e0ae51e	0.13563964
8	0xbce88660	-0.028384387
9	0x3d98a75e	0.07453798
10	0x3e8715c5	0.26383796
11	0xbd1cfa13	-0.038324427
12	0xbe51194e	-0.20419809
13	0xbe500a4f	-0.20316432
14	0xbe875b2e	-0.26436752
15	0xbe6cb252	-0.23114899
16	0xbcd4ae0e	-0.025961902
17	0xbedbcb46	-0.42928523
18	0xbbccb4d5	-0.006247143
19	0xbdf8eeef	-0.12154948
20	0xbcb7fbbd	-0.022458905
21	0x3df0386f	0.11729514
22	0x3d1b3863	0.03789557
23	0xbc845d6d	-0.01615783
24	0xbbcfdef6	-0.0063437177
25	0x3dd4252f	0.10358655
26	0x3d53b462	0.0516857
27	0x3bb70442	0.0055852244
28	0xbd68109b	-0.05665646
29	0x3d1de13e	0.038544886
30	0x3e0f588e	0.13998625
31	0x3e5cb798	0.2155441
32	0x3dfd6730	0.12373197
33	0xbd3c0bdb	-0.045909744
34	0xbe2e3dcd	-0.17015763
35	0x3dba3fb0	0.09094179
36	0xbea10362	-0.31447893
37	0x3d705a89	0.05868009
38	0xbce1b183	-0.027550464
39	0x3ed99271	0.42494538
40	0xbddda223	-0.10821941
41	0xbdba1a19	-0.09087009
42	0x3ef7f3d2	0.48428208
43	0x3d5a2068	0.05325356
44	0x3e0b9798	0.13632047
45	0x3cac3c35	0.021024803
46	0xbdacfe01	-0.08446885
47	0x3ce63ca4	0.028105088
48	0x3e972bae	0.29525512
49	0x3f37a36b	0.7173373
50	0x3ea5dc39	0.3239458
51	0x3d8d8dbf	0.069118015
52	0xbdbb4f5d	-0.09145997
53	0xbf45ce34	-0.77267766
54	0xbe80e80d	-0.2517704
55	0xbeb4ad6a	-0.35288554
56	0xbcff8b0d	-0.031194234
57	0x3c95a234	0.018265821
58	0xbdf52080	-0.119690895
59	0x3e07350a	0.13203827
60	0x3c17afce	0.009258224
61	0x3f4e1088	0.80493975
62	0x3df04b08	0.11733061
63	0x3dc3ecb0	0.09566629
64	0xbdd25953	-0.102709435
65	0xbe53e86d	-0.20694132
66	0x3d4af28a	0.04954771
67	0x3f0324f7	0.5122828
68	0x3db5ba76	0.08873455
69	0x3e02c7a8	0.12771475
70	0x3caebf40	0.02133143
71	0xbe471314	-0.19440871
72	0x3c4a4e22	0.01234773
73	0xbdb2dd41	-0.08733607
74	0x3c8aa67d	0.01692509
75	0xbbeb8eb4	-0.0071886424
76	0x3de61f97	0.11236494
77	0x3ea14416	0.31497258
78	0x3d6fdb99	0.058559034
79	0xbd8d2e9a	-0.06893654
80	0x3e797a6c	0.24363106
81	0x3de70952	0.112810746
82	0x3db7122c	0.08939013
83	0xbe57ccd4	-0.2107423
84	0x3e67b172	0.22626284
85	0x3f29fde7	0.6640305
86	0xbe4ca3fc	-0.1998443
87	0xbd4dfb02	-0.050288208
88	0x3b32835f	0.0027238948
89	0xbb034360	-0.0020029172
90	0x3c25645f	0.010094731
91	0x3eb8f596	0.36124867
92	0xbdeb5eb9	-0.11492676
93	0x3e0c39e6	0.13693962
94	0x3d319f27	0.04336467
95	0xbd9cab3a	-0.076498464
96	0x3e3c42f7	0.1838492
97	0x3ec8f777	0.392513
98	0x3e130d97	0.14360653
99	0x3c259e2b	0.010108511
100	0xbd354e63	-0.04426421
101	0x3e1fee62	0.1561828
102	0x3da143b8	0.078742445
103	0x3eebfa93	0.4608961
104	0xbdd1b30e	-0.1023923
105	0xbe6da2cc	-0.23206633
106	0x3eb51c67	0.35373232
107	0x3e5e6cc4	0.21721178
108	0x3ca84cd1	0.020544441
109	0x3ae3bff6	0.0017375934
110	0xbc014f38	-0.007892422
111	0xbd9cd112	-0.076570645
112	0x3eb08829	0.34478882
113	0xbf236db5	-0.63839275
114	0xbe4135c5	-0.18868168
115	0xbd93ca9d	-0.0721638
116	0x3dd61681	0.10453511
117	0x3e62e245	0.22156627
118	0xbe12efe8	-0.1434933
119	0x3c99a044	0.018753178
120	0x3eb92409	0.36160305
121	0x3d8aaa2f	0.06770741
122	0x3d29b5b1	0.04143304
123	0xbf060a53	-0.52359504
124	0xbcd4e19d	-0.025986487
125	0xbda7cc87	-0.08193307
126	0x3db509f5	0.0883979
127	0x3dd89487	0.10575204
128	0xbdb6fdaa	-0.08935101
129	0xbca7877a	-0.020450342
130	0xbd3bb7d0	-0.045829594
131	0x3e4935c6	0.19649419
132	0x3d2cf4f5	0.042225797
133	0x3db980aa	0.09057744
134	0x3c96e2a3	0.018418616
135	0x3c43d411	0.011952416
136	0x3e438650	0.19094205
137	0x3eb2bc3c	0.34909236
138	0x3e4fe927	0.20303784
139	0x3e0c3f5e	0.13696048
140	0xbde64f5e	-0.11245607
141	0x3dea5185	0.1144133
142	0x3d2e174e	0.042502694
143	0xbdca558d	-0.09879599
144	0xbce93a44	-0.028470166
145	0xbdc72afd	-0.09724996
146	0x3c713059	0.014721
147	0xbd88ac24	-0.06673458
148	0xbd774509	-0.06036857
149	0xbda707bf	-0.08155774
150	0xbdad747e	-0.08469485
151	0x3dd15c75	0.10222713
152	0xbe6f2be9	-0.23356594
153	0x3d38404f	0.044983204
154	0x3c09a437	0.008400968
155	0x3f5009e1	0.81265074
156	0x3d1e43cf	0.038638886
157	0xbdd40a1a	-0.10353489
158	0x3d273f25	0.040831704
159	0x3d78c143	0.060731184
160	0xbd007fb5	-0.03137179
161	0x3d8d7d07	0.06908613
162	0x3d96d8f7	0.073656015
163	0xbe759ffe	-0.23986813
164	0xbe356348	-0.17713654
165	0xbe71424e	-0.2356045
166	0xbc6949b3	-0.014238763
167	0xbd46e4a8	-0.048557907
168	0xbd9aea6d	-0.075642444
169	0xbbfe56bb	-0.007761804
170	0x3d62b480	0.05534792
171	0xbb9adf4d	-0.0047263266
172	0xbe8ed9b9	-0.27900484
173	0x3e6187b1	0.22024418
174	0xbd508800	-0.05091095
175	0x3dcf2e57	0.101162605
176	0xbdf21764	-0.11820868
177	0x3e61d20c	0.22052783
178	0xbb560343	-0.0032655753
179	0x3cde7787	0.027156604
180	0x3c99c62d	0.018771255
181	0x3d94542f	0.07242619
182	0xbc7b223f	-0.015327989
183	0xbe3a7dbb	-0.18212025
184	0x3de665dd	0.11249898
185	0xbd93ab0f	-0.07210361
186	0x3e276c52	0.16349915
187	0xbb8ae349	-0.0042385203
188	0x3ca85671	0.020549031
189	0xbe0e4bf1	-0.13896157
190	0x3e513029	0.20428528
191	0xbcc9100d	-0.024543786
192	0xbe2d9ec3	-0.16955094
193	0xbdd30f34	-0.10305634
194	0xbc999ed8	-0.0187525
195	0xbe0d30a6	-0.13788089
196	0xbd3640c3	-0.044495355
197	0x3e4c593b	0.19955914
198	0xbe20fefa	-0.15722266
199	0x3d4da468	0.05020562
200	0x3d5a7a04	0.05333902
201	0xbe35d63d	-0.17757507
202	0xbdc183fc	-0.09449002
203	0x3d2855cd	0.04109745
204	0x3eb0f443	0.34561357
205	0x3d68b8a4	0.056816712
206	0xbe248bf7	-0.16069017
207	0xbe19f799	-0.15035857
208	0xbe7d1da2	-0.24718335
209	0xbe587869	-0.21139683
210	0x3d8fe929	0.07026894
211	0x3ea21f0c	0.31664312
212	0x3e9a883c	0.30182064
213	0x3cc2a4fa	0.023760308
214	0x3b57e8b1	0.0032945091
215	0x3ef8a254	0.48561347
216	0xbb51ac0d	-0.003199342
217	0x3d5b8acb	0.05359916
218	0xbc1d0d5c	-0.009585705
219	0xbc5f3d77	-0.013625494
220	0xbd907c70	-0.070549846
221	0xbdd5b90e	-0.10435687
222	0x3da00dee	0.07815157
223	0x3ed6cbec	0.41952455
224	0xbe202678	-0.15639675
225	0xbe14d065	-0.14532621
226	0xbb83c2ef	-0.0040210406
227	0xbe8a35b0	-0.26994085
228	0x3d806134	0.0626854
229	0x3c556b79	0.013026112
230	0xbe82db90	-0.25558138
231	0x3ca448c5	0.02005423
232	0x3d3668ba	0.04453347
233	0x3e24f680	0.16109657
234	0xbd8f01b5	-0.069827475
235	0x3d09da82	0.03365565
236	0x3bd9d1e9	0.0066473377
237	0xbd3ce82a	-0.046119846
238	0x3d9fe5ba	0.07807489
239	0xbd2c978a	-0.042136706
240	0xbe0cae56	-0.13738379
241	0xbde84aaf	-0.1134237
242	0xbe97dc92	-0.2966047
243	0xbd3926a3	-0.045202862
244	0x3e1d748c	0.1537649
245	0x3df95235	0.12173883
246	0xbdaca602	-0.08430101
247	0x3da8d418	0.08243579
248	0xbc3ce8ec	-0.011530142
249	0xbb4489d1	-0.0029989372
250	0x3c2e9c51	0.010657386
251	0x3d279852	0.04091675
252	0xbe597cfa	-0.21239081
253	0x3d5bef09	0.05369476
254	0x3cbfda72	0.023419593
255	0xbd4b6c65	-0.04966392

l4/b f4 [4]
0	0xbe89f29b	-0.26942906
1	0x3cc40f4d	0.023933077
2	0xbf06d100	-0.5266266
3	0xbeaa8895	-0.3330733

l2/W f4 [162, 162]
0	0x3ccce782	0.025012735
1	0x3da3ea23	0.080036424
2	0x3cc5635a	0.024095226
3	0x3c125c0e	0.00893308
4	0x3dcdd291	0.10049928
5	0x3ced6c78	0.028982386
6	0x3de10134	0.109865576
7	0x3c253105	0.010082488
8	0xbd94dc72	-0.07268609
9	0xbcd6abad	-0.026204908
10	0x3db3b18c	0.08774099
11	0xbdbf8977	-0.09352391
12	0x3d15f8e3	0.03661431
13	0xbca3b12e	-0.019981947
14	0xbe18224f	-0.14856838
15	0xbd13e84d	-0.03611021
16	0x3d0ba943	0.034096967
17	0x3d92e030	0.071716666
18	0x3d90d183	0.07071211
19	0xbdc5f807	-0.09666448
20	0xbd8cb4d2	-0.06870426
21	0xbdfd7265	-0.12375335
22	0x3e3cb6fb	0.18429177
23	0xbcbfd87f	-0.023418663
24	0xbd3eafae	-0.04655426
25	0x3d9caea7	0.076505
26	0x3ddc8238	0.10767025
27	0xbdb71586	-0.08939652
28	0x3db47ce8	0.088128865
29	0xbd9aa893	-0.07551684
30	0xbd9686a4	-0.073498994
31	0xbc9b98ff	-0.018993853
32	0x3d39c478	0.045353383
33	0x3ce4b6fb	0.027919283
34	0x3ccd2d22	0.025045935
35	0xbb235602	-0.002492309
36	0x3d14a01f	0.036285516
37	0xbde1eb56	-0.11031215
38	0xbd0d7dbc	-0.034543738
39	0x3aac5588	0.0013148049
40	0xbc84f909	-0.01623203
41	0x3d6c6da0	0.057721734
42	0x3d2121a9	0.03933874
43	0x3d89aff2	0.06723012
44	0xbe3b9735	-0.183194
45	0x3d953fc3	0.07287552
46	0xbd05d664	-0.032675162
47	0xbc438843	-0.011934343
48	0xbd803e9d	-0.062619425
49	0x3dd23270	0.102635264
50	0xbe842186	-0.25806826
51	0x3dd3e5a7	0.10346537
52	0x3c28c901	0.010301829
53	0x3d833202	0.064060226
54	0x3e3ffcc5	0.18748768
55	0x3e2a1182	0.16608241
56	0xbe00894a	-0.12552372
57	0xbe22205f	-0.15832661
58	0x3d82585c	0.063645095
59	0xbc092d97	-0.008372686
60	0x3dd02f1a	0.10165234
61	0xbc726e4d	-0.014796806
62	0x3d533479	0.051563714
63	0xbd2417ae	-0.040061645
64	0xbdc68be7	-0.09694653
65	0xbe8626e4	-0.26201546
66	0xbdae0655	-0.084973015
67	0x3d5d924c	0.054094598
68	0xbca1aeb1	-0.01973662
69	0x3c9005ef	0.017580954
70	0x3dfca910	0.123369336
71	0x3e324a7a	0.17411223
72	0x3d2a3497	0.04155406
73	0xbe0d4f60	-0.1379981
74	0x3bac646b	0.005260994
75	0xbd0ebd17	-0.0348483
76	0x3cf2331c	0.029565386
77	0xbd14eb34	-0.03635712
78	0x3e15ae20	0.14617205
79	0xbc55c6fc	-0.01304793
80	0x3de4d613	0.11173644
81	0xbd559ff0	-0.05215448
82	0x3ceb0611	0.028689416
83	0x3cf7e8d2	0.030262385
84	0x3d7477bb	0.059684496
85	0xbddcaa95	-0.107747234
86	0x3d4d27c6	0.05008676
87	0xbe0b5372	-0.1360605
88	0xbcceb810	-0.025234252
89	0x3d4e5ad4	0.05037959
90	0xbd9003c4	-0.07031968
91	0x3d42b488	0.04753545
92	0xbdf5cbf2	-0.1200179
93	0x3d2bfca0	0.04198897
94	0xbc18c899	-0.00932517
95	0x3d8ef8a5	0.06981019
96	0x3d5414c7	0.051777627
97	0x3d572ab0	0.052530944
98	0xbe39f1a6	-0.18158588
99	0xbd60cf4c	-0.054885194
100	0xbc455e11	-0.012046353
101	0xbdab043e	-0.083504185
102	0xbd9a2503	-0.07526591
103	0x3d8d3f12	0.06896795
104	0x3d0eac91	0.03483254
105	0xbc5ff1d3	-0.013668495
106	0x3d9316fb	0.071821176
107	0xbd35fcc8	-0.044430524
108	0x3d81efc7	0.06344562
109	0xbcf3c12d	-0.0297552
110	0x3d5a3609	0.05327419
111	0xbcf9d47e	-0.030496832
112	0x3dbb5e2f	0.091488235
113	0xbd1f1d3f	-0.03884625
114	0x3dbac718	0.09120005
115	0x3d67a29f	0.056551572
116	0x3d8cc490	0.06873429
117	0x3b0a0522	0.0021060188
118	0xbd38b557	-0.045094814
119	0x3dc61093	0.0967113
120	0xbb294f74	-0.0025834711
121	0xbd9f6284	-0.07782462
122	0x3d41d828	0.047325283
123	0x3e3a86ad	0.18215437
124	0x3d97a99c	0.07405397
125	0x3d9d9b1c	0.076956004
126	0x3aad1232	0.0013204275
127	0x3d500edd	0.050795425
128	0xbdd514a0	-0.104043245
129	0x3d249970	0.040185392
130	0x3dcd731a	0.100317195
131	0x3d8a3d34	0.06749955
132	0xbd8740c3	-0.06604149
133	0x3d3de3ee	0.04635995
134	0x3d47e11a	0.048798658
135	0x3db4d804	0.08830264
136	0x3ce7a0f3	0.028274989
137	0x3d58638f	0.05282932
138	0x3dd4e43f	0.10395097
139	0x3cc4b7ec	0.024013482
140	0x3da4fa98	0.080556095
141	0xbd73f7f6	-0.059562646
142	0x3c5c5a39	0.013449245
143	0x3cc3df6c	0.023910247
144	0x3c7c0c82	0.0153838415
145	0xbc69541e	-0.0142412465
146	0xbe4381a0	-0.19092417
147	0xbba50dad	-0.0050370307
148	0xbcc0f056	-0.023552101
149	0xbda917f5	-0.082565226
150	0xbe49a260	-0.19690847
151	0x3db4a978	0.08821386
152	0x3e068cd5	0.1313966
153	0xbab492c0	-0.0013776645
154	0x3d08a489	0.033360038
155	0xbd474fb5	-0.04866
156	0x3d00c94a	0.031441964
157	0xbb8601da	-0.004089576
158	0xbd7d5ae5	-0.061854262
159	0xbde02492	-0.10944475
160	0x3cb677cb	0.022273919
161	0x3ccdbdc0	0.025114894
162	0x3d3946eb	0.04523365
163	0x3dd9378b	0.10606297
164	0x3cc63c00	0.024198532
165	0xbccc67d7	-0.024951858
166	0xbcdec1d5	-0.027192036
167	0xbe367a9a	-0.17820206
168	0xbdb44f12	-0.08804144
169	0xbd5b5536	-0.05354806
170	0x3d34d72c	0.044150516
171	0xbd673f78	-0.056457013
172	0xbda57cd2	-0.08080448
173	0xbd132eac	-0.03593318
174	0xbd40d736	-0.04708024
175	0x3da5db65	0.08098487
176	0xbe3768c7	-0.17911063
177	0xbd8c5678	-0.0685243
178	0xbd87bb6e	-0.06627546
179	0xbd4e07ee	-0.05030053
180	0x3c242224	0.010017905
181	0xbdd636a2	-0.10459639
182	0xbe07ac62	-0.13249353
183	0x3e45f880	0.19333076
184	0xbdae7ae6	-0.08519535
185	0x3dd02741	0.10163737
186	0x3cdf83af	0.027284471
187	0xbd086a37	-0.03330442
188	0x3c77564b	0.015096257
189	0xbcef16c4	-0.02918566
190	0xb9f92716	-0.00047522102
191	0xbc38ec2b	-0.011286776
192	0x3dcd8138	0.10034412
193	0xbe1ef0e2	-0.15521577
194	0xbd1be7f7	-0.038063016
195	0xbda7b85f	-0.08189463
196	0xbd6f3fd5	-0.058410484
197	0xbce4268d	-0.027850414
198	0xbc9de96c	-0.019276343
199	0x3d8a94af	0.067666404
200	0xbcabf57b	-0.020991078
201	0x3d4d5675	0.05013128
202	0x3d5763d5	0.05258544
203	0x3d925e4a	0.071468905
204	0x3e5daee2	0.21648744
205	0xba62014c	-0.0008621409
206	0x3df9f90a	0.122057036
207	0x3d780657	0.06055292
208	0x3c7bd0a6	0.01536957
209	0x3e2280ba	0.15869418
210	0x3d908916	0.07057397
211	0xbc90221a	-0.017594386
212	0x3df81fb6	0.121154234
213	0x3c97fbc7	0.018552674
214	0xbd610e4f	-0.054945286
215	0xbd3e39d5	-0.04644187
216	0xba30f0ce	-0.000674975
217	0x3b5e94c0	0.0033963174
218	0xbcdbe293	-0.026841437
219	0x3b91f204	0.0044538993
220	0x398bc081	0.00026655573
221	0xbcec8bae	-0.028875198
222	0xbc5ec386	-0.013596421
223	0xbd12462c	-0.035711452
224	0xbcd7854a	-0.026308674
225	0xbdd116b6	-0.1020941
226	0xba6934e0	-0.00088961236
227	0xbd2221f8	-0.039583176
228	0x3cccddac	0.025008045
229	0xbddd1497	-0.10794943
230	0xbd5b0234	-0.053468898
231	0x3e30d3e7	0.17268334
232	0x3d213d0c	0.03936486
233	0xbc50601a	-0.012718225
234	0x3d98c109	0.074586935
235	0x3e20b39c	0.15693516
236	0x3c9ccf11	0.019141706
237	0xbd0c42b5	-0.034243304
238	0xbe058f54	-0.13042957
239	0x3ca19d48	0.019728318
240	0x3de0462e	0.10950886
241	0x3d9f2b52	0.077719346
242	0x3db4cd6f	0.08828246
243	0xbdbf77bb	-0.09349009
244	0x3c311e77	0.010810486
245	0xbdd28347	-0.102789454
246	0xbc8f2c0d	-0.01747706
247	0xbcf62dd9	-0.030051159
248	0x3df5ab9c	0.119956225
249	0x3d76d84a	0.060264863
250	0xbc703589	-0.014661201
251	0x3d752043	0.05984522
252	0x3ce9541e	0.028482493
253	0x3db8cccd	0.09023438
254	0xbdd13253	-0.10214677
255	0x3deb1cc5	0.11480097

l2/b f4 [162]
0	0xbe56f8b3	-0.20993309
1	0xbe1e45fc	-0.15456384
2	0xbe3acbc1	-0.18241788
3	0x3a91f51f	0.0011135674
4	0xbe8acd3d	-0.2710971
5	0xbe5f85c7	-0.21828376
6	0xbe1a0675	-0.15041526
7	0xbcff2a81	-0.031148197
8	0x3e861cfe	0.26193994
9	0xbe70bfa1	-0.235106
10	0xbda750f5	-0.08169738
11	0xbe029e75	-0.12755759
12	0xbe6d910c	-0.23199862
13	0x3c5e0a33	0.013552236
14	0xbc672860	-0.014108747
15	0xbe7260ad	-0.23669691
16	0xbca1a31e	-0.0197311
17	0xbe86730f	-0.26259658
18	0xbc43e192	-0.011955636
19	0xbe222d0f	-0.15837501
20	0xbefc75e2	-0.49308687
21	0xbe272a74	-0.16324788
22	0x3eaca0a1	0.337163
23	0xbd9c345d	-0.07627175
24	0x3e19186c	0.14950722
25	0xbdf9fe66	-0.12206726
26	0xbd812050	-0.06304991
27	0xbe88c9d8	-0.26716495
28	0xbd8774b6	-0.06614058
29	0x3e16b74c	0.1471836
30	0xbe332f79	-0.17498578
31	0xbe902304	-0.28151715
32	0xbe576ee7	-0.210384
33	0x3e2b6eac	0.16741437
34	0x3cfcf313	0.030877626
35	0xbc902eb1	-0.01760039
36	0xbcc1f8c5	-0.023678193
37	0xbdf22b30	-0.118246436
38	0xbf16489b	-0.5870454
39	0xbd4612c5	-0.048357744
40	0xbd3c81cf	-0.046022233
41	0xbd6462e7	-0.055758383
42	0xbd5d2983	-0.053994667
43	0xbf2ce2e4	-0.6753371
44	0xbdb45e51	-0.08807052
45	0xbe312946	-0.17300901
46	0xbd367897	-0.044548597
47	0xbe460fc3	-0.1934195
48	0xbd3e3854	-0.046440437
49	0xbc171812	-0.009222047
50	0x3e64dbe9	0.22349514
51	0xbe54165e	-0.20711657
52	0xbdfafa27	-0.12254744
53	0xbcea8760	-0.028629005
54	0xbdbecf9e	-0.093169436
55	0xbd62e30b	-0.055392306
56	0xbd15e6f3	-0.036597203
57	0xbd3b28a4	-0.045693055
58	0xbe3dd5ed	-0.18538637
59	0xbe2e160f	-0.17000602
60	0xbe756684	-0.23964888
61	0xbdd5975a	-0.10429259
62	0xbe11b792	-0.14230183
63	0xbd4548cb	-0.048165124
64	0xbe611e8a	-0.21984306
65	0x3d323d89	0.043515716
66	0xbd69f909	-0.057122264
67	0xbe39f747	-0.18160735
68	0xbeba62b9	-0.36403444
69	0xbed4c8c4	-0.41559422
70	0xbdd22591	-0.102610715
71	0xbd68938a	-0.05678133
72	0xbe8aed89	-0.2713435
73	0x3e0bb1a9	0.1364199
74	0xbe7218fa	-0.2364234
75	0xbdefa864	-0.1170204
76	0xbe4ca57d	-0.19985004
77	0xbe8bad1a	-0.27280504
78	0xbe30047c	-0.1718921
79	0xbe8b9afb	-0.27266678
80	0xbd3298e3	-0.043602835
81	0xbdc2040e	-0.094734296
82	0xbdd07caf	-0.101800315
83	0xbeb873cb	-0.36025843
84	0xbd222827	-0.039589074
85	0xbcf4fe68	-0.029906467
86	0x3d11681a	0.03549967
87	0xbea9f1bc	-0.3319224
88	0xbd9d8b01	-0.076925285
89	0xbdd049a2	-0.10170294
90	0xbea89f09	-0.32933834
91	0xbc8c3002	-0.017112736
92	0x3ec0fad5	0.3769137
93	0xbd4a58e8	-0.049401194
94	0xbe1e5708	-0.15462887
95	0xbecf1bba	-0.4045084
96	0xbe3d350c	-0.18477267
97	0xbf16e861	-0.5894833
98	0xbe50ee0a	-0.20403305
99	0xbdb8a030	-0.09014928
100	0xbe6c546b	-0.23079078
101	0xbd53a34b	-0.0516694
102	0xbd05d764	-0.032676116
103	0xbe7ac734	-0.24490052
104	0xbe249888	-0.16073811
105	0xbd73c42e	-0.059513263
106	0xbe2db017	-0.16961704
107	0xbdf88307	-0.121343665
108	0xbdb73d66	-0.08947258
109	0xbd92ffec	-0.071777195
110	0xbe2b6f58	-0.16741693
111	0xbe171f1f	-0.14757966
112	0xbe7d852c	-0.24757832
113	0xbdaa8148	-0.0832544
114	0xbe53c3ad	-0.20680113
115	0xbe58df67	-0.21178971
116	0xbe96155d	-0.29313174
117	0xbe86ab7e	-0.26302713
118	0xbe5385c6	-0.206565
119	0xbe87e55c	-0.26542175
120	0xbe76e749	-0.24111666
121	0xbe3a5251	-0.18195464
122	0xbe0026aa	-0.12514749
123	0xbe17e685	-0.1483403
124	0xbe898e94	-0.2686659
125	0xbe5aad5f	-0.21355198
126	0xbd8a7dcf	-0.06762277
127	0x3c4fd2af	0.012684508
128	0xbf26d405	-0.65167266
129	0xbca3e96b	-0.020008763
130	0xbdd8fe22	-0.10595347
131	0xbea8cbb0	-0.329679
132	0xbdfd2d00	-0.12362099
133	0xbe11c6b1	-0.14235951
134	0xbdf77605	-0.12083057
135	0xbe02cdc4	-0.12773806
136	0xbc3289ba	-0.010897094
137	0xbe608c4a	-0.21928516
138	0x3dc7a7a1	0.097487696
139	0xbeee284c	-0.4651512
140	0xbeadf55b	-0.33976254
141	0xbe2d8509	-0.1694528
142	0xbe696649	-0.22792925
143	0xbd8f1d46	-0.06988005
144	0xbe823cd9	-0.25437048
145	0xbec20bd5	-0.37899652
146	0xbe6a59ec	-0.22885865
147	0x3ee6b20e	0.4505772
148	0xbe203511	-0.15645243
149	0xbec95c40	-0.39328194
150	0xbed6635a	-0.41872674
151	0xbd3b53f7	-0.045734372
152	0x3eab4dfc	0.33457935
153	0x3e2c19b1	0.16806675
154	0xbcecd4b1	-0.028910013
155	0xbd013a49	-0.031549726
156	0x3e6c5477	0.23079096
157	0xbe9dae61	-0.30797103
158	0xbdc166d2	-0.094434395
159	0xbda98bea	-0.082786396
160	0xbe0345a8	-0.1281954
161	0xbe064387	-0.13111697

l3/W f4 [162, 162]
0	0x3d8564db	0.06513377
1	0xbcded65b	-0.027201822
2	0x3e1ea4b5	0.15492518
3	0xbd56747b	-0.05235718
4	0xbd46f9fd	-0.04857825
5	0xbc43333d	-0.011914072
6	0x3d303aec	0.043024942
7	0x3e3b5226	0.18293056
8	0xbdda49e2	-0.10658623
9	0x3da23403	0.07920077
10	0x3dc2c71b	0.095106326
11	0x3cd1ea61	0.025624456
12	0x3d56fffa	0.052490212
13	0x3dffae9d	0.12484477
14	0xbd28144c	-0.04103498
15	0x3d156633	0.036474418
16	0xbdb7a177	-0.08966344
17	0xbd8940d5	-0.06701819
18	0xbc3476c0	-0.01101464
19	0x3aec35fa	0.0018021457
20	0xbe020459	-0.12696971
21	0x3d26f6e0	0.040762782
22	0xbdb2815c	-0.087160796
23	0x3c3cdc62	0.011527153
24	0xbc9a8195	-0.018860618
25	0xbdb80632	-0.08985557
26	0xbaec56c9	-0.0018031235
27	0x3d774b46	0.06037452
28	0x3e2b376b	0.16720359
29	0xbe70a11b	-0.23498957
30	0xbc708734	-0.014680672
31	0xbda2f422	-0.07956721
32	0xbddadf52	-0.10687126
33	0xbce182e0	-0.027528226
34	0x3c9455f4	0.018107392
35	0x3c743249	0.014904567
36	0x3b50c1cf	0.00318538
37	0xbd8ecfe9	-0.069732495
38	0x3c93a06f	0.018020837
39	0x3dc1569e	0.09440349
40	0x3df2d6b9	0.11857361
41	0xbd628624	-0.055303708
42	0xbab0779b	-0.001346338
43	0xbd63c291	-0.055605475
44	0xbd1e7848	-0.038688928
45	0xbd84e463	-0.06488874
46	0xbde149c1	-0.110003956
47	0x3cc820ff	0.024429796
48	0xbd5d1654	-0.053976372
49	0xbc969f35	-0.018386463
50	0x3dd2b642	0.10288669
51	0xbc1006c3	-0.008790675
52	0xbe1d914c	-0.15387458
53	0xbdafa28f	-0.085759275
54	0x3d8bf242	0.068333164
55	0x3e19797f	0.14987753
56	0xbd7ea7e7	-0.062171843
57	0x3e0ba09a	0.13635483
58	0xbc4a578f	-0.012349977
59	0xbcb839f1	-0.022488566
60	0x3d828b99	0.063742824
61	0x3d665001	0.05622864
62	0x3d1f748d	0.03892951
63	0x3dee92c6	0.116490886
64	0xbdd2e396	-0.10297315
65	0x3cba1233	0.022713756
66	0x3d8a639d	0.06757281
67	0x3dc24b4f	0.0948702
68	0x3d42e05c	0.047577247
69	0xbd3f7f2f	-0.04675215
70	0x3e1b284f	0.15152095
71	0x3da0e73b	0.07856604
72	0x3de857ea	0.11344893
73	0xbd46e80f	-0.048561152
74	0xbd78c7a1	-0.060737256
75	0x3da2873d	0.07935951
76	0x3d1b5647	0.037924077
77	0x3e933bf6	0.28756684
78	0xbd08b028	-0.03337112
79	0xbd027a8b	-0.031855147
80	0x3da64c2c	0.081199974
81	0x3dae9aa7	0.08525591
82	0xbcc25e98	-0.023726746
83	0xbccc9996	-0.02497558
84	0x3d8a1ca9	0.06743748
85	0x3de971b4	0.1139864
86	0xbd2e62ec	-0.042574808
87	0xbdb03f74	-0.08605853
88	0x3cb659a1	0.022259535
89	0xbc81af2e	-0.015830602
90	0xbd86df58	-0.06585568
91	0xbd0ab121	-0.03386033
92	0x3dd89374	0.105749995
93	0xbc84d1da	-0.016213346
94	0xbd665096	-0.056229196
95	0xbd33ce71	-0.04389805
96	0x3ce85c53	0.028364336
97	0xbcc4be4a	-0.024016518
98	0x3e11a0a4	0.14221436
99	0xbd82438e	-0.06360541
100	0xbd87a0ce	-0.06622468
101	0x3e654101	0.22388078
102	0xbd90c060	-0.070679426
103	0x3db2d316	0.08731668
104	0xbc2346f3	-0.009965646
105	0x3cdc8bf3	0.026922202
106	0x3cad5b21	0.021161618
107	0xbda4be8a	-0.08044155
108	0x3cfb21c7	0.030655755
109	0x3e37f0fa	0.17963019
110	0xbdc0985c	-0.0940406
111	0x3e19ea90	0.15030885
112	0xbcaebe2c	-0.021330915
113	0xbd901af4	-0.07036391
114	0x3e0a4d54	0.13506061
115	0x3deec648	0.11658913
116	0x3d7076f5	0.058707196
117	0x3c29b93f	0.0103591075
118	0xbc2845d6	-0.010270556
119	0x3e646389	0.22303595
120	0x3d093eb4	0.033507064
121	0xbe90fe5e	-0.28319067
122	0xbda05c23	-0.07830074
123	0x3cd9f54e	0.026606228
124	0x3d6e43c5	0.0581701
125	0xbdb45b8b	-0.08806523
126	0xbd8406fc	-0.06446645
127	0x3ce784f9	0.028261648
128	0x3d8d4162	0.068972364
129	0x3e202565	0.15639265
130	0xbe0aea81	-0.13566019
131	0x3d192d90	0.037396967
132	0xbdd961d5	-0.10614363
133	0xbba3cf8b	-0.0049991063
134	0xbd0ee9e0	-0.03489101
135	0xbd700529	-0.05859867
136	0x3dec8eea	0.11550696
137	0x3cc51ae0	0.024060667
138	0xbce9d5fa	-0.028544415
139	0x3d4ce729	0.05002514
140	0x3c4f9dc6	0.012671893
141	0xbd113546	-0.035451196
142	0x3b35c694	0.002773677
143	0x3d5afa65	0.05346145
144	0xbde97fd0	-0.114013314
145	0x3d1c2262	0.038118728
146	0xbe16b005	-0.14715584
147	0x3c711451	0.014714316
148	0xbe082d8e	-0.13298628
149	0x3c321427	0.0108690625
150	0x3c789407	0.015172011
151	0x3c933202	0.017968182
152	0xbe4b43e4	-0.19850117
153	0xbc5ab874	-0.013349641
154	0xbe4ee4ae	-0.20204422
155	0x3c8526e0	0.016253889
156	0x3d0573f0	0.03258127
157	0x3d9b9841	0.075973995
158	0x3be33bd5	0.006934623
159	0xbde2a895	-0.11067311
160	0xbde63eb5	-0.11242429
161	0xbd650a44	-0.055917993
162	0xbe51bcba	-0.2048215
163	0xbc0a4331	-0.008438871
164	0x3e2f7a98	0.1713661
165	0xbdc40c1d	-0.09572623
166	0x3e0643dc	0.13111824
167	0xbc894c92	-0.016760144
168	0x3c6c016f	0.014404639
169	0x3da1ff49	0.0791002
170	0xbdc30997	-0.095233135
171	0x3cb94568	0.022616103
172	0xbc07199e	-0.008245854
173	0xbd464e13	-0.0484143
174	0x3d7f6de6	0.062360667
175	0xbd9ab523	-0.0755408
176	0xb599be00	-1.1454686e-06
177	0x3c54e94b	0.0129950745
178	0xbd1bcf64	-0.03803958
179	0x3d6e1e9c	0.05813466
180	0x3db774d1	0.08957828
181	0x3de4574a	0.111494616
182	0xbc656b5f	-0.01400265
183	0xbca954dc	-0.020670347
184	0xbe44aabc	-0.19205755
185	0x3d11d6f4	0.035605386
186	0x3d90e05d	0.07074044
187	0xbcb3d2e8	-0.021951154
188	0x3caf6d45	0.021414408
189	0x3d7a25b6	0.06107112
190	0xbc99fc50	-0.01879707
191	0xbde933cf	-0.11386835
192	0x3dffa0ce	0.12481843
193	0x3e4769c4	0.1947394
194	0xbd9f4a34	-0.07777825
195	0x3c332e98	0.010936402
196	0xbdad4f9e	-0.084624514
197	0xbcb0b9f6	-0.021573048
198	0x3d25f5dc	0.040517673
199	0x3dfed051	0.12442077
200	0x3dc38ab3	0.09547939
201	0x3df68636	0.120373175
202	0xbde31c16	-0.11089341
203	0x3c23b0c1	0.009990872
204	0x3de0ad5c	0.10970566
205	0x3d78c98e	0.060739093
206	0x3da50e15	0.080593266
207	0xbd3cb730	-0.04607314
208	0x3d995225	0.07486371
209	0x3e4ca3b4	0.19984323
210	0xbd76123a	-0.060075976
211	0x3d516330	0.051119983
212	0xbdfd3799	-0.1236412
213	0xbcbe386c	-0.023220263
214	0x3d0928e9	0.03348628
215	0xbd98cea3	-0.07461288
216	0xbc204bbf	-0.009783684
217	0xbda6eeea	-0.08151038
218	0x3d248505	0.04016592
219	0xbcc144c0	-0.023592353
220	0xbd67fa1c	-0.056635007
221	0x3e842eec	0.2581705
222	0x3db9467b	0.09046646
223	0x3dce885f	0.100846045
224	0x3dd42ce3	0.10360124
225	0xbdab958d	-0.08378134
226	0x3df29a6f	0.11845862
227	0x3d0ad038	0.03388998
228	0x3dcef53b	0.10105368
229	0x3c68487f	0.014177441
230	0x3d66f78c	0.056388423
231	0xbd6494d7	-0.055806007
232	0x3d5dd603	0.054159176
233	0xbd4e6c73	-0.050396394
234	0x3cb97653	0.02263943
235	0x3d1412b4	0.03615065
236	0x3dc2f971	0.095202334
237	0x3e044277	0.1291598
238	0xbc920c9c	-0.017828278
239	0xbd709a4b	-0.058740895
240	0xbddc4d13	-0.10756888
241	0x3c07e5b3	0.008294511
242	0xbde2002b	-0.11035188
243	0x3c794eeb	0.015216569
244	0x3e22a6c3	0.15883927
245	0x3bfad51c	0.007654799
246	0x3d8149ca	0.06312902
247	0xbe2002ef	-0.15626119
248	0xbac58595	-0.0015069718
249	0xbe17b330	-0.14814448
250	0x3b853e2d	0.00406625
251	0xbd239bc7	-0.039943483
252	0x3da3fbfa	0.08007045
253	0xbd583f6d	-0.052794863
254	0xbcdd6558	-0.027025864
255	0xbc461c42	-0.012091698

l3/b f4 [162]
0	0xbdea74a7	-0.11448031
1	0xbe6a1beb	-0.22862212
2	0xbe0adf04	-0.13561636
3	0xbd18ecb2	-0.037335105
4	0xbdae3fc1	-0.08508254
5	0xbd94de89	-0.07269008
6	0xbd6055b2	-0.054769225
7	0xbd86cbea	-0.06581862
8	0xbe8087da	-0.25103647
9	0xbdcc0c54	-0.09963289
10	0xbe19be8a	-0.15014091
11	0xbe3975cf	-0.18111347
12	0xbd6b3a63	-0.05742873
13	0xbe5dc82d	-0.21658392
14	0xbe01ce1e	-0.12676284
15	0xbd0a2732	-0.033728786
16	0x3f0b4da1	0.5441533
17	0xbe032558	-0.12807214
18	0xbe07aabb	-0.13248722
19	0xbd0fd0ea	-0.035111345
20	0xbc516f2f	-0.012782856
21	0xbdc7a627	-0.09748488
22	0xbda148b4	-0.07875195
23	0xbe8d81d3	-0.2763811
24	0xbe8a258c	-0.2698177
25	0x3e83cc75	0.25741926
26	0xbdf96aaa	-0.12178548
27	0xbd504de4	-0.050855532
28	0xbd636c10	-0.05552298
29	0xbd2045f3	-0.03912921
30	0xbe08d1f6	-0.13361344
31	0x3de1cf9f	0.11025929
32	0xbe0e4380	-0.13892937
33	0xbe328fde	-0.17437693
34	0xbd8cc538	-0.06873554
35	0xbd92e95c	-0.07173416
36	0xbdde5761	-0.1085651
37	0xbdede459	-0.116158195
38	0x3b59508b	0.003315958
39	0xbe7caaee	-0.2467458
40	0xbe296660	-0.16542959
41	0xbdb67b58	-0.08910245
42	0x3e408eca	0.1880447
43	0xbd81f6e2	-0.06345917
44	0xbd8d70a2	-0.06906249
45	0xbe170923	-0.14749579
46	0xbd56033b	-0.052249175
47	0x3d5e0cab	0.0542113
48	0xbe386f53	-0.18011217
49	0xbeb2360d	-0.34806862
50	0x3df82483	0.12116339
51	0xbd66dcc6	-0.05636289
52	0xbecc2e9f	-0.3987932
53	0x3e09e803	0.13467412
54	0xbd94382f	-0.07237279
55	0xbcd5c97e	-0.026097056
56	0x3e84160f	0.2579808
57	0xbe2a7e2d	-0.16649695
58	0xbbcdf9d8	-0.006285887
59	0xbe105cff	-0.14097975
60	0x3d6209a9	0.055184994
61	0xbed4a063	-0.41528615
62	0xbd9cbc2b	-0.07653078
63	0x3d5484e3	0.051884543
64	0xbeba59bf	-0.36396596
65	0xbd587f6c	-0.052855894
66	0xbe4b0c10	-0.1982882
67	0xbe722ce8	-0.23649943
68	0xbdb2139e	-0.08695148
69	0xbdd49d8f	-0.103816144
70	0xbdc8b4a8	-0.098000824
71	0x3d6b4b59	0.057444904
72	0xbce64ac4	-0.028111823
73	0xbe63a6ec	-0.22231644
74	0xbe077524	-0.1322828
75	0xbde238ee	-0.11046015
76	0xbd41a756	-0.047278725
77	0x3db58422	0.08863093
78	0x3d9b23c9	0.07575185
79	0xbd873357	-0.06601589
80	0xbe420d81	-0.18950464
81	0xbe11dfd5	-0.14245541
82	0xbda9a21c	-0.08282873
83	0xbdaba77f	-0.08381557
84	0x3e05f6ac	0.13082379
85	0xbeb33619	-0.3500221
86	0xbdae9d82	-0.08526136
87	0xbdaf049c	-0.08545801
88	0x3de83a7a	0.113392785
89	0xbdc3dcd6	-0.095636055
90	0xbd49aba6	-0.049235962
91	0x3e00d8b2	0.12582663
92	0xbde0a0df	-0.10968184
93	0xbe24d0a4	-0.16095215
94	0xbe42b5a1	-0.19014598
95	0xbe130c7d	-0.14360233
96	0xbdbfa914	-0.09358421
97	0xbe8c89af	-0.27448794
98	0xbdf069cc	-0.11738929
99	0xbe249c6c	-0.16075295
100	0xbd5d2143	-0.0539868
101	0xbd8362e7	-0.064153485
102	0xbe2becfc	-0.16789621
103	0xbe8dac86	-0.27670687
104	0xbd93ac70	-0.07210624
105	0x3cfd18e9	0.030895667
106	0x3e336e1f	0.17522477
107	0xbdde873d	-0.108656384
108	0xbdbef272	-0.093235865
109	0xbcef57c8	-0.029216662
110	0xbdb86b6a	-0.090048626
111	0xbe0a220d	-0.13489552
112	0xbe1cd97a	-0.15317336
113	0x3e16fe85	0.14745529
114	0xbdba9727	-0.09110861
115	0xbe3677b7	-0.17819105
116	0xbd97f874	-0.074204355
117	0xbe8dca58	-0.2769344
118	0xbe097503	-0.13423543
119	0xbdc304ff	-0.09522437
120	0x3e057d8c	0.13036174
121	0xbe04f5ac	-0.12984341
122	0xbdb854ba	-0.09000535
123	0xbde0bd1c	-0.1097357
124	0xbd5a3ab1	-0.05327863
125	0xbe487f9a	-0.19579926
126	0xbdaf33f6	-0.08554833
127	0xbcc8de88	-0.024520174
128	0x3c89d589	0.016825454
129	0xbc9353c9	-0.017984288
130	0xbe82d6fa	-0.2555464
131	0xbde6a9a5	-0.11262826
132	0xbe1bcfbc	-0.15215963
133	0xbde7eeb8	-0.11324829
134	0xbe1f2520	-0.15541506
135	0xbdaa745a	-0.083229735
136	0xbdd5fab4	-0.104482085
137	0xbe7e0b93	-0.24809103
138	0xbdc51209	-0.096225806
139	0xbce6c5af	-0.028170435
140	0xbcbdf060	-0.023185909
141	0xbcba845d	-0.022768194
142	0xbe3a5b3d	-0.18198867
143	0xbd57c659	-0.052679393
144	0xbef03a69	-0.46919563
145	0xbeae50db	-0.34046063
146	0x3e9f457c	0.311077
147	0xbdb5ebcd	-0.08882866
148	0x3ec90acb	0.39266047
149	0xbd85611b	-0.06512662
150	0xbdb83215	-0.089939274
151	0xbd855100	-0.0650959
152	0xbd61da73	-0.05513997
153	0xbd464993	-0.04841001
154	0x39d3977d	0.00040357924
155	0xbef74eb2	-0.48302227
156	0xbdbdb6c5	-0.09263376
157	0xbde93afe	-0.11388205
158	0xbc8cb932	-0.017178152
159	0xbd907cd6	-0.070550606
160	0x3c130ec2	0.0089756865
161	0xbeb025bd	-0.34403792
