model2.npz (npz, 261334 bytes, 8 tensors)

l1/W f4 [162, 100]
0	0x3d2d9d21	0.042386178
1	0xbdf4aaca	-0.11946638
2	0x3989d816	0.00026291673
3	0xbce14b99	-0.027501868
4	0xbd6086be	-0.054816
5	0xbdae1144	-0.08499387
6	0xbd096737	-0.0335457
7	0xbdd738df	-0.10508894
8	0x3d5c6f47	0.05381706
9	0xbceca2e0	-0.028886259
10	0xbd1abe9a	-0.037779428
11	0x3df27c7d	0.118401505
12	0xbda0128a	-0.07816036
13	0x3d3591ac	0.044328377
14	0x3c6831f4	0.014172066
15	0x3d78dcea	0.060757555
16	0x3e10711b	0.14105646
17	0xbe5d85eb	-0.21633117
18	0xbd46797f	-0.04845571
19	0xbd093fcf	-0.03350812
20	0xbbc9a015	-0.0061531165
21	0x3ccd7e6e	0.0250847
22	0x3e243904	0.16037375
23	0xbe1048da	-0.1409029
24	0x3b91d88f	0.0044508646
25	0xbcbfa21d	-0.023392731
26	0x3b0a4f16	0.0021104268
27	0xbc4a0174	-0.012329448
28	0x3d76c0bb	0.060242396
29	0xbcc938f8	-0.024563298
30	0x3dd0ac2a	0.10189088
31	0x3d230eb5	0.039808948
32	0x3e4ebcd7	0.20189224
33	0x3d14459d	0.0361992
34	0xbcb424cc	-0.021990202
35	0x3d7dc53e	0.061955683
36	0x3d938726	0.07203512
37	0x3d00b2f7	0.031420674
38	0x3d41afdf	0.047286864
39	0x3d1365a9	0.035985623
40	0xbd1bee67	-0.038069155
41	0x39e971a8	0.00044525904
42	0x3ca84b83	0.02054382
43	0x3e6b10cd	0.22955628
44	0x3c1a30b0	0.009411022
45	0x3e094377	0.13404642
46	0x3d2080d8	0.039185375
47	0xbcbceb74	-0.023061492
48	0xbd57ad21	-0.052655343
49	0x3d172a1f	0.036905404
50	0x3df94672	0.121716395
51	0xbda1e5e1	-0.07905174
52	0x3ce0a79c	0.027423672
53	0x3e19cb5e	0.15018985
54	0xbe0d21df	-0.13782452
55	0x3dab073e	0.08350991
56	0x3dfcd443	0.12345173
57	0xbda8f499	-0.08249778
58	0x3dd3ddb6	0.103450224
59	0x3dedfc45	0.11620382
60	0xb9a3bab0	-0.00031228876
61	0xbd42402b	-0.047424477
62	0xbddee0f2	-0.10882749
63	0xbc316c7f	-0.01082909
64	0x3e4ee003	0.20202641
65	0xbdb5fd4f	-0.088862054
66	0xbe5a3dd8	-0.21312654
67	0x3dcce5ee	0.10004793
68	0xbb99536a	-0.004679133
69	0x3c5788cb	0.013155173
70	0xbe4103d2	-0.18849114
71	0xbe7ed568	-0.24886096
72	0xbdec135f	-0.11527132
73	0x3d67ddd9	0.056608055
74	0x3d8f174b	0.06986865
75	0x3e150a4c	0.14554709
76	0x3e842679	0.25810602
77	0x3e17b1d9	0.14813937
78	0x3b982574	0.0046431366
79	0x3e4b25f7	0.19838701
80	0xbd471f31	-0.04861373
81	0x3e4c015a	0.1992239
82	0x3e717d7b	0.23583023
83	0x3e89b7b1	0.26897958
84	0x3e0ef8a1	0.13962032
85	0xbdaef9b9	-0.085437246
86	0x3d8cd23b	0.06876036
87	0x3df28349	0.11841447
88	0x3e185529	0.14876236
89	0xbbfab899	-0.0076514003
90	0xbd1a2d5f	-0.037640925
91	0xbdd479a1	-0.103747614
92	0x3bc3a7ef	0.005970947
93	0xbca15a86	-0.019696485
94	0xbc085ae7	-0.008322454
95	0xbd46a915	-0.048501093
96	0xbce5b29a	-0.028039265
97	0x3c65c91e	0.014025001
98	0xbdf53fbc	-0.11975047
99	0x3dc64416	0.09680955
100	0xba1ad335	-0.0005906106
101	0xbe0a7f80	-0.135252
102	0xbd23ed31	-0.040021125
103	0x3d12e98c	0.03586726
104	0xbdcf5306	-0.10123257
105	0x3d914d10	0.07094777
106	0xbc7ead99	-0.015544319
107	0x3c9cd835	0.019146064
108	0xbe5f09bf	-0.21781062
109	0xbd8d0c5f	-0.06887125
110	0x3ce130ac	0.027489029
111	0xbdf66f63	-0.12032964
112	0xba7142cc	-0.0009203374
113	0xbdd7c266	-0.105351254
114	0xbdd93ef5	-0.10607711
115	0x3c306dc6	0.0107683595
116	0x3c73204c	0.014839243
117	0x3c0f1d11	0.008734957
118	0xbe82a8b7	-0.25519344
119	0xbdeeeae0	-0.116658926
120	0x3e65c932	0.22440031
121	0xbd6e30e8	-0.05815211
122	0xbdaadd70	-0.08343017
123	0x3db3dcc8	0.08782345
124	0xbdf27f78	-0.11840719
125	0x3d949b81	0.072562225
126	0x3dae9b42	0.08525707
127	0x3dbf3923	0.0933707
128	0x3ba2ea56	0.0049717827
129	0x3e004a64	0.12528378
130	0xbe2af451	-0.16694762
131	0xbd62b047	-0.055343892
132	0xbbbe0adc	-0.0057996344
133	0xbd956ed5	-0.0729653
134	0xbe40deec	-0.18835038
135	0xbe1263ff	-0.14295958
136	0xbdb3c6a5	-0.08778123
137	0x3d82a3e6	0.063789174
138	0x3ca3c1e2	0.019989911
139	0x3dace65a	0.084423736
140	0x3d920cb9	0.07131333
141	0xbc70919d	-0.014683154
142	0x3d1d5e67	0.038420107
143	0x3cc662a1	0.024216952
144	0xbe2febd0	-0.17179799
145	0xbc1c2382	-0.00952995
146	0x3cc8edc3	0.024527436
147	0xbc2d956e	-0.010594709
148	0xbe08e583	-0.13368802
149	0xbc2b51d0	-0.010456517
150	0x3dd32d96	0.10311429
151	0x3d6e8bcc	0.05823879
152	0xbdeed296	-0.1166126
153	0x3dca9ad1	0.0989281
154	0x3e01c29c	0.12671894
155	0xbd1cca84	-0.03827907
156	0x3ce2a5fa	0.027667034
157	0x3d330f8f	0.04371601
158	0xbde606cd	-0.11231766
159	0x3bc99e4c	0.0061529037
160	0x3cae9c01	0.021314623
161	0xbe110f8d	-0.14166088
162	0xbdd5d062	-0.104401365
163	0xbe2fa5a3	-0.17153029
164	0x3e80371d	0.25042048
165	0xbc873ece	-0.01650944
166	0x3cff049b	0.031130126
167	0x3d3d3638	0.046194285
168	0xbe1f4db2	-0.15556982
169	0x3d9ac9c1	0.07558013
170	0xbc8d0b52	-0.017217312
171	0xbd38ab0f	-0.04508501
172	0xbe2825e6	-0.16420707
173	0xbca6b83e	-0.020351525
174	0xbd225cd6	-0.039639316
175	0x3dbe3d47	0.092890315
176	0xbc7eb887	-0.015546924
177	0xbdd52ac9	-0.10408551
178	0x3dbfb0b4	0.09359875
179	0xbe0f8e27	-0.1401907
180	0x3d23231f	0.039828416
181	0xbe0e40a2	-0.13891843
182	0xbe086edb	-0.13323538
183	0x3dca723f	0.09885072
184	0x3e017b56	0.12644705
185	0x3dd5fc2c	0.104484886
186	0xbd351f82	-0.0442195
187	0xbdee6d19	-0.116419025
188	0x3c86ad42	0.016440038
189	0xbd370c0a	-0.044689216
190	0x3d97cd4b	0.074122034
191	0xbced697d	-0.028980965
192	0x3d705160	0.058671355
193	0xbd772ef5	-0.060347516
194	0x3c6bdb82	0.014395596
195	0x3d17fd98	0.03710708
196	0x3d7c49c0	0.06159377
197	0xbd193a4e	-0.03740912
198	0xbdc03bd7	-0.093864135
199	0x3d390979	0.04517505
200	0xbe315e86	-0.17321214
201	0xbe05ed36	-0.1307877
202	0xbbbe3535	-0.0058046826
203	0xbcc10003	-0.023559576
204	0x3e0fee9b	0.14055865
205	0xbe6bb642	-0.23018745
206	0xbe173ce6	-0.14769325
207	0x3db9fc7b	0.0908136
208	0xbddf108e	-0.108918294
209	0x3ce96c42	0.028494004
210	0x3d44423b	0.047914725
211	0x3d885ebe	0.06658696
212	0x3ddac882	0.10682775
213	0xbdf54700	-0.11976433
214	0xbd5da79d	-0.054114927
215	0xbd9bd623	-0.07609203
216	0x3c1b7dfe	0.009490488
217	0xbdb6f8ce	-0.089341745
218	0xbd2d3213	-0.042284083
219	0x3da73a75	0.08165447
220	0xbe2138fb	-0.15744393
221	0xbdf70e32	-0.120632544
222	0xbe4ea06b	-0.20178382
223	0x3d20532f	0.03914183
224	0x3cc77acb	0.024350544
225	0xbe32feb2	-0.17479971
226	0xbd8e8080	-0.06958103
227	0xbe756ab5	-0.23966487
228	0xbda680c8	-0.08130032
229	0x3d95224a	0.07281931
230	0xbca6d4ff	-0.020365236
231	0xbdcfd9fb	-0.10148998
232	0xbe2f6d97	-0.17131649
233	0xbca2c143	-0.019867545
234	0x3dcdf1a1	0.10055853
235	0xbd6c77da	-0.057731487
236	0xbe35a667	-0.17739259
237	0xbdbe16d8	-0.09281701
238	0x3e385e72	0.18004778
239	0xbd0f8fb5	-0.03504916
240	0xbe2de875	-0.16983207
241	0x3db63cae	0.088982925
242	0x3d323f26	0.043517254
243	0xbe25e0df	-0.16199063
244	0xbe1445ae	-0.14479706
245	0x3e4e32e4	0.201366
246	0xbdb7a752	-0.08967461
247	0x3d16d195	0.036820967
248	0x3cf03ad9	0.029324936
249	0xbd85f314	-0.06540504
250	0xbe46b1cc	-0.19403762
251	0xbd9c0118	-0.07617396
252	0xbd808256	-0.062748596
253	0x3c1e14cb	0.009648512
254	0xbd64af31	-0.055831138
255	0xbc9d8f29	-0.019233303

l1/b f4 [162]
0	0xbd9329ce	-0.07185708
1	0xbd9dbdb1	-0.077021964
2	0xbd8217c8	-0.06352192
3	0xbdcc0e15	-0.099636234
4	0xbcd46030	-0.025924772
5	0xbd94f506	-0.07273297
6	0xbe0a8895	-0.13528664
7	0xbd0e1bfe	-0.034694664
8	0xbd805e4c	-0.06267986
9	0x3cc70d82	0.024298433
10	0xbcfc71ab	-0.03081592
11	0xbe114307	-0.14185725
12	0x3caaf96a	0.020870883
13	0xbe24b14a	-0.16083255
14	0xbe103f91	-0.14086749
15	0xbde640ba	-0.11242814
16	0x3ba86b64	0.005139755
17	0xbddda79d	-0.10822985
18	0xbdd30895	-0.10304371
19	0xbdedb495	-0.11606709
20	0xbd242c17	-0.04008111
21	0xbda3f93f	-0.08006524
22	0xbe1ff771	-0.15621735
23	0xbdb15b6b	-0.08660015
24	0xba329566	-0.0006812423
25	0xbdce7fb5	-0.10082952
26	0xbdc5503a	-0.096344426
27	0xbdbdd132	-0.092684165
28	0xbdb229a1	-0.08699346
29	0xbbf3741a	-0.007429612
30	0xbbcd5b58	-0.0062669925
31	0xbda87216	-0.08224885
32	0xbdc0c34e	-0.094122514
33	0xbc7cf32e	-0.015438838
34	0xbd7602f3	-0.060061406
35	0xbde4169d	-0.11137126
36	0xbdf06674	-0.117382914
37	0xbd4e90f5	-0.05043121
38	0xbd25e0f9	-0.040497754
39	0xbe0a106c	-0.13482827
40	0xbca8ffb1	-0.020629736
41	0xbcdbd8c2	-0.026836757
42	0xbe33c0a4	-0.17553955
43	0xbdd2c57c	-0.102915734
44	0xbd5a3e3e	-0.053282015
45	0xbd239d0f	-0.039944705
46	0xbdcfd9f4	-0.10148993
47	0xbdf67b0a	-0.120351866
48	0xbdd60f64	-0.10452154
49	0xbd8b2b8f	-0.067954175
50	0xbdd1bdd4	-0.10241285
51	0xba76dbcf	-0.00094169093
52	0xbdd4955a	-0.10380049
53	0xbe05a5e1	-0.13051559
54	0xbd155cc5	-0.036465425
55	0xbd89c2bd	-0.067265965
56	0xbd6a3b35	-0.05718537
57	0xbccacea5	-0.024756739
58	0xbc6e753e	-0.01455432
59	0xbd583a63	-0.052790057
60	0xbdae39d1	-0.08507121
61	0xbd50b607	-0.050954845
62	0xbd7edff6	-0.062225305
63	0xbcf293bf	-0.029611466
64	0xbdffcbb2	-0.12490024
65	0x3b0ad64e	0.0021184864
66	0x3ccbeb76	0.02489255
67	0xbd365f83	-0.04452468
68	0xbdf676cb	-0.12034377
69	0xbcdd8aec	-0.027043782
70	0xbbf7065b	-0.0075385994
71	0xbdc8e0e6	-0.09808521
72	0xbd9ec3a0	-0.07752156
73	0xbd9f656d	-0.07783017
74	0x3cbea082	0.023269895
75	0xbd24a481	-0.040195946
76	0xbda94472	-0.08265008
77	0xbcd00569	-0.025393205
78	0xbd2052bb	-0.039141398
79	0xbe001ce3	-0.1251102
80	0xbd915fa7	-0.07098322
81	0xbcf30df5	-0.029669741
82	0xbdbf8dc0	-0.093532085
83	0xbd0b1065	-0.033951182
84	0xbdced561	-0.100992925
85	0xbd2ccf83	-0.042190086
86	0xbe3d5984	-0.18491179
87	0xbcf4ca0b	-0.029881498
88	0xbe041ce0	-0.1290164
89	0x3a16ad64	0.0005747883
90	0xbda54960	-0.08070636
91	0xbd9f5e27	-0.0778163
92	0xbd85f403	-0.06540682
93	0xbdadc42d	-0.08484683
94	0xbd472768	-0.048621565
95	0xbde3a6e3	-0.111158155
96	0xbe3baf39	-0.18328561
97	0xbd38fe68	-0.045164496
98	0xbdad4def	-0.0846213
99	0xbda455ff	-0.08024215
100	0xbab41566	-0.0013739287
101	0xbde74ee3	-0.11294343
102	0xbd70f825	-0.0588304
103	0xbcb5d740	-0.022197366
104	0xbd1ce049	-0.038299832
105	0xbdcdd2a9	-0.10049946
106	0xbe234ba9	-0.15946831
107	0xbd81453d	-0.06312034
108	0xbc9f8aa5	-0.01947529
109	0xbdfeb6a9	-0.124371834
110	0xbe0945b5	-0.13405497
111	0xbd8276df	-0.06370329
112	0xbe2aaa08	-0.16666424
113	0xbd01969e	-0.03163778
114	0xbdb0bfba	-0.08630319
115	0xbdb989b0	-0.09059465
116	0xb970ed8a	-0.00022976674
117	0xbde9455a	-0.11390181
118	0xbca7103f	-0.020393489
119	0xbdea4b54	-0.11440149
120	0xbd797375	-0.060901124
121	0xbd8981f0	-0.06714237
122	0xbd83114a	-0.06399782
123	0xbcfb9e3f	-0.030715106
124	0xbe07e7a7	-0.13271962
125	0xbd3a0f58	-0.04542479
126	0xbda83ee0	-0.082151175
127	0xbd7e2599	-0.062047575
128	0xbdbddd87	-0.092707686
129	0xbd861252	-0.06546463
130	0xbd27a7f9	-0.040931676
131	0xbd985162	-0.074373975
132	0xbc2784f2	-0.010224568
133	0xbdad1700	-0.084516525
134	0xbdd2c6da	-0.10291834
135	0xbe14b376	-0.14521584
136	0xbdbc1f60	-0.09185672
137	0xbd96981f	-0.073532335
138	0xbd5f529a	-0.054522134
139	0xbdb9785b	-0.09056159
140	0xbe05d433	-0.13069229
141	0xbe06b266	-0.13153991
142	0xbdbb7d2d	-0.09154735
143	0xbdd31d66	-0.10308342
144	0xbd95e49d	-0.07318995
145	0xbc83bacb	-0.01608028
146	0xbdc02bdc	-0.093833655
147	0xbdb6f472	-0.08933343
148	0xbc8d455e	-0.01724499
149	0xbd6641ec	-0.05621521
150	0xbd51d53b	-0.051228743
151	0xbda8b3b6	-0.08237402
152	0xbcb539b3	-0.02212224
153	0xbda411d9	-0.08011217
154	0xbddb574d	-0.10710011
155	0xbd59641a	-0.05307398
156	0xbdbeaead	-0.093106605
157	0xbd348697	-0.044073667
158	0xbd96c3d0	-0.07361567
159	0xbdfece07	-0.1244164
160	0xbdc7c61d	-0.09754584
161	0x3c59f38c	0.013302695

l4/W f4 [5, 162]
0	0xbbf38aea	-0.0074323313
1	0x3c4bdd7e	0.012442945
2	0x3c3022ff	0.010750531
3	0xbce37922	-0.027767722
4	0x3c5b3787	0.013379938
5	0x3b235d76	0.0024927533
6	0x3c19ef51	0.009395436
7	0xb8a52efd	-7.876565e-05
8	0x3b131f96	0.0022449247
9	0x3c058f09	0.008151778
10	0x3c1012b1	0.008793519
11	0xbb99d7b0	-0.0046949014
12	0x3c1eeecd	0.009700489
13	0x3b962f37	0.004583265
14	0x3c844095	0.016144076
15	0x3b6ee053	0.0036449626
16	0x3b435566	0.002980554
17	0x3c80d0ee	0.015724625
18	0x3b2d1766	0.0026411652
19	0xbb9458c5	-0.0045271837
20	0x3a85b8b6	0.0010202143
21	0x3c3d4012	0.01155092
22	0x3b93a5bd	0.0045058415
23	0x3cbc2e90	0.022971421
24	0x3bb90a34	0.0056469683
25	0xbcf8333b	-0.030297866
26	0xbc2b90c6	-0.010471528
27	0x3b11d667	0.0022253038
28	0x3be692d9	0.0070365486
29	0xbac8ddf0	-0.0015324932
30	0x3b78572c	0.0037893755
31	0x3c80ca2e	0.015721407
32	0x3bbb437e	0.005714833
33	0x3c3a1340	0.011357129
34	0x3b255c1b	0.00252319
35	0x3bd64932	0.0065394873
36	0xba166368	-0.00057368586
37	0x3b9d3844	0.004797967
38	0xbb1bd039	-0.0023775233
39	0x3c25a8dc	0.01011106
40	0x3ce0ffb5	0.02746568
41	0x3cc0fcc6	0.023558032
42	0x3c424981	0.011858345
43	0xbb26e088	-0.002546342
44	0xbbac85cf	-0.0052649747
45	0x3c7bcda6	0.015368855
46	0xbbae05ec	-0.0053107645
47	0x3c28df61	0.010307164
48	0x3b93a37c	0.004505573
49	0x3c6bd5fd	0.0143942805
50	0xbb009c55	-0.001962443
51	0xba930daa	-0.0011219282
52	0x3b23c6b9	0.0024990274
53	0x3b81d606	0.003962281
54	0x3c19eefc	0.009395357
55	0xbb3222a5	-0.0027181294
56	0x3c59361e	0.013257531
57	0x3c01c8e8	0.007921435
58	0xbb6f7b75	-0.0036542092
59	0xbd2c59b4	-0.042077735
60	0x3c373610	0.011182323
61	0x3bd9c173	0.0066453754
62	0x3bd6db5b	0.006556911
63	0xbc10c338	-0.008835606
64	0xbcb266d6	-0.021777552
65	0x39253009	0.0001575352
66	0xbb468860	-0.0030293688
67	0x3ac90f55	0.0015339652
68	0xbb18d18d	-0.0023318261
69	0xbc0936f1	-0.008374915
70	0xbb2b1b13	-0.0026108667
71	0xbc81149b	-0.015756896
72	0x3c849448	0.016183987
73	0x3bf41e8b	0.00744993
74	0xbb6d3746	-0.0036196276
75	0x3c929192	0.017891679
76	0x3b9e6335	0.0048336037
77	0x3c852c24	0.0162564
78	0x3a9c4a76	0.0011924047
79	0xbb1db51d	-0.002406425
80	0x3946e972	0.00018969717
81	0x3c06323f	0.008190691
82	0x3b932bba	0.0044912966
83	0x3c0680a3	0.00820938
84	0x3c393610	0.011304393
85	0xbbd65187	-0.0065404805
86	0xbc5a30e4	-0.0133173205
87	0x3a5c27ec	0.0008398283
88	0x3c4bebce	0.012446357
89	0x3aea9431	0.0017896948
90	0xbb702a21	-0.0036646205
91	0xbadd32d1	-0.0016876106
92	0x3ce05479	0.02738403
93	0xb9b9c57c	-0.00035433087
94	0x3c0402e6	0.008057332
95	0x3cfeaa72	0.031087134
96	0x38ef83c9	0.00011420955
97	0x3cba564d	0.02274623
98	0xbc4af3a9	-0.012387195
99	0xbbd35845	-0.0064497315
100	0xbc77d04b	-0.0151253445
101	0x3b85de9c	0.004085375
102	0x3cb1c1b0	0.021698803
103	0xbcfe24d0	-0.031023413
104	0x3c112aa1	0.008860261
105	0x3c1f52d5	0.009724339
106	0xba8fc6b6	-0.0010969255
107	0xbbf51c21	-0.00748016
108	0x3b05e0b6	0.0020428128
109	0xbca45db0	-0.020064205
110	0x3c28c966	0.010301923
111	0xbc820cec	-0.015875302
112	0xbd0cdd8e	-0.03439098
113	0x3c2c63d7	0.010521851
114	0x3bd84817	0.0066003907
115	0xbca8a288	-0.020585313
116	0xbbcd4c05	-0.0062651657
117	0x3af35d8f	0.0018567311
118	0xbcd33a2d	-0.025784576
119	0xbca00ea2	-0.019538227
120	0x3caeb4a8	0.021326378
121	0x3b31634f	0.002706725
122	0x3bc9c0b4	0.006157005
123	0x3b6fe978	0.0036607664
124	0xbc337c7a	-0.0109549705
125	0x3c9ea457	0.019365473
126	0x3ba700a7	0.0050965133
127	0xbc1b7bf4	-0.009490002
128	0xbb5ce614	-0.0033706473
129	0x3c08ca5a	0.008349026
130	0xba306f9a	-0.0006730497
131	0x3b7bc7c9	0.0038418642
132	0xbbaa991c	-0.0052062403
133	0x3c128eb9	0.008945161
134	0xbbd69e56	-0.006549637
135	0x3c3f9fdf	0.011695831
136	0x3a8c0435	0.0010682406
137	0xbb4c04b7	-0.003113074
138	0xbb30c4a0	-0.0026972666
139	0x3af55e50	0.0018720124
140	0xbbb5fce3	-0.005553828
141	0x3c985bfb	0.018598547
142	0x3bb32dc6	0.005468103
143	0x3c47b3fe	0.01218891
144	0x3b203918	0.0024448093
145	0x3cd3184a	0.025768418
146	0x3c4ce35d	0.0125053795
147	0x3c1748ff	0.009233712
148	0xb9419ce6	-0.00018464364
149	0x3c8acc28	0.016943052
150	0x3bbc8d84	0.0057541747
151	0xbbe0de08	-0.0068624057
152	0xbb66d57e	-0.0035222466
153	0xbc11456e	-0.008866651
154	0x3bee1594	0.007265756
155	0x3caf7840	0.021419644
156	0xbc0ff341	-0.008786024
157	0xbc54e1a7	-0.012993253
158	0xbc3a59f6	-0.011373987
159	0x3c7c27a9	0.015390315
160	0x3b344fb1	0.002751332
161	0x3cde691d	0.027149731
162	0xbca8b968	-0.020596221
163	0xbb8696cc	-0.004107332
164	0x3d424902	0.047432907
165	0x3c8858d1	0.016643913
166	0xbb87bb77	-0.0041422206
167	0x3c8a4193	0.016876971
168	0x3ba2d3ac	0.004969081
169	0x3c35986e	0.011083705
170	0xbca8a625	-0.020587036
171	0x3ca5e1c3	0.020249253
172	0x3cbb38a7	0.022854162
173	0xbb01a083	-0.001977951
174	0x3b3a52a5	0.0028430608
175	0x3c0c0e1a	0.008548284
176	0x3c3f437a	0.0116738025
177	0x3b17c7f0	0.0023159944
178	0xbc4dc2ad	-0.012558621
179	0x3c9fe672	0.019519065
180	0xba7e2d22	-0.00096960564
181	0x3cbb1534	0.022837259
182	0xbb19116e	-0.0023356336
183	0xbc985e7f	-0.018599747
184	0xbab32452	-0.001366744
185	0x3ccb6bf7	0.024831755
186	0xbcc30753	-0.023807203
187	0x3b202a6c	0.0024439348
188	0x3cf30284	0.029664285
189	0x3c7153a1	0.014729411
190	0x3bcbc45c	0.006218476
191	0xbc9a9dc6	-0.01887406
192	0x3c85d757	0.016338034
193	0x3c84d078	0.016212687
194	0xbc1f0148	-0.009704895
195	0xbc7f46c1	-0.015580834
196	0x3c078955	0.008272489
197	0x3b504388	0.0031778533
198	0x3970b6d3	0.00022956291
199	0x3c9225fb	0.017840376
200	0x3c2921ff	0.010323047
201	0x3afc70f6	0.0019259739
202	0xbc13b5cb	-0.009015511
203	0x3c8fbc90	0.017545968
204	0x3afdab48	0.0019353414
205	0x3d06d43b	0.032917242
206	0xbc9ec874	-0.019382693
207	0x3b020d70	0.0019844435
208	0xbcec8787	-0.028873218
209	0x3bb37ce7	0.005477536
210	0xbc9f352b	-0.019434532
211	0xbb0e3b13	-0.0021702691
212	0xbd1e88aa	-0.03870455
213	0xbb8c50e6	-0.004282105
214	0xbc491368	-0.012272693
215	0xbb49db4d	-0.003080088
216	0x3cbc64d6	0.022997301
217	0x3c6e7327	0.014553822
218	0x3bc40978	0.005982574
219	0x3c6450fa	0.013935322
220	0xbcb0cc27	-0.021581722
221	0x3a74813c	0.0009327119
222	0xba311b75	-0.00067561056
223	0xbc4dd3aa	-0.012562672
224	0xbc77e9b3	-0.015131402
225	0x3c36e08f	0.011161937
226	0xbb21171b	-0.0024580422
227	0xbc69892f	-0.0142538985
228	0x3c942e32	0.018088434
229	0x3b0df35e	0.002165995
230	0x3d15a939	0.036538336
231	0xbc2bb6da	-0.010480607
232	0xbc7815b6	-0.015141895
233	0x3cad613f	0.021164535
234	0xbd4fe66a	-0.05075685
235	0x3b89e337	0.0042079943
236	0xbcaf4be8	-0.0213985
237	0xbc1e58a6	-0.00966469
238	0x3c487597	0.012235067
239	0xbcbc9020	-0.023017943
240	0xbc18b15e	-0.009319631
241	0x3cb5f53d	0.022211665
242	0xba8a52d0	-0.0010553245
243	0xbc2aa70f	-0.010415806
244	0x3b5c90a4	0.0033655548
245	0xbd70e2a4	-0.05880989
246	0xbc1a93b9	-0.009434634
247	0xbbe77b1c	-0.0070642363
248	0x3ceabd50	0.028654724
249	0x3b057786	0.002036543
250	0x3a1cc3cc	0.0005980104
251	0xbd85d4c0	-0.065347195
252	0xbb097ca2	-0.0020978828
253	0x3c265b25	0.0101535665
254	0x3c21e668	0.009881593
255	0x3b0e1ff9	0.0021686538

l4/b f4 [5]
0	0x3da34bcc	0.079734415
1	0x3ce48697	0.027896209
2	0x3d50e69d	0.05100118
3	0x3c5a7e3c	0.013335761
4	0x3d8b97e0	0.06816077

l3/W f4 [162, 162]
0	0x3d92fd65	0.071772374
1	0x3e03f610	0.12886834
2	0xbe24c7f2	-0.16091898
3	0xbc1788ff	-0.009248971
4	0xbdd204ab	-0.102547966
5	0xbb7568bd	-0.0037446462
6	0xbb3108bb	-0.002701326
7	0xbd13e60a	-0.036108054
8	0xbd700eb7	-0.058607783
9	0xbbb8ff2f	-0.0056456546
10	0xbd09b3ba	-0.033618666
11	0xbbdcfcf0	-0.0067440197
12	0x3c3fe784	0.0117129125
13	0x3e26aa65	0.16275938
14	0x3d9028f7	0.070390634
15	0xbd18f18b	-0.03733973
16	0x3b8eb020	0.004354492
17	0x3dcc5c29	0.09978516
18	0x3de7f212	0.11325468
19	0xbd30c6c7	-0.04315832
20	0x3e667640	0.22506046
21	0xbba10dd6	-0.0049149795
22	0xbc2e71b5	-0.010647227
23	0x3c8e8107	0.01739551
24	0x3e0cfa0d	0.13767262
25	0x3de2e5d0	0.110789895
26	0x3d8143c3	0.06311753
27	0x3d86e3be	0.06586407
28	0xbda4119e	-0.08011173
29	0x3da5e636	0.0810055
30	0x3c8bbf3e	0.017058965
31	0xbd7ec7c9	-0.06220225
32	0x3e09d631	0.13460614
33	0x3dca0a12	0.09865202
34	0x3cf9ec09	0.030508058
35	0x3cff85b9	0.031191694
36	0x3c075b83	0.008261564
37	0x3ddc52d6	0.10757987
38	0x3dd05556	0.101725265
39	0xbdcca3fb	-0.09992214
40	0x3b970ff9	0.0046100584
41	0xbd25bb97	-0.040462103
42	0x3cf7ab33	0.030233001
43	0x3e1e11ae	0.15436432
44	0x3e136d84	0.14397246
45	0xbd700d01	-0.05860615
46	0xbdc2e5a1	-0.095164545
47	0x3df16f3e	0.11788796
48	0xbe0ac2a4	-0.13550812
49	0x3c3be594	0.01146831
50	0x3c843c10	0.016141921
51	0x3e5cafbb	0.21551411
52	0xbd925e96	-0.07146947
53	0xbe013806	-0.12619027
54	0x3e00f2ad	0.12592573
55	0xbd0fc862	-0.03510321
56	0x3cb480df	0.022034107
57	0xbe161165	-0.14655073
58	0x3dd2227b	0.10260483
59	0x3d000eb1	0.03126401
60	0xbd6d70d6	-0.057968937
61	0x3c1eb285	0.009686117
62	0x3d3e3495	0.046436865
63	0x3d1aa5fb	0.037755948
64	0x3cf7d762	0.03025407
65	0x3d802b27	0.06258231
66	0xbd08f1d7	-0.03343376
67	0xb9a938ec	-0.00032276602
68	0x3e043f0c	0.12914675
69	0xbd42c2e8	-0.04754916
70	0xbc80731e	-0.015679892
71	0x3b2fb5b2	0.002681118
72	0xbd55b67e	-0.05217599
73	0xbdb590c5	-0.08865503
74	0x3e070609	0.13185896
75	0xbdb2d406	-0.087318465
76	0xbd565c11	-0.052333895
77	0xbddba181	-0.10724164
78	0xbd084108	-0.033265144
79	0xbd36c73c	-0.0446236
80	0x3d4f570d	0.050620127
81	0x3df42e74	0.11922923
82	0x3e22fd2f	0.15916894
83	0xbdf67322	-0.120336786
84	0xbc31b99e	-0.010847477
85	0x3dd870be	0.10568379
86	0x3a8b0668	0.0010606768
87	0x3d8ce34d	0.06879292
88	0x3e37c45f	0.17946003
89	0x3e0e0610	0.138695
90	0x3c99bd0b	0.0187669
91	0xbdb91878	-0.0903787
92	0xbd287d72	-0.04113526
93	0x3dc808c9	0.09767301
94	0x398ef96f	0.00027270193
95	0x3cb3e325	0.021958897
96	0x3d8eadcc	0.06966743
97	0xbddda41c	-0.10822317
98	0xbe638843	-0.22219948
99	0x3e558d1d	0.20854612
100	0x3a4f36db	0.00079045974
101	0x3cc7e77f	0.024402378
102	0xbbccf52c	-0.0062548127
103	0x3d592565	0.053014178
104	0xbdd95d5d	-0.10613511
105	0x3d3f3648	0.046682626
106	0x3d817292	0.06320681
107	0x3dad4117	0.084596805
108	0x3c267d5f	0.010161727
109	0x3e05d0d6	0.13067946
110	0x3e01e05b	0.12683241
111	0xbdccb349	-0.099951334
112	0x3e15e69d	0.14638753
113	0xbd15ea79	-0.036600564
114	0xbd03d45b	-0.03218494
115	0xbd3f28fa	-0.046669938
116	0x3d3e6ccd	0.04649048
117	0xbe1bf1b5	-0.15228923
118	0xbda8ea3d	-0.082478024
119	0x3d40421c	0.046938047
120	0x3dd01b27	0.10161429
121	0xbdbf4643	-0.09339573
122	0x3e05b445	0.13057049
123	0xbd033398	-0.032031626
124	0x3d9447e7	0.07240277
125	0x3cc9b228	0.024621084
126	0xbcd22120	-0.02565056
127	0x3c7bf71e	0.015378742
128	0x3e6fdfa8	0.23425162
129	0xbc3bda9e	-0.011465697
130	0xbe18bc87	-0.14915667
131	0x3dca4a32	0.09877433
132	0xbdefc760	-0.1170795
133	0x3db83a25	0.08995465
134	0xbd8e0bc7	-0.0693584
135	0x3d1db81a	0.03850565
136	0x3d94815c	0.07251236
137	0x3d7612be	0.060076468
138	0xbe10eeb8	-0.14153564
139	0x3c4ca91d	0.012491492
140	0xbceb63f9	-0.028734194
141	0xbcc75866	-0.024334144
142	0xbd472df3	-0.048627805
143	0x3d8288a0	0.063737154
144	0xbd8a3019	-0.06747455
145	0x3db1351f	0.0865271
146	0xbcbe0bd7	-0.023199005
147	0xbdff8a67	-0.1247757
148	0xba93d57d	-0.0011278834
149	0xbdc8df84	-0.09808257
150	0xbd0784af	-0.03308552
151	0x3da99c4b	0.08281764
152	0xbc4fdd86	-0.012687093
153	0x3dc43917	0.095812015
154	0x3ba0945f	0.0049004997
155	0x3dd31658	0.10306996
156	0x3d6fabc5	0.05851342
157	0x3d9ad026	0.075592324
158	0xbd99520d	-0.07486353
159	0xbde20b0b	-0.110372625
160	0x3da002b8	0.078130186
161	0x3d54a9a7	0.051919606
162	0x3e43c553	0.19118242
163	0xbd9e33de	-0.07724737
164	0xbcd52057	-0.026016397
165	0x3b92ddbd	0.0044819997
166	0xbd4c7c9a	-0.049923517
167	0x3ceaa0b0	0.028641075
168	0x3cd5e0ef	0.026108233
169	0x3ce44d1d	0.027868802
170	0x3dc6369a	0.09678383
171	0xbdb86d2a	-0.090051964
172	0x3dc160c2	0.09442283
173	0xbc0bed41	-0.008540452
174	0xbe597979	-0.21237744
175	0x3d883caa	0.06652196
176	0xbd2d5031	-0.042312805
177	0xbd57e57e	-0.052709095
178	0xbd9d45bd	-0.07679317
179	0xbd9f005b	-0.0776374
180	0xbcc698fe	-0.024242874
181	0x3d15b1e1	0.03654659
182	0x3c48aa7b	0.012247677
183	0xbc58d588	-0.013234504
184	0x3d8a39d0	0.06749308
185	0xbd852fe3	-0.06503274
186	0x3d010a1c	0.03150378
187	0xbdb172d4	-0.0866448
188	0x3bcb8a8a	0.0062115835
189	0xbc839a90	-0.016064912
190	0x3b38fc42	0.002822653
191	0xbc74344a	-0.014905045
192	0x3e105f91	0.14098956
193	0x3c026e61	0.007960887
194	0x3dbe770d	0.09300051
195	0xbd9290d0	-0.07156527
196	0x3d2f8e2d	0.0428602
197	0x3dffe9f4	0.12495795
198	0xbd30bd6f	-0.043149408
199	0x3e6de72f	0.23232721
200	0xbe527af6	-0.20554718
201	0x3d42d9f8	0.047571152
202	0xbd6d39ce	-0.057916455
203	0x3d400dea	0.04688827
204	0xbdb1fbd7	-0.08690613
205	0x3df94952	0.12172188
206	0xbd5c61d7	-0.053804245
207	0x3d0f1154	0.034928635
208	0xbd8622ef	-0.06549632
209	0x3d5e8242	0.054323442
210	0x3d87936f	0.066199176
211	0xbc87ffca	-0.016601462
212	0x3e1a28b0	0.15054584
213	0xbdfcc143	-0.12341549
214	0x3c46d0ab	0.012134711
215	0xbd77f311	-0.06053454
216	0x3d84c584	0.064829856
217	0xbe70c340	-0.23511982
218	0x3dbd8129	0.09253151
219	0x3df133cf	0.1177746
220	0x3db0d9f7	0.086353235
221	0xba877a00	-0.0010336041
222	0x3d7f7da3	0.062375676
223	0x3dd984fe	0.10621069
224	0xbd90db00	-0.07073021
225	0xbb3dd486	-0.0028965785
226	0x3d720494	0.059086397
227	0xbd0a8b9f	-0.03382456
228	0xbe035989	-0.12827124
229	0x3c941254	0.018075146
230	0x3d9d1967	0.07670861
231	0xbd21e241	-0.039522413
232	0xbb751666	-0.0037397384
233	0x3e02d2fc	0.12775797
234	0xbdbd45ce	-0.0924183
235	0xbd4629b6	-0.048379622
236	0x3bb0de0c	0.005397564
237	0xbe094fee	-0.13409397
238	0xbd46cfe1	-0.048538093
239	0x3db539e6	0.08848934
240	0x39845da6	0.00025246775
241	0x3d9e0190	0.07715142
242	0x3c981c72	0.018568251
243	0x3d3bd728	0.045859486
244	0xbdbde7a0	-0.092726946
245	0xbc516a65	-0.012781714
246	0xbd7ecdc3	-0.06220795
247	0xbd258375	-0.04040857
248	0x3df5167a	0.11967178
249	0x3e498b5c	0.19682068
250	0xbe15c2aa	-0.1462504
251	0xbd2a2240	-0.04153657
252	0x3dadfbb8	0.08495277
253	0xbda835af	-0.08213364
254	0xbdaa9003	-0.08328249
255	0x3c1f1f09	0.009711989

l3/b f4 [162]
0	0xbe53e1f9	-0.2069167
1	0xbe25afa6	-0.16180286
2	0xbe537072	-0.20648363
3	0xbe036435	-0.12831195
4	0xbd8eef7b	-0.06979271
5	0xbe51b2cc	-0.20478362
6	0xbe1ad013	-0.15118437
7	0xbdf2f884	-0.11863807
8	0xbe45e87f	-0.19326971
9	0xbe2c5620	-0.16829729
10	0xbdd80909	-0.10548598
11	0xbdffcb3d	-0.124899365
12	0xbe1a712f	-0.15082239
13	0xbe15a750	-0.14614606
14	0xbe22a342	-0.1588259
15	0xbe4e8c0f	-0.20170616
16	0xbe334fed	-0.17510958
17	0xbe362c1f	-0.17790268
18	0xbdee5f59	-0.1163928
19	0xbe260aa8	-0.16215003
20	0xbe48f43a	-0.19624415
21	0xbe1f138f	-0.15534805
22	0xbe5404e6	-0.20704994
23	0xbd4c7198	-0.04991302
24	0xbe149b9c	-0.14512485
25	0xbd9eb34e	-0.077490434
26	0xbe109fd4	-0.1412347
27	0xbdeaa69c	-0.114575595
28	0xbe664a43	-0.22489266
29	0xbe366bb4	-0.17814523
30	0xbdeea54d	-0.11652622
31	0xbd03a1e5	-0.032136817
32	0xbe4227c8	-0.18960488
33	0xbe44c74e	-0.19216654
34	0xbe247834	-0.16061479
35	0xbe2d1106	-0.16901025
36	0xbe04db50	-0.12974286
37	0xbe201cea	-0.1563603
38	0xbd2dba72	-0.042414136
39	0xbdc0a589	-0.09406573
40	0xbe755dda	-0.23961583
41	0xbdcd7464	-0.100319654
42	0xbe74c0e4	-0.23901707
43	0xbdc47fa2	-0.095946565
44	0xbe8377cb	-0.25677332
45	0xbda4cc46	-0.080467746
46	0xbdc676a3	-0.09690597
47	0xbe705c61	-0.2347274
48	0xbe5f8c1e	-0.21830794
49	0xbb4456d0	-0.002995897
50	0xbe52b8ee	-0.20578358
51	0xbe030cdf	-0.12797879
52	0xbe3354e2	-0.17512849
53	0xbe15bdc0	-0.14623165
54	0xbd6b2510	-0.057408392
55	0xbe5eb776	-0.21749672
56	0xbde9020f	-0.11377346
57	0xbe3dbab1	-0.18528248
58	0xbe4d0292	-0.20020512
59	0xbd908f31	-0.070585616
60	0xbe27ef55	-0.16399892
61	0xbdaf8958	-0.08571118
62	0xbe2262f8	-0.15858066
63	0xbe08b50b	-0.13350312
64	0xbe1b5f2a	-0.15173021
65	0xbdc7f1d3	-0.09762921
66	0xbdaf38df	-0.08555769
67	0xbe55e510	-0.20888162
68	0xbd72ea49	-0.059305463
69	0xbe843c83	-0.25827417
70	0xbe38ad75	-0.18034919
71	0xbd80a0e8	-0.062806904
72	0xbe602377	-0.21888529
73	0xbdbd791a	-0.09251614
74	0xbdfaf365	-0.12253455
75	0xbe9809a2	-0.2969485
76	0xbe3b957b	-0.18318741
77	0xbe1d1eca	-0.15343776
78	0xbe2ee859	-0.17080821
79	0xbd36d55e	-0.044637077
80	0xbd8acb74	-0.06777087
81	0xbe44ff9e	-0.19238135
82	0xbe784b85	-0.24247558
83	0xbe29c6e4	-0.16579777
84	0xbdedd3e5	-0.11612681
85	0xbdaa9930	-0.083299994
86	0xbe4d9e1b	-0.20079844
87	0xbe0cf8f2	-0.1376684
88	0xbe52f414	-0.20600921
89	0xbde27e5a	-0.11059256
90	0xbd2811c4	-0.041032568
91	0xbe2d15d1	-0.16902854
92	0xbe6d49a6	-0.23172626
93	0xbe62b95a	-0.22141019
94	0xbe3265a2	-0.17421582
95	0xbd87a0a9	-0.0662244
96	0xbe8f10ce	-0.27942508
97	0xbe14d43b	-0.14534084
98	0xbe52aacf	-0.20572971
99	0xbe1a1f53	-0.15051012
100	0xbe4982e4	-0.19678837
101	0xbe2dcb49	-0.16972078
102	0xbe5c25a0	-0.21498728
103	0xbdfb0ca9	-0.12258274
104	0xbe8d6362	-0.27614886
105	0xbe0c69cd	-0.13712235
106	0xbe784e74	-0.24248677
107	0xbdcfc096	-0.10144155
108	0xbe2a5abb	-0.16636173
109	0xbd8e7ebd	-0.06957767
110	0xbd10f1f4	-0.035386994
111	0xbd692c3b	-0.056926947
112	0xbe0c3394	-0.1369155
113	0xbe06baa9	-0.13157143
114	0xbdeee9d6	-0.116656944
115	0xbe20e472	-0.15712145
116	0xbde89525	-0.11356572
117	0xbdd821e3	-0.105533384
118	0xbe1433a0	-0.14472818
119	0xbd357f58	-0.044310898
120	0xbe2cb592	-0.16866139
121	0xbdd1ca64	-0.10243681
122	0xbe341ce5	-0.17589147
123	0xbdc365b6	-0.09540884
124	0xbe3eefbc	-0.18646139
125	0xbe65d410	-0.22444177
126	0xbdc112cb	-0.094274126
127	0xbe081c46	-0.13292035
128	0xbe1b4250	-0.15162015
129	0xbe847f44	-0.25878346
130	0xbdf57c25	-0.11986569
131	0xbe340721	-0.17580844
132	0xbdea5f7d	-0.11443994
133	0xbe0dfb7d	-0.13865466
134	0xbe28cbe1	-0.16484024
135	0xbd3578b4	-0.044304565
136	0xbe0cd5fc	-0.13753504
137	0xbe02605d	-0.12732072
138	0xbe3a063a	-0.18166438
139	0xbe105ea6	-0.14098606
140	0xbe06b805	-0.13156135
141	0xbdf7b456	-0.12094943
142	0xbdc6146d	-0.09671865
143	0xbe1ce4b2	-0.15321615
144	0xbe0a6573	-0.13515262
145	0xbdcf9e8f	-0.101376645
146	0xbb88ebb4	-0.0041784886
147	0xbe3c2262	-0.18372491
148	0xbd9732ad	-0.073827125
149	0xbe0bb0ae	-0.13641617
150	0xbdf6ae73	-0.12044992
151	0xbe56f7e8	-0.20993006
152	0x3bd997ff	0.006640434
153	0xbe457ae5	-0.19285162
154	0xbe0ea044	-0.13928324
155	0xbe0dacd3	-0.13835458
156	0xbe587528	-0.21138442
157	0xbe3378a1	-0.17526485
158	0xbe996a97	-0.29964134
159	0xbe6a899e	-0.2290406
160	0xbd9485bb	-0.072520696
161	0xbe3b22d0	-0.18274999

l2/W f4 [162, 162]
0	0x3ccdac5c	0.025106601
1	0xbcc8c232	-0.024506662
2	0x3c7671fd	0.015041825
3	0x3db74427	0.08948546
4	0x3e412439	0.18861474
5	0xbe23fc3b	-0.16014187
6	0xbd030b8e	-0.03199344
7	0xbdaad7e6	-0.083419606
8	0xbd6a9915	-0.057274897
9	0xbd52804f	-0.051391896
10	0xbc811323	-0.015756195
11	0x3e1e3c8b	0.15452783
12	0x3e08441a	0.13307229
13	0x3d440335	0.04785462
14	0xbe219ad4	-0.15781718
15	0x3d946dfa	0.07247539
16	0x3cfbe3d0	0.030748278
17	0x3db26330	0.08710325
18	0x3d492821	0.049110536
19	0x3e7769bd	0.2416143
20	0x3de7c5d4	0.113170296
21	0x3b44e811	0.003004555
22	0x3e0b4cd1	0.13603522
23	0x3c97048a	0.018434782
24	0xbd88c208	-0.066776335
25	0xbdadd7be	-0.08488415
26	0x3c1a8647	0.009431428
27	0x3cea8662	0.028628532
28	0xbd423200	-0.047410965
29	0x3d4861ad	0.048921276
30	0xbd868bfb	-0.06569668
31	0x3abc803e	0.0014381481
32	0x3baf7ff5	0.00535583
33	0x3d573564	0.05254115
34	0x3a6639fc	0.0008782444
35	0xbc153feb	-0.0091094775
36	0xbd36e5d6	-0.044652782
37	0xbd145e60	-0.036222816
38	0xbd4c5f15	-0.049895365
39	0x3d889896	0.066697285
40	0x3dac1fc1	0.08404494
41	0x3c516770	0.012781009
42	0xbcd63e20	-0.02615267
43	0xbd096bb1	-0.03354997
44	0xbc9a4587	-0.018831981
45	0x3d94fbc6	0.072745845
46	0xbd705196	-0.058671556
47	0xbe26194c	-0.16220587
48	0x3e2247b8	0.15847671
49	0x3de5fe18	0.11230105
50	0x3d9b4d37	0.07583087
51	0x3e2c209b	0.16809313
52	0xbe0ceac1	-0.13761427
53	0xbde4b5f7	-0.111675195
54	0x3d77791d	0.060418237
55	0x3d075e69	0.03304902
56	0xbd818498	-0.063241184
57	0xbd5ed0d0	-0.054398358
58	0xbd59c5a0	-0.053166986
59	0xbd9a3627	-0.0752986
60	0xbde00b84	-0.109396964
61	0xbd028c12	-0.031871863
62	0x3e19902d	0.14996405
63	0xbd917e1a	-0.0710413
64	0xbc349cc9	-0.011023709
65	0xbd772d5d	-0.060345996
66	0xbdb79507	-0.089639716
67	0xbd6625ad	-0.056188274
68	0x3d925422	0.07144953
69	0x3d5992b3	0.05311842
70	0xbd1d4102	-0.038392074
71	0xbc7e945e	-0.015538303
72	0x3db67ce7	0.08910542
73	0x3e07dacc	0.13267058
74	0x3e47e0d1	0.19519354
75	0xbdf2a5d8	-0.118480384
76	0xbd4d24ef	-0.05008405
77	0x3dda01d8	0.10644883
78	0x3d9c3c57	0.076286964
79	0xbd1fb4b1	-0.03899068
80	0x3db39d06	0.08770184
81	0x3c897d50	0.016783386
82	0x3d756f76	0.05992075
83	0x3d7c19c2	0.061548002
84	0xbdf24661	-0.1182983
85	0x3d9e27ca	0.07722433
86	0x3dfcb52b	0.123392425
87	0xbe974f2d	-0.29552594
88	0x3d6fef01	0.05857754
89	0xbdfebb98	-0.124381244
90	0xbd282759	-0.04105315
91	0x3aabbf63	0.0013103302
92	0x3acbcb1a	0.00155482
93	0x3d168f59	0.0367578
94	0xbc2ef2e0	-0.010678023
95	0xbd4afefb	-0.049559575
96	0x3d8cc274	0.068730265
97	0x3d82f260	0.063938856
98	0x3ce3ce49	0.027808325
99	0x3a9360bd	0.001124404
100	0xbdfd0e38	-0.12356228
101	0x3c8a2f10	0.016868144
102	0x3c290dc5	0.010318224
103	0xbe517f5a	-0.20458737
104	0xbc355163	-0.011066767
105	0x3d0b14e9	0.03395549
106	0x3d4413fb	0.047870617
107	0xbc77ac3e	-0.015116749
108	0x3c8cda01	0.017193796
109	0x3dce94b0	0.10086954
110	0x3c12bc06	0.008955961
111	0x3dc8048c	0.09766492
112	0x3d913a1f	0.07091164
113	0xbb8f8469	-0.004379798
114	0xbd5d5c9b	-0.054043394
115	0x3d11d502	0.03560353
116	0xbded877c	-0.11598107
117	0x3c9634d1	0.018335732
118	0x3dd7b402	0.10532381
119	0xbd34bc82	-0.044125088
120	0xbdf6df73	-0.12054338
121	0xbe070e0f	-0.13188957
122	0x3d9c916e	0.07644926
123	0xbc3b7aa3	-0.011442813
124	0x3d8cfea9	0.0688451
125	0xbc8f590e	-0.01749852
126	0xbd012080	-0.031525135
127	0x3ccfa5ed	0.025347674
128	0xbac80926	-0.0015261516
129	0xbda67761	-0.081282385
130	0xbada3a7c	-0.001664951
131	0x3dc5d1ae	0.09659134
132	0x3dc8fa65	0.09813384
133	0x3d39689e	0.045265786
134	0xbe2030c8	-0.15643609
135	0x3e365cd6	0.17808852
136	0x3e3938fa	0.18088141
137	0x3d8de0ee	0.069276676
138	0xbce624ec	-0.028093778
139	0xbdf47481	-0.11936284
140	0x3d56f0f9	0.052475903
141	0xbb044e01	-0.0020188096
142	0x3d9a08a1	0.07521177
143	0x3b866dfb	0.004102466
144	0x3dc79c9a	0.09746666
145	0xbc616bf8	-0.013758652
146	0xbd8c98ce	-0.06865083
147	0xbd341a53	-0.043970417
148	0xbc0eaa11	-0.008707539
149	0x3e20dadb	0.15708487
150	0x3d232039	0.03982565
151	0x3d60ee33	0.054914664
152	0x3d4e0eaa	0.050306953
153	0x3bf5400d	0.007484442
154	0xbcb9b69c	-0.022670083
155	0x3d0484ce	0.032353215
156	0xbc42cf06	-0.011890179
157	0xbdb76c03	-0.089561485
158	0x3ce8ea1c	0.028431945
159	0x3df3b461	0.11899639
160	0x3d4001cd	0.046876717
161	0x3caed555	0.021341959
162	0x3e61ad33	0.22038727
163	0x3ccc65d7	0.024950905
164	0x3e389cd6	0.18028578
165	0xbd9f37b4	-0.077742964
166	0x3d21289a	0.03934536
167	0x3cdef3b4	0.027215816
168	0x3da02976	0.07820408
169	0x3c9d079a	0.019168664
170	0x3e00785f	0.12545918
171	0xbe0d770b	-0.13814943
172	0xbca44424	-0.020052023
173	0x3d737b28	0.059443623
174	0x3e4ac4c7	0.19801627
175	0x3cf23b4c	0.02956929
176	0xbd669de0	-0.056302905
177	0x3e28a361	0.16468574
178	0x3d91cb9d	0.07118914
179	0xbc8ce279	-0.017197834
180	0x3d9a7104	0.07541087
181	0x3db22b81	0.08699704
182	0xbd180314	-0.03711231
183	0x3ce387cc	0.027774714
184	0x3bdab132	0.0066739554
185	0x3e051be1	0.12998916
186	0x3c77da68	0.015127756
187	0xbdfc975c	-0.12333557
188	0x3ce3a21c	0.02778726
189	0x3d382ea0	0.04496634
190	0x3e0f5f02	0.14001086
191	0xbdb0ba37	-0.08629268
192	0xbd1b6750	-0.037940323
193	0xba75ff5d	-0.00093840604
194	0x3d0a1fae	0.03372162
195	0x3dbc9f6f	0.09210097
196	0x3b20d773	0.002454248
197	0xbcc5e3a4	-0.0241564
198	0x3d5631c1	0.052293543
199	0x3dac55dd	0.084148146
200	0x3d5d4b33	0.054026794
201	0xbd18d06c	-0.03730814
202	0xbbcdda9f	-0.006282165
203	0x3d525daf	0.051358875
204	0x3e64a38b	0.22328012
205	0x3d8a7961	0.067614324
206	0xbda21e5c	-0.07915947
207	0xbd41f0d9	-0.04734883
208	0x3e15b337	0.14619146
209	0xbc99fdd5	-0.018797794
210	0x3cad289b	0.021137526
211	0x3e53207b	0.20617859
212	0x3e20fd9e	0.15721747
213	0x3dc4380d	0.09581003
214	0x3ccafdbd	0.024779195
215	0x3b960bbd	0.004579036
216	0xbcbeaee1	-0.023276748
217	0x3c72ea66	0.014826393
218	0x3e0076cd	0.12545319
219	0x3d2f8648	0.04285267
220	0xbc1289c6	-0.008943981
221	0xbdeadf69	-0.11468393
222	0xbe7fd606	-0.24983987
223	0x3dc14250	0.09436476
224	0x3dababea	0.083823994
225	0x3e12f821	0.14352466
226	0xbd7fc069	-0.062439356
227	0xbc848f95	-0.016181746
228	0xbdcbea44	-0.09956792
229	0xbc0dd351	-0.008656339
230	0x3c4fe9ac	0.012689989
231	0x3dccc7b6	0.09999029
232	0x3dc7419c	0.09729311
233	0x3be3c62f	0.0069511156
234	0x3d101616	0.035177313
235	0x3dff42bd	0.12463901
236	0xbe07aa5d	-0.13248582
237	0x3dc7a4c6	0.09748225
238	0x3e339514	0.17537338
239	0x3dff18f4	0.12455931
240	0x3e236fb5	0.15960582
241	0xbd3a8aa1	-0.045542363
242	0x3dcd1ec8	0.10015637
243	0xbd3ee7a6	-0.046607636
244	0x3d77f0b8	0.0605323
245	0xbd26fd9b	-0.0407692
246	0xbcd4e189	-0.02598645
247	0x3d2f37fd	0.042778004
248	0x3de9bdee	0.11413179
249	0xbd38f515	-0.045155603
250	0x3c7574aa	0.014981428
251	0x3da55067	0.08071976
252	0xbbbedb58	-0.0058244877
253	0xbdaf6468	-0.08564073
254	0xbe552137	-0.20813452
255	0x3ce427e6	0.027851056

l2/b f4 [162]
0	0xbd8b2f26	-0.06796102
1	0xbe58b74e	-0.21163675
2	0xbe133f2e	-0.1437957
3	0xbe2ba462	-0.16761926
4	0xbce750c9	-0.028236764
5	0xbdc422a7	-0.09576922
6	0xbdad0a8b	-0.084492765
7	0x3a7ea9c8	0.00097146304
8	0x3c832ab2	0.01601157
9	0xbdd50237	-0.10400813
10	0x3cb339b9	0.02187811
11	0xbe0e7f43	-0.13915734
12	0xbd67c468	-0.056583792
13	0xbe0bc740	-0.13650227
14	0xbdbe5d7f	-0.09295177
15	0x3c5ff4db	0.013669218
16	0xbd5ff615	-0.05467804
17	0xbdd06462	-0.101753965
18	0xbdd43f84	-0.10363677
19	0xbdee9db1	-0.11651171
20	0xbe01953f	-0.12654589
21	0xbe6ef4e7	-0.2333561
22	0xbe137bb5	-0.14402659
23	0xbe1e9303	-0.15485768
24	0xbdd35310	-0.10318577
25	0xbe34cff3	-0.17657451
26	0xbde9f65c	-0.114239424
27	0xbe0f80ef	-0.14014028
28	0x3c7023c9	0.014656969
29	0xbe137c83	-0.14402966
30	0xbc6efc6e	-0.014586551
31	0xbdebc5bd	-0.11512325
32	0xbe002eaa	-0.12517801
33	0xbe013867	-0.12619172
34	0xbdb1074a	-0.086439684
35	0xbdd13d7b	-0.102168046
36	0xbe2b08ed	-0.16702624
37	0xbe5b9835	-0.21444781
38	0xbd083181	-0.033250336
39	0x3cadf5e2	0.02123541
40	0xbe0cc748	-0.13747895
41	0xbe30c1ae	-0.17261383
42	0xbe02dc67	-0.1277939
43	0xbe4c5aba	-0.19956484
44	0xbd4b7a43	-0.049677145
45	0xbdc57aae	-0.0964254
46	0xbdac1f8b	-0.08404454
47	0xbd692a41	-0.056925062
48	0xbd97fa5c	-0.07420799
49	0xbd7a4489	-0.061100516
50	0xbdbb7f91	-0.09155191
51	0xbe4f1429	-0.20222534
52	0xbdd66713	-0.104688786
53	0x39d45012	0.00040495448
54	0xbdf42117	-0.11920374
55	0xbd81c0e9	-0.06335623
56	0xbd479206	-0.048723243
57	0xbd98d5e6	-0.07462673
58	0xbd520f65	-0.051284213
59	0xbe248063	-0.160646
60	0xbca4ff2a	-0.020141203
61	0xbdd4ac99	-0.10384483
62	0xbdc2f511	-0.09519399
63	0xbdc3b953	-0.09556832
64	0xbe2badc1	-0.167655
65	0xbd9d1141	-0.076693065
66	0xbdbd0c45	-0.09230856
67	0xbdf421fd	-0.11920545
68	0xbe075de4	-0.1321941
69	0xbd87f876	-0.06639187
70	0xbb884993	-0.0041591614
71	0xbd9e831c	-0.07739851
72	0x3c21637c	0.009850379
73	0xbda88a49	-0.08229501
74	0xbe24712a	-0.16058794
75	0xbdf24748	-0.11830002
76	0xbe698981	-0.2280636
77	0xbd8fcc8e	-0.070214376
78	0xbc9769b2	-0.018483017
79	0xbe0e8b59	-0.13920344
80	0xbdbd617b	-0.092471085
81	0xbdefcb96	-0.11708753
82	0xbe376ba9	-0.17912163
83	0xbe505901	-0.20346452
84	0xbdc0052c	-0.093759865
85	0xbdb9a6fa	-0.090650514
86	0xbe1f9e04	-0.15587622
87	0xbd700653	-0.05859978
88	0xbe488dc3	-0.19585328
89	0xbd221cfc	-0.039578423
90	0xbda135d8	-0.07871598
91	0xbd7dcc78	-0.061962575
92	0xbc5561e5	-0.013023828
93	0xbd87c41c	-0.06629202
94	0xbe2f0968	-0.17093432
95	0xbdca5135	-0.0987877
96	0xbdab9649	-0.08378274
97	0xbe3205af	-0.1738498
98	0xbdfba1cd	-0.122867204
99	0xbd7af699	-0.06127033
100	0xbdc38ced	-0.09548364
101	0xbda14164	-0.078738004
102	0xbe1457f5	-0.14486678
103	0xbdc05f7b	-0.093932115
104	0xbe4bec26	-0.19914302
105	0xbe47143b	-0.19441311
106	0xbe1a412a	-0.1506392
107	0xbe62999b	-0.22128908
108	0xbe2eddf5	-0.17076857
109	0xbdecf0ea	-0.11569388
110	0xbe85cf31	-0.26134637
111	0xbd95d65e	-0.07316278
112	0xbe211ae3	-0.15732913
113	0xbdd2bcaf	-0.10289895
114	0xbd9758f1	-0.07390011
115	0xbd48da81	-0.049036507
116	0x3cd658e8	0.02616544
117	0xbd944a66	-0.07240753
118	0xbdc68eeb	-0.09695228
119	0xbe14d97e	-0.14536092
120	0xbdb2381c	-0.08702108
121	0x3d533ec0	0.051573515
122	0xbd4f944f	-0.050678547
123	0xbd7ccb3c	-0.061717257
124	0xbccc548b	-0.024942657
125	0xbe3faab9	-0.1871747
126	0xbdf2a459	-0.11847753
127	0xbd6fada1	-0.058515195
128	0xbda94097	-0.08264273
129	0x3c9572f1	0.018243285
130	0x3c77f7d9	0.015134775
131	0xbe18584f	-0.14877437
132	0xbd1a078f	-0.037604865
133	0xbde09408	-0.10965735
134	0xbe0e43d3	-0.1389306
135	0xbcc02e85	-0.023459682
136	0xbdb82969	-0.08992273
137	0xbde84632	-0.11341514
138	0xbd052c23	-0.032512795
139	0xbe35058f	-0.17677902
140	0xbe00fa5c	-0.12595505
141	0xbcf1e1dc	-0.029526643
142	0xbdb10b14	-0.08644691
143	0xbdeaedf5	-0.11471168
144	0xbdcbed36	-0.09957354
145	0xbe33faf5	-0.17576201
146	0xbdc7da8d	-0.09758482
147	0xbc70d67d	-0.0146995755
148	0xbe1a21ad	-0.15051909
149	0xbd848f7d	-0.06472681
150	0xbd931b07	-0.071828894
151	0xbe3c936e	-0.18415615
152	0xbe3322e4	-0.17493778
153	0xbd5c644f	-0.0538066
154	0xbd08821e	-0.033327214
155	0xbdf52fd8	-0.11972016
156	0xbdc0cf41	-0.094145305
157	0xbdffb28e	-0.124852285
158	0xbe235115	-0.15948899
159	0xbe29ff6f	-0.16601346
160	0xbd7f7032	-0.062362857
161	0xbd863aca	-0.06554182
