model2.npz (npz, 224877 bytes, 8 tensors)

l3/W f4 [162, 162]
00000000: 290c 8e3d 1f9d 5d3b 8e4f bfbd f3dd c3bc
00000010: be11 243e 3104 013e 6ed1 80bd b4dc 1bbe
00000020: 6036 98bc dfc4 723d f966 883d 01ba a6bc
00000030: 2031 bfbd 9f0e 9fbb 54c0 353d 9f44 aebd
00000040: 39ed 56be 3cdf 483c a68f 643c a15c 873d
00000050: e1a4 cb3c 4e17 d43d fdc6 1cbb dc5a 633c
00000060: 5918 5a3d 63f7 3b3e 8f65 0cbd c02f c2bd
00000070: b16d 77bc 67d2 b63b 74d1 fcbd 8f25 b13c
00000080: 51ef ac3d 770c b2bd c819 d33d ca98 a13d
00000090: f172 c33d 7805 033e 1f71 51bb 5106 d03d
000000a0: 5c99 ebbc e674 7e3d 4fe9 6bbd 74fc a1bd
000000b0: 9abe c43d 058d bd3c 1c8a bf3c 045d 5a3c
000000c0: c8f5 1dbe d766 3cbd 55df aabb 8206 ab3c
000000d0: f44b 04bd ce3d 963c 8969 89bd 1934 973d
000000e0: 50ea 363d 12de c33d 8b32 643e af69 b4bd
000000f0: 5b18 273d f689 81bd 2d3e 9ebb 79d0 ac3d
00000100: 7fea f3bc 028e 74bc ce8b da3d 0cad d53c
00000110: 6da3 a3bb 2279 af3d f2b6 a8bd 6272 a03d
00000120: ca69 233e c0a0 2abd 6bed 15be 7532 b73d
00000130: eb4d 00be 424b e13d b1db 1bbb d4a1 3c3d
00000140: 9c77 a1bb d090 4e3d 58af 363d 6659 a4bc
00000150: ffb0 7e3d d727 abbd fdae 32bc 86da 82be
00000160: 4ff5 a2bc 65c1 fb3d 6092 82bd 42f3 6c3d
00000170: d6ba aabd 692c 95bc c109 55bc 2abe 16bd
00000180: 4e9e 023e 8462 ef3b 0b80 0cbe da9e fdbc
00000190: 43bc 2e3d 367b febc 97b2 80bd 1c37 533c
000001a0: b43a b6bb 9348 febc 0d97 943c 71ca d83d
000001b0: 6ec7 033d ba63 6abd 5b11 0d3d 5172 8bbd
000001c0: 4b63 a23d 3b16 a23c 4e55 60be c9f9 e33c
000001d0: 5041 2a3e f532 c9bc a92c 31bd 9735 20be
000001e0: 1b51 8d3d b52e 35bd fc71 35bc fd2d 2b3e
000001f0: 9b53 d23c fac3 f3bd 27bf 76bc bddb bc3d
00000200: 79f0 c93c 4355 ccbb aa27 253b 07a6 6e3c
00000210: 8857 bcbc 6dfc 14be dfbd 27bb badc cebd
00000220: c266 a0ba 7e90 9f3d 0951 2bbb 8cdc 05be
00000230: 97fb 2fbd b09e bfbc 8b5f d6bb bc9d 153c
00000240: cd5c f8b9 a5fe 8f3d 2646 e93d 4574 afbd
00000250: d566 283d 1ddf 903d ff52 15be 37ad 88bd
00000260: 6dc4 d0bc 2193 ae3d b088 82bd ad04 91bd
00000270: 86b5 3abe c5e0 e3bc 4a20 e83d 2b87 d63d
00000280: 624c bd3c 2957 c8bd 5484 003d 0c1a 803d
00000290: f175 31bd 58a0 98bb 7732 a63d f71d 513d
000002a0: 3df3 9f3b c5cb 0b3d 4ec3 67bd 0911 f33d
000002b0: 9a89 7f3d 36a1 3bbd a1dd 723d 232f a63d
000002c0: 1c64 1ebd c787 08bd cced 013d 7bf4 4c3d
000002d0: cbf5 3d3d 8272 b93c 2b87 b33c 38ea 983d
000002e0: cdf7 073d 53e0 96bc 384d 17bd ffa2 aebc
000002f0: 265d df3d 16b0 4bbc 6866 6dbd 3080 173e
00000300: 9890 7d3c 5cd4 94bc 219b 60bd fc01 07be
00000310: 9fb6 983d 33af 1f3c 28ae 1d3e f386 65be
00000320: a4b8 223b 2a17 683d 9d39 5d3d 652b 0abd
00000330: 31ea 91bd 4c12 25bc 54b4 e53b 1190 82bd
00000340: 7bdc 13be 81fe a23c 9a23 763d b5b1 3ebd
00000350: 98f0 1ebd cb46 e4bc d4c6 253c c917 ba3b
00000360: 773b 0d3e e0bc 813d ffee d33b a356 c5bb
00000370: edd0 49bc 9d8f 9abd e249 71bd cb94 9dbc
00000380: 44d8 a0bd 3dfd 83bd 317e 4fbc c6fb 97bd
00000390: 5808 b0bd 4cb8 f5bd 5482 4abd b070 c23d
000003a0: 498a d5bd b43a 1abe d372 4a3d 49c1 f1bc
000003b0: 281f 2d3c ee76 b3bd dc6f b8bd 745a 03bc
000003c0: dc17 1d3d f664 0fbe 9205 13bd 5133 9f3c
000003d0: f965 b53d ef66 123c bc0e dbbd e199 963c
000003e0: 1191 f6bc 4710 8bbd e49f 16bc 3beb 193b
000003f0: faaf a8bc ff61 f03c 1037 64bd dd01 8c3b
0.06935913 0.0033815575 -0.09341346 -0.023909545 0.16022393 0.12599255 -0.062899455 -0.1522091
-0.018580616 0.059269782 0.066602655 -0.020352365 -0.09335542 -0.004854038 0.04437287 -0.08509182
-0.20988931 0.0122602545 0.013950264 0.066094644 0.024858894 0.103560075 -0.0023922317 0.013876643
0.053245876 0.1835609 -0.03427654 -0.09481764 -0.015101836 0.005579281 -0.123446375 0.021624355
0.084440835 -0.08693784 0.10307652 0.0789047 0.09543408 0.12795055 -0.0031958295 0.10157455
-0.02875965 0.0621232 -0.057595547 -0.0790948 0.09606667 0.023138532 0.023381285 0.013327841
-0.1542579 -0.045996513 -0.0052146115 0.020877127 -0.032298997 0.018340018 -0.06709582 0.07382984
0.04465705 0.09563841 0.22284906 -0.0880922 0.04079471 -0.06325142 -0.0048291893 0.084382005
-0.029774902 -0.014926435 0.10671197 0.026083492 -0.004993847 0.08568026 -0.08238019 0.07834317
0.15958324 -0.04165721 -0.14641349 0.08945171 -0.12529723 0.110006824 -0.002378207 0.04605277
-0.0049275886 0.050431073 0.044600815 -0.02006216 0.062180515 -0.08357208 -0.010905978 -0.25557345
-0.019892363 0.122927465 -0.06375575 0.057849176 -0.083364174 -0.018209653 -0.013002814 -0.03680245
0.12755701 0.007305445 -0.1372072 -0.030959535 0.04266001 -0.03106461 -0.06284063 0.012891557
-0.005561197 -0.031040465 0.018138433 0.10585488 0.032172613 -0.057224013 0.03444038 -0.068089135
0.07929095 0.019785991 -0.21907541 0.027829068 0.16626477 -0.024560431 -0.043255482 -0.15645443
0.06900235 -0.044233996 -0.011074539 0.16716762 0.025674632 -0.11902614 -0.015060223 0.09221599
0.0246508 -0.00623575 0.0025200644 0.014565951 -0.022990957 -0.14549418 -0.002559535 -0.10100694
-0.0012237655 0.077912316 -0.002614083 -0.13072413 -0.042964544 -0.023391098 -0.0065421513 0.009131845
-0.00047371388 0.070309915 0.11390333 -0.085670985 0.041113693 0.070738055 -0.14582442 -0.06673663
-0.025484288 0.08524156 -0.06373727 -0.0708097 -0.18233308 -0.02781714 0.11334284 0.10475
0.023107711 -0.097822495 0.031376198 0.06254968 -0.04332537 -0.0046577863 0.08115094 0.051053967
0.004881291 0.034129877 -0.05658274 0.118684836 0.062387086 -0.04580804 0.059293393 0.08114459
-0.03866969 -0.033332612 0.03172092 0.050037842 0.046376985 0.02263761 0.021915039 0.07466549
0.033195306 -0.018417513 -0.036938876 -0.021317957 0.109064385 -0.012432119 -0.05795899 0.14794993
0.015476368 -0.018167667 -0.054835442 -0.1318435 0.07456707 0.009746361 0.15398467 -0.2241476
0.0024829293 0.056662716 0.054010022 -0.03373279 -0.071247466 -0.010075163 0.007010022 -0.06375135
-0.14439575 0.019896748 0.060092546 -0.046556193 -0.038803667 -0.027865788 0.010118205 0.005679105
0.13792215 0.06334853 0.0064676995 -0.006022291 -0.012317878 -0.07546923 -0.05890835 -0.01923599
-0.078537494 -0.06444786 -0.012664364 -0.07421069 -0.085953414 -0.119980425 -0.049440697 0.0949415
-0.104267664 -0.15061456 0.04942591 -0.02951111 0.01056651 -0.087629184 -0.090057105 -0.008017171
0.038352832 -0.14003357 -0.035893984 0.01943365 0.0885734 0.008935674 -0.1069617 0.018383922
-0.03009847 -0.06790214 -0.009193394 0.0023486156 -0.020591725 0.029343603 -0.055716574 0.004272683

l3/b f4 [162]
00000000: f506 f3bd 1be3 2bbd 19a9 8bbe 01e7 e1bd
00000010: 1cb8 efbd 0ed1 98bd 670b 003f 07b4 313d
00000020: 8373 1ebe 7649 2abe 0ac9 07be 2ff8 72be
00000030: ff5a 5cbd 79d8 74be f869 abbd 2767 5fbe
00000040: 0c5b 87be 7b7f 89bd b60a b0bd f312 c6bc
00000050: cd93 a73e 9d74 6cbd 5cb7 6b3e c468 783d
00000060: cf98 03be 8cf1 8ebe f10e 363e 71a8 72be
00000070: ec1c 11be 9395 b53c cfbf 18be 10a8 7cbe
00000080: 2067 89be 4ef2 94be b25c cabd dd50 68bd
00000090: 4bc9 8a3c 552f cabd 2833 54bd 719f 37be
000000a0: 39b7 26bc 1087 0ebe b4b0 9ebd 7347 43bd
000000b0: 9063 ccbd cf93 e2bc 6ebf 07be 7c7d b1be
000000c0: 48fe d0be b87b a5bc 24e9 1bbe 370b a5bd
000000d0: 7fa9 3cbe a467 0abe af60 60bd 50e8 23bd
000000e0: 5150 19bf 8e87 6cbe 800c e8bd ea13 863e
000000f0: 72a9 28bd 0028 75be 2324 cfbd 5772 26be
00000100: e9b7 29be 1686 27be 7e46 38be 461d 7cbd
00000110: 3146 57be 68f4 10bd 4d53 5abe 2241 04bf
00000120: da15 f3bd 5ab4 04be 0c37 45be a39c 2bbe
00000130: 4709 3a3e a8a5 b2bd 252d 263f 16f6 3ebe
00000140: d443 de3d 59a2 86bd 127f 26be 5180 c5bd
00000150: 5e10 be3e 1a34 5abd b2fd 42be b500 61be
00000160: 5b2d 32be e9b7 84bd a8af 25be 7b77 c43e
00000170: 35c9 b5bd dc16 87be 6085 16bf 1470 4a3c
00000180: e584 d2bd 9b69 51be bfe0 fabd 52eb 1fbf
00000190: 784a 83be c77f 95bd 3206 1ebe 6b52 aebe
000001a0: 5f80 efbd 7daf 0ebe 95f8 92bd b474 48be
000001b0: 617f 5ebd ef5f abbd f37f 0ebe 29ad 8abc
000001c0: 4b26 02be 40a6 f6bd 96c8 63be 8f62 98bd
000001d0: 45ca 57be 6a43 edbd 8a41 9cba 6793 81be
000001e0: b420 7fbd 3108 d5bd 1c54 3bbe 8bc7 a2bc
000001f0: 1a87 64be 6b32 06be 7051 b7bd 4bf7 64be
00000200: 2518 bcbc 0ee3 0bbe b5a4 d0bd bf52 0cbe
00000210: f7c8 e9bd 9398 92be 1359 06be c6fb a3be
00000220: 1154 9bbd f972 9ebe f39c 1dbe 3ff7 c3bd
00000230: 5106 a9bd 09f4 e1be 9168 bcbc a04e 0dbe
00000240: e8f0 bebd 412b 1dbf 9aef 6a3e 6964 f2bd
00000250: 8a70 01be 1c45 e9bd 387e 3cbe 026f 91be
00000260: 2ac5 8bbe 7a53 0abe ae18 1ebf 7a88 86bd
00000270: 8e1d c7bd 2083 41be e877 a1bd 2ea4 5cbe
00000280: 4524 c9bd 627e aabe
-0.11866561 -0.04196463 -0.2727745 -0.110303886 -0.11705038 -0.07461749 0.500174 0.043384578
-0.15473752 -0.16629586 -0.13260284 -0.23727487 -0.05379772 -0.23910703 -0.08369821 -0.21816693
-0.2643665 -0.06713768 -0.08595793 -0.024178958 0.3272995 -0.0577284 0.23019165 0.060646787
-0.1285126 -0.2791866 0.17779137 -0.23697068 -0.14171189 0.02216605 -0.14916919 -0.24673486
-0.2683649 -0.29091114 -0.098809615 -0.056717742 0.016941687 -0.09872309 -0.0518066 -0.17931916
-0.01017552 -0.1391871 -0.07748547 -0.04767556 -0.099799275 -0.027658371 -0.13256618 -0.3466605
-0.40819 -0.020200595 -0.15225655 -0.0805878 -0.18424033 -0.13516098 -0.054779705 -0.040016472
-0.5988818 -0.23098585 -0.11330509 0.26187068 -0.04117722 -0.2394104 -0.101143144 -0.16254555
-0.16574062 -0.16359743 -0.1799564 -0.061551355 -0.2102287 -0.035389334 -0.21320839 -0.51661885
-0.11869402 -0.12959424 -0.1925928 -0.16758971 0.18167602 -0.08723003 0.64912635 -0.18648562
0.10852781 -0.06573934 -0.16259411 -0.09643615 0.37121862 -0.053272344 -0.1904209 -0.21972926
-0.17400114 -0.064803906 -0.16180289 0.38372406 -0.08876268 -0.26384628 -0.58797264 0.012355823
-0.10279254 -0.20450442 -0.12249898 -0.62468445 -0.25642753 -0.07299762 -0.15432051 -0.34047255
-0.11694407 -0.13934131 -0.071763195 -0.19575769 -0.054320697 -0.08367907 -0.13915996 -0.016928272
-0.1270992 -0.120434284 -0.22244486 -0.074406736 -0.21073253 -0.11585124 -0.0011921388 -0.25307772
-0.062287048 -0.10401953 -0.18293804 -0.01987054 -0.22317162 -0.1310517 -0.0895108 -0.2235996
-0.022960732 -0.13660833 -0.101876654 -0.1370344 -0.11415284 -0.2863203 -0.13119917 -0.32028025
-0.07584394 -0.30947092 -0.15391903 -0.09568643 -0.08253158 -0.44131497 -0.02299908 -0.13799524
-0.09323293 -0.61394125 0.22942963 -0.11835558 -0.12640586 -0.11390135 -0.18407524 -0.28405005
-0.27298862 -0.13508406 -0.6175641 -0.065689996 -0.09722434 -0.18897676 -0.078841984 -0.21547005
-0.09821371 -0.33299547

l1/W f4 [162, 40]
00000000: d033 3bbe 9bab e6bd 48aa dbbd ad58 1cbe
00000010: 5a7a 6fbe 99b6 adbd c42f 55be 9d52 f9bd
00000020: a781 fd3b 271e f0bd e6d5 9b3f 3a8f c4bc
00000030: ee5b 6c3d e19d 1ebd a7d5 6dbe e94f e53e
00000040: c043 4fbe ddab c2bd 3fd4 eebd a4b3 13be
00000050: dff9 b03d 2997 9ebe a4b2 c4bd a41f e53e
00000060: c528 0a3e 66c4 533e 160e 8dbe f450 14bd
00000070: d7b4 9bbd 2d6e 913e a9b2 98be 99cd f73d
00000080: c9b7 96bd e1a9 7abe 5f19 ef3d cdb7 653d
00000090: b169 15bd fb39 153e d616 b73d 0299 713e
000000a0: 61b4 c3be 53bd a43e 09b0 de3e 42ad 783d
000000b0: 0f50 0bbe 91d8 0a3d e7c0 95be eb2a 20be
000000c0: 230f 6bbe bc9d 2e3d 7fa4 a63e 5d12 b1be
000000d0: 0a22 16bd 4110 1bbe 3e57 223e dfe8 cfbd
000000e0: 2fbb 2fbe 4924 1ebe 797c d43d 4371 9c3b
000000f0: 817a 8f3d a349 1dbe 5d30 edbc 0df6 b4bd
00000100: c4e6 343d 0b67 95bc f30e 8e3e ace7 90bd
00000110: faf9 95bc c02f f7bc a8d8 a3be 74c5 86be
00000120: cd95 543c 35f5 81bd f3cb 7c3e c962 8dbd
00000130: e6dc 89be 7a18 c7be 0465 ccbc 99de 0c3e
00000140: bd1f 7fbe 10ec 8bbd 4ea2 ed3e e44d 80bd
00000150: cd31 6abe a85e 4dbe 6dfb b7be cd57 cdbd
00000160: 7979 26be e2ba 1dbd 5a7f 913e 2ded 3f3c
00000170: 8abb 01bd a3f1 103c 74c8 e1bd ead4 b43d
00000180: d50b 473f 0ca4 7dbe 0c20 663e 168b 8cbe
00000190: c682 49bd 3867 583c 5cce 6f3d 2ffa e03d
000001a0: 0a7c 573e bf56 75be 8361 043e cea9 abbd
000001b0: 1a2e c4bd 1571 a83d e39c 89bb 2718 13be
000001c0: 69f8 c2be f7f0 07be 5127 d43d ee69 b63c
000001d0: 3fdf bc3c 3f56 80be c6f2 a6bd 2fa3 9bbd
000001e0: 8b36 acbd 2861 20be 698a 40bd 0e05 a13c
000001f0: 0a5b 42be b38e 7ebc 338d a43e 25ee 82bd
00000200: 9d3b 893c 4559 bcbe 1031 ccbe 6383 263e
00000210: 3aa0 df3c d5e5 0abe b3c7 78bd 5792 9dbc
00000220: 774d b83c e1e5 b43c c251 423e bb92 f23e
00000230: 8686 8ebd 9672 a03d b431 2c3e 8b51 d63d
00000240: e567 33bd 0708 b2bd ad52 0cbe bf2c 0ebd
00000250: f283 663d 0ab5 2bbe 9991 5e3e fa70 ecbd
00000260: 87e9 edbd 134f b0be be09 ae3d 59ff 6dbe
00000270: cc7a 7c3d 93ee c33c 5b90 45be a2d4 263e
00000280: e6c7 2dbe 1473 b9bc 67a6 64be 6d5a 98bc
00000290: c75f 42be 23f9 d6bd 6b2b 1cbe a87e ffbc
000002a0: 1a31 4abe 555b 7ebe 050a 66bd d699 9bbd
000002b0: 658b 893e 5b0e c93e 741c 2fbe a87c ab3b
000002c0: cdcb 0fbe abc6 89bd 0005 f3bc 6435 adbd
000002d0: 7754 17bd 3f56 c43e 6a8e 2bbe 3e28 09bd
000002e0: 1874 39be b478 1439 0b30 1d3d 506b 85bd
000002f0: 94a9 3fbd 0ca4 d2bc 53ab 78be c8e9 ca3d
00000300: 3ab3 6c3e 0099 533e 10cb cd3d 45a7 b73e
00000310: 9065 9dbe 1652 9d3c be35 c6bd ac7b 7fbc
00000320: 5fc3 4bbe 0d8b 78ba 3591 06be ff48 cabd
00000330: 6b90 86be 5c8b 95bd 6da9 eabd ef07 15bd
00000340: 38d6 023f 1c88 51be 446a 843d 38b0 fcbd
00000350: 66b4 8f3d d17e 89be 02c8 07bd 2dbf 17be
00000360: a182 ecbd a81c d83e e656 f3bd 4151 14bd
00000370: b65d 82be a06e b3be 8f7e bb3d c6ec 473d
00000380: 35e9 293d abda 01bd a558 09be efdc a43d
00000390: 0f99 b7bd 7c2d 0e3e 4a26 333c a5e6 6bbd
000003a0: 759d 19be 9192 5fbe 9b74 65bd 0a3e 9dbd
000003b0: e43a 45bd a6cf 6a3e 6600 f53d 5fcc 0f3d
000003c0: 9786 9f3d 9044 f83d bb2a 773c 3182 2e3c
000003d0: ecd0 eabd 2a98 e5bd 64b9 ff3d 30f4 19be
000003e0: ac05 f8bc 5407 a0be db3a 04be 7fca 553d
000003f0: 927f a5be 0357 1f3f 9859 863c 9f58 efbd
-0.18281484 -0.112632 -0.10725838 -0.15268202 -0.23386517 -0.08482093 -0.20819002 -0.1217396
0.007736403 -0.11724501 1.2174652 -0.023994077 0.05770486 -0.038724784 -0.23226033 0.4478753
-0.20240688 -0.095054366 -0.116615765 -0.14423996 0.08641409 -0.309747 -0.096043855 0.44750702
0.13492115 0.20680389 -0.2754981 -0.036210015 -0.07602852 0.2840437 -0.29823807 0.120997615
-0.07359273 -0.24478866 0.11674761 0.05608349 -0.03647775 0.14572899 0.089399025 0.23593524
-0.38223556 0.32175693 0.4349368 0.060712107 -0.13604759 0.03389794 -0.29248735 -0.15641372
-0.22954993 0.042630896 0.32547376 -0.34584323 -0.036653556 -0.15142919 0.15853593 -0.101518385
-0.17161249 -0.15443529 0.10375304 0.004774244 0.07005788 -0.15360121 -0.028953725 -0.08835993
0.044165388 -0.018237611 0.2774578 -0.07075438 -0.018307675 -0.030174136 -0.32001233 -0.2632252
0.012975168 -0.06345598 0.24687175 -0.069036074 -0.26926345 -0.38885862 -0.024950512 0.1375679
-0.24914451 -0.06832135 0.4641289 -0.062648565 -0.2287056 -0.2005564 -0.3593401 -0.10026512
-0.16257276 -0.038508303 0.28417474 0.011714262 -0.03167299 0.008846673 -0.110245615 0.08829673
0.7775243 -0.2476961 0.22473162 -0.27449864 -0.04919698 0.013208203 0.05854641 0.10985219
0.21043411 -0.23958872 0.12927823 -0.08381997 -0.09579106 0.08224694 -0.0041996106 -0.14364682
-0.38080147 -0.13275515 0.103590615 0.022267308 0.02305567 -0.250658 -0.08151774 -0.07599484
-0.08408841 -0.15662062 -0.047007 0.01965573 -0.18980041 -0.015536952 0.32138976 -0.06393079
0.016752059 -0.36786857 -0.39881182 0.16261058 0.027298082 -0.13564236 -0.060737323 -0.01923482
0.022497876 0.022082271 0.189765 0.4737757 -0.06959252 0.078343555 0.16815835 0.10464772
-0.043800253 -0.08692937 -0.13703413 -0.034710642 0.056278177 -0.1676828 0.21735229 -0.11544986
-0.116168074 -0.3443533 0.08497952 -0.23241939 0.061640546 0.023917472 -0.19293348 0.1629205
-0.16970786 -0.022637881 -0.22329102 -0.018597806 -0.18981849 -0.10496738 -0.15250938 -0.031188324
-0.19745293 -0.24839528 -0.0561619 -0.07597701 0.26864162 0.39268765 -0.17100698 0.005233366
-0.14042588 -0.06727346 -0.02966547 -0.08457449 -0.036945786 0.3834705 -0.16753545 -0.033485644
-0.18110693 0.00014159345 0.038375895 -0.06514609 -0.04679258 -0.02571299 -0.24284105 0.099078715
0.23115245 0.20663834 0.10048497 0.35869804 -0.3074155 0.01920418 -0.09678219 -0.0155934505
-0.19898747 -0.00094811694 -0.1314133 -0.09877204 -0.26282057 -0.07301971 -0.11458097 -0.03638452
0.5110812 -0.20462078 0.06465581 -0.123382986 0.0701683 -0.26854566 -0.033149727 -0.14819022
-0.11548353 0.42209363 -0.11881809 -0.036210302 -0.2546212 -0.35045338 0.091549985 0.04880979
0.04148217 -0.03170268 -0.13412721 0.08049952 -0.089647405 0.13884538 0.010934422 -0.057593007
-0.15001471 -0.21833254 -0.056019407 -0.07677849 -0.048151866 0.22930774 0.119629666 0.035107013
0.07789343 0.12122452 0.015085871 0.010651157 -0.1146563 -0.112106636 0.12486532 -0.15034556
-0.030276142 -0.3125559 -0.12913077 0.05219507 -0.3232389 0.62242144 0.016400144 -0.11686825

l1/b f4 [162]
00000000: 6745 b9be 6415 44bd 5428 c2be 56f3 88bc
00000010: 402f 0cbd ca7e 3fbe 16b9 1cbe 717d aabe
00000020: 440b 14be beae 49be 4aae 75be d111 22be
00000030: f600 343e 543b f43c 8214 8ebe 612b 95be
00000040: 91cd 99bd 7bf6 9dbe b9ff b5be 47e2 3e3c
00000050: ad30 323d 3471 393d 91e6 373c ee36 bfbe
00000060: adc0 cc3d a05b bdbe fafe 19bf ef3d 103f
00000070: da52 d7be 85e1 8cbe 3dd7 603d 2f08 89be
00000080: e00b 61be 47ac b1be 56e7 3abf 444b b1bd
00000090: 4363 21be 5a7a 1e3d 7a61 3ebc 9f16 1bbe
000000a0: 8b6b 973e 9cba adbe 5efe e1be 24d6 e13d
000000b0: a53a 213d 5fce 3d3e 6ba2 4ebe a79a 13be
000000c0: 866f ebbe e202 9abe f602 6abe 62ad 18bd
000000d0: 075f d4bb 4fd8 c2be 5dea 03be 83d4 c13d
000000e0: 4e5d 9bbe c9f6 6abe f0c5 2ebe 1b19 84be
000000f0: bb73 b33c d1b1 a4be 6755 29be 0ea5 4ebe
00000100: f2cd 5f3e 5ceb 833d 774d dcbe 1bc9 403d
00000110: 4415 d03d 351a acbe ea0e 233e e544 9e3e
00000120: dcf4 463d d46d 73bd 7fa8 c3be cedb fc3d
00000130: c22f 81bd 14ad 463e 6977 21bf f05d 30be
00000140: 659b 8cbe 1fd6 55bd e936 1ebf 2433 1cbe
00000150: e18f eabc 078f eabc 6c8a 93bd 74ce 90be
00000160: 5473 8bbe 528d 983d d2af 04bf cf7b b33e
00000170: 89b9 a6bd ba27 bfbe 22b3 59be fafa 77be
00000180: 9353 18bf 8b21 e6bd 0681 37be 8ede 8abe
00000190: ff5d febd ffd3 fabe 7ade 40be e16f 92be
000001a0: d935 0dbf 1baa acbe 8b87 79be 0225 723e
000001b0: c502 dd3c 1222 74bd 1416 3cbf 4461 d6bc
000001c0: 930f c9be 15b2 4ebe 516c 9ebe a455 dfbe
000001d0: cf16 893c 3cf8 ec3d 15fe f33c ec0e 99be
000001e0: b7ce 90be f639 a53d 0ace 243e 0bcb b5bd
000001f0: 4654 acbe e19f 1bbf 3700 75be 55d7 4ebe
00000200: f256 4fbc 9eb7 2b3e 7a7f 16be 68fe adbe
00000210: 96ff 453d 9c5b 223d a4e6 c7be f8c4 84bd
00000220: d645 49be 98fa 50be 5da7 22be cccf 8abe
00000230: 9110 3ebc e05c 233e e973 7cbe d396 3abe
00000240: 7932 05bf 9c41 23bf d381 ebbe 4fa0 8d3e
00000250: 1a44 d03c 4030 01bf a5ec 47bd d061 81be
00000260: 21b1 90bd 9627 debc c179 f3be 2914 7c3d
00000270: 661b a9bd 1c46 01bf bb64 1c3d a8f5 35bd
00000280: 10fb 843d 5be6 11bf
-0.36185762 -0.047871962 -0.37921393 -0.016717594 -0.03422475 -0.1870071 -0.1530498 -0.3329883
-0.14457422 -0.19695565 -0.23992267 -0.15827109 0.17578492 0.029813446 -0.2775002 -0.29134658
-0.07509912 -0.30852112 -0.35546663 0.011650628 0.043503452 0.045273975 0.011224405 -0.37346596
0.099976875 -0.36983967 -0.6015469 0.56344503 -0.42055398 -0.27515808 0.054892767 -0.26764056
-0.21977186 -0.3470175 -0.7300924 -0.08656934 -0.15760522 0.038690902 -0.01161992 -0.15145348
0.29574236 -0.33931434 -0.4413938 0.11027172 0.03936257 0.18535756 -0.20179145 -0.14414464
-0.45983523 -0.30080324 -0.22852692 -0.037274726 -0.0064810547 -0.38055655 -0.12882371 0.094643615
-0.30344623 -0.22945704 -0.17067695 -0.25800404 0.02190577 -0.32166913 -0.16536485 -0.20180151
0.21855906 0.064413756 -0.4302785 0.04706679 0.10160306 -0.33613744 0.15923658 0.30911937
0.04857336 -0.059430912 -0.3821449 0.12346612 -0.06307937 0.19401962 -0.6307283 -0.17223334
-0.27462307 -0.052206155 -0.61802536 -0.15253884 -0.02863306 -0.028632654 -0.07204136 -0.2828251
-0.27236426 0.0744883 -0.5183078 0.35055396 -0.08140857 -0.37334996 -0.2125974 -0.24216834
-0.59502524 -0.112368666 -0.17920312 -0.2712292 -0.12420272 -0.48989865 -0.18834868 -0.28600982
-0.5516029 -0.3372353 -0.24368112 0.2364693 0.02697886 -0.059602804 -0.7347119 -0.026169427
-0.39269695 -0.2018512 -0.30942014 -0.43620026 0.016734509 0.115707844 0.029784242 -0.29894197
-0.2828271 0.08067696 0.16094223 -0.08876618 -0.33658046 -0.6079083 -0.23925863 -0.2019933
-0.012655007 0.16769263 -0.14697066 -0.3398316 0.04833945 0.039638147 -0.39043152 -0.06482881
-0.19655547 -0.20408094 -0.15884157 -0.2711166 -0.011600629 0.15953398 -0.24653591 -0.18221597
-0.5203014 -0.63771987 -0.45997486 0.27661368 0.025423098 -0.5046425 -0.048809666 -0.25269938
-0.07065035 -0.027118485 -0.47553828 0.061542664 -0.08257179 -0.50497603 0.038182 -0.04442373
0.06493199 -0.5699212

l2/W f4 [162, 162]
00000000: c0c5 143e 1fb6 263e deb8 6d3d 1fac c73d
00000010: 7e1e bf3d 87f1 973d 0b77 173e 428a cfbd
00000020: 749c d53d 7ac1 913d 2a8c a8bd 26e8 10bc
00000030: a44f a1bc 23df d3bd 5ae5 b0bd de4d e23d
00000040: 1c7c 90bc 5f04 7e3d 282b 133d 6424 dabc
00000050: 70b6 89bd 41f3 f73d 296c 493e 2d03 de3d
00000060: fadd 5d3e 4bc2 4d3e e22d 1b3a 9c22 ccbc
00000070: 8ffa 1ebd 970f eb3c 1458 003e 5380 0bbe
00000080: 180b 1d3e 462d a93d 795b cd3d 792f 9d3d
00000090: b39f 943d 2a73 c63d f711 8bbc fc97 d33b
000000a0: a953 6c3d c975 783d a0c0 d03d fcf2 aebd
000000b0: ad3c c43c 5a78 a4bd d259 c53d ff7b 82bc
000000c0: 983f f93c e243 803d e74d a13c 50e4 d43d
000000d0: 104d 0c3d a55f e2bd 77e5 13bc 415b 1a3e
000000e0: 484e e53d b836 f83c c21b b6bc f429 98be
000000f0: 68a6 9abc 16d1 e5bc f443 c43d c3bf 623d
00000100: 357e 9cbd 6a4c a53d ee2e a43b ac6c e63d
00000110: 3646 5f3d 4434 97bd dd72 a4bd 0a1c 41be
00000120: c5ef 833d 839d d43d 35b5 773d e001 5f3c
00000130: 0644 a8bd 9e33 7d3d 0439 de3d 4c4e 273d
00000140: 1ad8 b13d 7d4e e3bc d8b1 fa3d 373e b23d
00000150: 9a7e 053d 08d3 0f3d 9ffc b5bd ed10 09bd
00000160: c17e 7dbd 0e5c 083e a266 ebbc 93b3 19bd
00000170: b04d b9bd 3ff6 613d c4a3 04bd 2ff5 4c3d
00000180: e365 263e 3cf3 9d3a deb0 fd3d 68e1 7fbd
00000190: e8bd 733d 5108 8cbb 597c 013e e42c a9bd
000001a0: 57ee 1b3e 7e42 c83d 3d17 c6bd 14ef aa3d
000001b0: dd16 bdbc 911c 1bbe 8421 963d d51b a7bd
000001c0: a6b0 7ebd b279 de3c 4417 d63b fd09 98bc
000001d0: f7f4 fc3d c681 933d 579d c53d 05f9 593b
000001e0: e0e7 ad3d bd7b 0b3e 016d ddbc 242d cabd
000001f0: c6c9 de3b dc1e fbbc 8ab1 91bd 459c 4b3d
00000200: 4663 b83d 64a5 3d3d 2fb1 47be a046 43bd
00000210: 764e db3d d84d 1cbd de0a 0c3c 7cc1 2a3c
00000220: 0466 cb3d bc81 eabd aba5 29bd ee7b bd3d
00000230: a995 2c3e e1eb b83d eb7c ef3c 0d4c 8b3d
00000240: e7ec 8dbd 8b3b 2bbe c84f 8e3d 9dfb acbd
00000250: e6ef 40be b18b 093c 7efa 77bd 8d20 7abc
00000260: 6ef0 f83d 7ddf 3d3e 7382 40be 68b4 d7bb
00000270: 968f ab3d 4e62 753d 9404 f6bc af78 0fbe
00000280: 9b4a 06bc 1f6d 01bd 3879 4c3e 923b 80ba
00000290: b9bb 41bc 3241 433d d386 1bbe 3e81 3ebd
000002a0: 33a5 afbd 0456 443d e6d3 193c 5ca2 b73d
000002b0: 8d31 b8bc 6806 d63d f27c 463d e71e bebd
000002c0: 995c bcbd eab1 3e3d cd23 a8bd a3d2 0c3d
000002d0: cdb2 0c3d 94c8 4c3d fea7 b23d cc40 21bc
000002e0: c353 843c 5d22 06bd 31a8 b6bd 6f8c 633d
000002f0: 5d9d 663c 5105 5abc 747c 15bd 3478 d93c
00000300: c965 d63c 9c7d 273b 885d 3e3d 16c4 2c3d
00000310: c98c 043d baab 0d3d bcc5 093d 3ef7 a53e
00000320: 47e5 b23c 4c7e d13d 0006 c53c 02bc 313d
00000330: f068 dabd 4752 083e ed6a 0f3e 434e 453e
00000340: 5c48 033d cff2 46bd e3a5 dbbb f835 94bc
00000350: 4785 5e3d 3609 0dbd 2179 203e 381b ee3d
00000360: 73bc 0d3d 7496 d5bc 7c59 713d 9b0f db3d
00000370: 1b6b 1a3d 4d53 2b3e 8354 b73c 44f7 2cbe
00000380: 4f8a fa3d 2cfb 62be a6d7 1abe df01 37bd
00000390: 90d5 e63d 87d8 c43d 926d b5bd e9db 99bb
000003a0: 293b 89bc 192d a8bd b7a9 cd3d 3b8b 873d
000003b0: e292 74bd e5f3 bcbb e122 9f3c 6c41 943c
000003c0: 038c 7f3d f853 a2bd 43a9 ebbd 414b 1bbe
000003d0: e718 2bbd db6a 923d d04a 8b3d 5da3 d83d
000003e0: f1b3 e33d 53f6 82bd 465f c2bd bdf8 9ebd
000003f0: 39f0 5e3d ef65 26bd 17b2 fb3c 3391 8d3d
0.1452856 0.16280411 0.05803763 0.09749626 0.09331988 0.074191146 0.14791505 -0.101337925
0.10430232 0.07116981 -0.08229859 -0.008844411 -0.019691296 -0.10345294 -0.08637495 0.11050008
-0.017637305 0.062015887 0.03592983 -0.02662868 -0.0672425 0.12106944 0.19670166 0.108404495
0.21666709 0.20093648 0.0005919618 -0.024918847 -0.03881317 0.028693957 0.12533599 -0.1362317
0.15336263 0.08260588 0.10027213 0.0767507 0.07257023 0.096899346 -0.01697634 0.006457327
0.057696972 0.060659204 0.1019299 -0.08542439 0.023954714 -0.08030768 0.096362725 -0.015928267
0.030425832 0.062629476 0.019690467 0.1039511 0.03425318 -0.11053399 -0.009026877 0.15073873
0.111965716 0.03029953 -0.022230033 -0.29719508 -0.018878177 -0.028053802 0.095832735 0.05535866
-0.076412596 0.080712155 0.0050104773 0.11251196 0.054510318 -0.07383016 -0.08029721 -0.18858352
0.06442217 0.103816055 0.060475547 0.013611287 -0.082160994 0.061816804 0.108507186 0.040846154
0.08683796 -0.027747387 0.12240952 0.08703273 0.03259144 0.035113364 -0.08886074 -0.033463407
-0.06188846 0.13316366 -0.028735463 -0.03752477 -0.09048021 0.05516648 -0.03238274 0.050038513
0.16249804 0.0012050639 0.1238725 -0.062470824 0.05950728 -0.0042734523 0.12645091 -0.08260515
0.15227638 0.097783074 -0.09672401 0.08346382 -0.023082191 -0.15147616 0.07330611 -0.081596054
-0.062180184 0.027157638 0.006533535 -0.01855945 0.12351411 0.07202487 0.09649151 0.003326
0.08491492 0.13621421 -0.027029516 -0.09871891 0.0067989556 -0.030654363 -0.07113941 0.049709577
0.0900331 0.046300307 -0.19501184 -0.047674775 0.107083246 -0.038160175 0.008547513 0.010422107
0.09931567 -0.11450526 -0.04141776 0.09252153 0.16853966 0.09029365 0.02923437 0.06801615
-0.06929951 -0.16721933 0.06948811 -0.08446429 -0.18841514 0.008395121 -0.060541622 -0.01526655
0.12155233 0.18542285 -0.18799762 -0.0065827854 0.08376996 0.059908204 -0.03003148 -0.14010881
-0.008196498 -0.031598207 0.19968116 -0.0009783378 -0.011824542 0.047669597 -0.1518815 -0.046509974
-0.08576431 0.047933593 0.009388899 0.089665145 -0.022484565 0.10450441 0.048459 -0.09283238
-0.09197349 0.04655639 -0.082099535 0.034380566 0.034350205 0.049995974 0.08723448 -0.009842109
0.016153222 -0.032747615 -0.08918799 0.05555385 0.014075604 -0.013306932 -0.03649564 0.026546575
0.026171582 0.0025557047 0.046475917 0.04217919 0.032360826 0.0345876 0.03363584 0.32415193
0.021837844 0.10229167 0.024050713 0.04339219 -0.106645465 0.13312636 0.14005633 0.19268136
0.03205143 -0.048571404 -0.006703125 -0.01809214 0.054326322 -0.034432612 0.15671207 0.11626285
0.034603547 -0.026072718 0.05892323 0.10696336 0.0376998 0.16730995 0.022379166 -0.168912
0.122334115 -0.22166127 -0.15121326 -0.04467952 0.112712026 0.09611612 -0.088587895 -0.004695405
-0.016751843 -0.08211727 0.10042136 0.06618353 -0.05971039 -0.005766379 0.019425811 0.018097602
0.062389385 -0.07926172 -0.115068935 -0.15165426 -0.041771796 0.07149287 0.06801379 0.10578034
0.111183055 -0.06394639 -0.09490828 -0.07762287 0.054428313 -0.040624555 0.030724568 0.0691246

l2/b f4 [162]
00000000: d095 8a3d 5a73 47be 9058 49be 943b 01be
00000010: 3a20 45be 95a8 68bd 3002 933e 2248 82bf
00000020: 63cc 8bbe 54ed 17be 47f4 8cbe 1bba 57be
00000030: 13b5 a8be 98bb 4abe f197 82be 810d bcbd
00000040: fedc 6dbd 05d5 9cbe 505b 93be 8ee9 f8be
00000050: 1a5e 1abe 5d6e d3bd fee0 10bd 0379 3fbe
00000060: 129b 673c 7eae 81be 8865 23bf 3c02 b4be
00000070: 6496 24be 044a 3d3e e381 00be 2c6a 15bf
00000080: 7663 eabe 70fe cdbe eedd c7be 0397 3ebe
00000090: ed1f 60be 6841 aebe e000 fa3e 69de 0a3d
000000a0: cfc7 b0be 1b72 0ebf cacf 07be e997 6f3c
000000b0: bb66 0c3f 47ae afbe 556e b2be 469e 42be
000000c0: 1e89 c3be c6a9 07bf c831 663b 888a a0be
000000d0: 265b 4dbf a234 7abd 8e2a 923d d265 9bbd
000000e0: b919 9dbe aeae a0be de36 23be 2860 47be
000000f0: f15f 413c 86ce 54bf e932 1abe 98a2 adbe
00000100: 83ff 8fbe fc6e 1abf ed5f c0be a304 9abe
00000110: edcb 95be a45b 17bf 7803 6abe a0c9 6dbe
00000120: df6e 17be 03f6 90be e910 813d 193f 17bd
00000130: 4576 9ebe 7a3f 6abe c9ee 90be 30b2 c9bd
00000140: 79d5 03bf bbd1 60be fe3f 14bf 27b3 5bbd
00000150: f7ea 95be b845 d4be 3e20 10bf afd6 5abe
00000160: 382a ddbd d080 08bf 9119 02be 0d96 32be
00000170: e555 26be d996 57bd 849c d4be 2adf a4be
00000180: 0ba2 04be 11cb 85be fce9 efbe f89c cdbd
00000190: b74a 61be f283 f6bd 11d3 b5be 52c8 31be
000001a0: e577 e33c ef09 f2bd 7bc5 fbbd 7ceb 80be
000001b0: 8a80 bcbe c152 bfbe 32b2 16bc 54ba ecbd
000001c0: 0675 04be 01b9 adbe 5e6c ecbe c2f2 fbbe
000001d0: 0bc1 53be 53d2 d1bd 7440 5cbe f08e b3bd
000001e0: edee 97be a46c 87be c899 90be 69e6 17be
000001f0: 45d5 02bf 9ec9 febd 94ba a2be 3364 bbbd
00000200: 8932 333d c815 6fbc 38f5 7ebe 8cdf babe
00000210: 4def 0ebe 7298 a5be 4ea6 0bbf a52f 91be
00000220: 0458 adbd 6658 11be 607d c33d 607a 81be
00000230: 8d5d f83d f2b3 44be b819 34be b800 4abe
00000240: da39 37bf c8f8 f4bd c38c 77be 0ea9 f2be
00000250: b91b 0bbf cfe1 9abe c3b6 49be 1708 bf3d
00000260: f72a 48be 938a 96be 94b1 5fbe a8f6 58be
00000270: 5659 b33e a4d5 abbe 05f8 cbbe f6a5 c9be
00000280: 6ba8 aabe 50be 48bd
0.06766856 -0.19477597 -0.1966269 -0.12620384 -0.19250575 -0.056801397 0.28712606 -1.0178263
-0.27304372 -0.14836627 -0.2753012 -0.21067087 -0.3295065 -0.19798124 -0.25506547 -0.09182263
-0.058072083 -0.3063127 -0.28780603 -0.48615688 -0.1507496 -0.103237845 -0.03537082 -0.18698506
0.014136093 -0.2532844 -0.638268 -0.35157955 -0.16072994 0.18485266 -0.12549548 -0.5836513
-0.45779008 -0.40233183 -0.39036506 -0.18612294 -0.21887179 -0.34034276 0.48828793 0.033903513
-0.34527442 -0.5564286 -0.13262859 0.014623621 0.54844254 -0.3431265 -0.34849802 -0.19005689
-0.3819055 -0.5299343 0.0035124887 -0.3135569 -0.80217206 -0.06108535 0.07137023 -0.0758778
-0.30683687 -0.3138327 -0.15938899 -0.19470274 0.011802659 -0.8312763 -0.15058483 -0.33913112
-0.28124627 -0.603256 -0.37573186 -0.30081663 -0.29257146 -0.5912421 -0.22852886 -0.23221445
-0.14788388 -0.28312692 0.063020535 -0.03692541 -0.30949607 -0.22875777 -0.2830718 -0.0984844
-0.5149761 -0.21955006 -0.57910144 -0.05363765 -0.29280826 -0.4145944 -0.562992 -0.21370958
-0.10799068 -0.5332155 -0.12705065 -0.17440052 -0.16243704 -0.052634094 -0.41525662 -0.3220151
-0.1295244 -0.2613149 -0.46858203 -0.10039705 -0.22001158 -0.12036885 -0.35512593 -0.17361572
0.027767131 -0.11818301 -0.12293526 -0.2517966 -0.36816818 -0.37367824 -0.0091977585 -0.11558977
-0.12935266 -0.3393021 -0.46176428 -0.49208647 -0.20679109 -0.10245194 -0.21508962 -0.087674975
-0.29674473 -0.26450074 -0.28242326 -0.14833988 -0.51106673 -0.12440799 -0.31782973 -0.09149971
0.043749366 -0.014592595 -0.24898231 -0.36498678 -0.13958474 -0.3234287 -0.54550636 -0.28356662
-0.08464053 -0.14193878 0.09545398 -0.25288677 0.121272184 -0.19209269 -0.17587936 -0.19726837
-0.7157265 -0.11961514 -0.2417479 -0.47394603 -0.54339176 -0.30250403 -0.19698624 0.09327715
-0.1954764 -0.294026 -0.21845084 -0.21187842 0.35029095 -0.33561432 -0.3983766 -0.3938443
-0.33331618 -0.04900962

l4/W f4 [4, 162]
00000000: bfef 8f3c 8494 763e 1715 c3bd a948 643d
00000010: f9b2 1c3e 4e55 d23d a7bb 1e3b dbca 38bc
00000020: 1599 7fbd c433 913d 8f4f 48be 1a45 91bc
00000030: 6de2 8ebb fcff c9bd 4b1f 293c b486 cfba
00000040: 3b78 d73e da81 96be 6a30 383e bd1d 473e
00000050: 2201 253c bb0f bc3d e12b 5cbc d0cc 24be
00000060: ee30 223e 3076 993d 5752 6cbd 42b6 f8bc
00000070: dd6f 193e 5532 293e e928 1f3b d307 c23e
00000080: 8bf0 473e 663d 933c 87fc bd3c 67ec 98bc
00000090: dd05 793d c5fc a03d cbcf 0b3e 30a2 b8be
000000a0: e28d 86be ea25 523e 666f a63d a8ee 283d
000000b0: 20dc edbd bbe1 c83d 403e 833d dd5e 903d
000000c0: 1e38 183f 7abb 8a3d c9d8 6cbb d21a 3ebf
000000d0: b426 783d bd85 a03d 81ee 2e3d c3e3 6f3d
000000e0: 5d5b 85bd 6a80 a43e 28f2 d73d 56c0 f73e
000000f0: 8312 71be 29de b73c 6b8a a83d c28f e53d
00000100: 0984 dd3b 7ae3 163e 31b0 a4bd 7c46 ffbd
00000110: cb6e 293d 0820 96bd 6ee4 983e c92f 20bd
00000120: 30ea f33d acf8 6f3e 452e 903e 8864 483d
00000130: ae2a a83c f2e1 f0bd 2e0a 543c e8fb a33c
00000140: 80d7 8a3e 256a 4a3d ffd8 193e fbfa 43bd
00000150: 6a91 5d3f 4db9 90bd 212d d8be eba6 643d
00000160: 025f 853d ff11 273d 36a4 673d 3874 703d
00000170: ba20 8ebd ae65 0d3f 223c 2cbd 7f49 6abe
00000180: d181 b2be d8e3 77bd 47b8 873c e106 79bd
00000190: ca24 bfbd c080 073b 6781 c03d 9539 ccbd
000001a0: 5d00 02be 4379 8e3e c90f 933d b3a6 c53d
000001b0: 4b5a f2be 5250 92be b648 24be 0ab5 3ebe
000001c0: aeae 9b3d d85a 5dbd a639 32bd 027f e4be
000001d0: 4f88 283e 46c5 793b 0042 563d 739c 3a3e
000001e0: 13e1 f0bd e4fd a33c 61a1 4ebc c0ad 92be
000001f0: 838a 013e acee ab3c 22a1 4b3e 9c40 953e
00000200: 7b92 7e3e 1d5b e4bb 3a5c e1be 623f 033e
00000210: ede4 243e 8873 a33d 5c5f 093e 3821 a6bd
00000220: c979 1cbe 7173 bf3e 9cb5 503e 207b 9a3d
00000230: d56c 573e 35f9 563d 1b78 18be ae64 04bd
00000240: 8aa9 a8bd 88ae 9f3d 5785 303e 8e11 ffbd
00000250: 75c4 8a3d 28c8 3dbd 5b89 8abd 2acd 7b3e
00000260: 231b 013f da5e 95be 5e61 843f 955b 60bf
00000270: b751 a53e 6216 9f3d 8e3f 173d c1e2 1c3e
00000280: cf65 d33d 6684 023e fe18 eabd 66eb d3bd
00000290: d44d d1bd f9cc 15bd 8c02 833e b70d 8dbd
000002a0: a224 c1bd 501b 43bd fcc1 623d 65be 95be
000002b0: e882 aa3e 4742 c63d 8acc e93d b886 58bd
000002c0: afe0 1bbe 3351 2cbe 453c 94be b6ad 8539
000002d0: 6d91 22be a65b 87bd 7ff4 5fbd ca23 f53b
000002e0: 52ab c8bd 03eb 5cbe afc7 823e 524b 8d3d
000002f0: 7bac 1bbe a311 7b3d c5e5 e13b bd1d 6c3d
00000300: 64a2 16ba a384 01bf 6719 20bf d187 513d
00000310: 2221 38bd 7119 37bd 0e50 ce3d 4483 11be
00000320: e48d 91be 0ea3 d83e 1e95 913e 7d31 f63d
00000330: f16a 5abd b4d6 8c3c 4a89 3ebd ecbf ff3c
00000340: dd29 4b3d affe 02be 0f09 9a3e a769 29be
00000350: 6b26 00be 0320 833e 8d19 35be d628 4cbe
00000360: f342 b63d 3e61 393d f7c0 4a3b 992c 6abd
00000370: b9cb ccbd a956 db3e beeb 6bbd 5743 3bbd
00000380: 50e2 50be 5dbe b43d bf13 ab3c cb00 89be
00000390: 7a0c cbbb 92fb 01be b734 683d 222e 3ebe
000003a0: 655f 75be f3a6 6cbc 56bb 573d 66a1 8c3d
000003b0: c735 54be b9b3 7b3a 8022 3cbd 9de9 4bbe
000003c0: 99e3 383d 6094 1e3d 5a74 12bc 4bfe 6f3d
000003d0: 95bc 04be db80 0f3e e83f cc3e a27d 1a3d
000003e0: 9dda 5b3e 5890 963d 46d9 9e3d 8514 a03c
000003f0: 704c a73d 6867 803c f835 1ebc f51f 9fbe
0.017570375 0.24080092 -0.09525507 0.055733357 0.15302648 0.10270177 0.0024220736 -0.011278833
-0.06240185 0.07089952 -0.19561599 -0.017733146 -0.004360488 -0.09863278 0.010322402 -0.0015832991
0.42083916 -0.29395944 0.17987218 0.19444938 0.010071071 0.09182688 -0.013438196 -0.16093755
0.15838978 0.074932456 -0.057695713 -0.030360345 0.14984079 0.16523106 0.002428586 0.37896594
0.19525354 0.017973613 0.023191703 -0.018667413 0.060796607 0.07860712 0.13653485 -0.3606124
-0.26280123 0.20522276 0.08126716 0.041243225 -0.11614251 0.0980868 0.064083576 0.07049344
0.5946063 0.067740396 -0.0036139956 -0.74259675 0.060583785 0.078380086 0.042707924 0.05856682
-0.06511567 0.32129222 0.105442345 0.48388928 -0.23542218 0.022444801 0.08229526 0.1120906
0.0067601246 0.14735213 -0.08041418 -0.12464616 0.041365426 -0.07330328 0.29861778 -0.03910807
0.11909902 0.23434705 0.281603 0.048924 0.020528164 -0.11761846 0.01294188 0.02001758
0.27117538 0.049417634 0.15024184 -0.047846776 0.8655001 -0.07066593 -0.4222193 0.055823248
0.06512262 0.040788647 0.056553088 0.058704585 -0.06939836 0.55233276 -0.042049535 -0.22879599
-0.34864667 -0.060520023 0.016567362 -0.060797576 -0.09333189 0.0020676106 0.093996815 -0.099719204
-0.12695451 0.2782689 0.07180745 0.09650936 -0.47334513 -0.28576905 -0.16043362 -0.18623748
0.07601677 -0.054041713 -0.04351201 -0.4462815 0.16458248 0.003811197 0.052309036 0.18223743
-0.117616795 0.020018525 -0.012611718 -0.28648186 0.12650494 0.020987831 0.19885686 0.29150856
0.24860565 -0.0069688694 -0.44015676 0.12817147 0.16102953 0.0798102 0.13415283 -0.08111805
-0.15280832 0.37392762 0.20381778 0.075430155 0.2103761 0.052483756 -0.14889567 -0.032322578
-0.08235462 0.07796961 0.17238365 -0.1245452 0.067757525 -0.046333462 -0.0676448 0.24589983
0.5043203 -0.29173928 1.0342214 -0.87639743 0.32288906 0.07767941 0.036925845 0.15320875
0.10322153 0.12745818 -0.11430548 -0.10347633 -0.10219923 -0.03657243 0.2558788 -0.068873815
-0.09430815 -0.04763347 0.05536078 -0.29246822 0.33303 0.0968061 0.11415966 -0.052862853
-0.15222429 -0.1682785 -0.28952232 0.00025497162 -0.15875788 -0.066092774 -0.05467653 0.007481073
-0.09798302 -0.21574025 0.25542971 0.06899132 -0.15202515 0.061296117 0.0068938457 0.057645548
-0.0005746244 -0.5059301 -0.6253876 0.051154915 -0.044953473 -0.044701997 0.10073863 -0.1421023
-0.28428566 0.423119 0.2843408 0.12021158 -0.053324644 0.017192222 -0.046517648 0.031219445
0.04960047 -0.12792467 0.30085036 -0.1654421 -0.12514655 0.2561036 -0.17685528 -0.19937453
0.08899488 0.045258753 0.003093777 -0.057171438 -0.099997945 0.42839554 -0.05759787 -0.045718517
-0.20398831 0.088253714 0.02088344 -0.26758417 -0.0061965557 -0.12693623 0.056690898 -0.18572286
-0.23962171 -0.014444101 0.05266889 0.06866722 -0.2072364 0.0009601671 -0.04593134 -0.19913335
0.04513893 0.03871572 -0.008938873 0.058592122 -0.12962563 0.14013998 0.39892507 0.03771747
0.21470113 0.0735175 0.07756285 0.019541034 0.08168876 0.015674308 -0.009656422 -0.3107907

l4/b f4 [4]
00000000: 7657 9cbd 9816 593e 76b7 57bf 22b4 4dbe
-0.07633869 0.21200025 -0.84264314 -0.20088246
