model2.npz (npz, 224590 bytes, 8 tensors)

l3/W f4 [162, 162]
0	0x3d345c29	0.044033203
1	0x3c941238	0.018075094
2	0x3e070cf3	0.13188533
3	0x3bf39557	0.007433574
4	0x3c8be73e	0.017078038
5	0x3deb9407	0.11502843
6	0x3c27cd37	0.010241798
7	0xbcbffe5d	-0.02343672
8	0xbd53c8b9	-0.051705096
9	0xbd67bae3	-0.056574713
10	0x3dc282a8	0.09497577
11	0x3d9cb96c	0.07652554
12	0x3c6fc6d6	0.0146348085
13	0x3da058f5	0.07829467
14	0x3cb19864	0.02167911
15	0xbd5c9203	-0.053850185
16	0xbdb36f75	-0.08761493
17	0xbd44b94c	-0.048028275
18	0xbda130af	-0.07870614
19	0x3c2ba501	0.010476352
20	0xbcbee954	-0.023304619
21	0x3d5939c2	0.053033598
22	0x3d00ff53	0.031493496
23	0x3d441fc2	0.04788185
24	0x3d11e930	0.035622776
25	0x3ba335d9	0.0049807844
26	0xbdf46079	-0.11932463
27	0x3d87b20a	0.06625755
28	0xbd605f1a	-0.054778196
29	0xbb9d2e05	-0.0047967457
30	0x3baaf889	0.005217616
31	0xbd3c2ff1	-0.045944158
32	0xbdda9bdf	-0.10674261
33	0xbc995e92	-0.018721852
34	0x3d053b04	0.032526985
35	0xbe3b9252	-0.18317536
36	0x3e1f1893	0.15536718
37	0x3d849ea3	0.0647557
38	0x3dd0e3f5	0.10199729
39	0xbd716b6d	-0.05894034
40	0xbc3fb886	-0.011701709
41	0x3dd26ebf	0.102750294
42	0x3e009e22	0.12560323
43	0x3d468ca2	0.04847396
44	0xbe20f8cf	-0.15719913
45	0xbccfc447	-0.025362147
46	0xbce94f60	-0.028480232
47	0x3c6ee3ac	0.014580648
48	0xbd06924f	-0.032854374
49	0x3dd52c8a	0.10408886
50	0x3e262a8f	0.16227172
51	0x3e0ab990	0.13547349
52	0x3ca32bce	0.019918349
53	0x3e1721b5	0.14758952
54	0x3d6b4d43	0.05744673
55	0x3cc34f57	0.023841543
56	0xbd27b8b4	-0.04094763
57	0x3d8f9d4a	0.070124224
58	0xbdc77780	-0.0973959
59	0xbd1f4120	-0.038880467
60	0xbcc09e70	-0.023513049
61	0xbdb456a8	-0.08805591
62	0x3da5a1a8	0.08087474
63	0xbcfa1bff	-0.030530928
64	0x3c6d67cc	0.014490079
65	0x3df81ff4	0.121154696
66	0xbb7348d3	-0.0037122264
67	0xbd780df5	-0.060560185
68	0xbc2d5631	-0.010579632
69	0x3d99e51d	0.07514403
70	0x3bbafd9d	0.0057065026
71	0xbd32f269	-0.04368821
72	0x3ba68ddb	0.0050828285
73	0xbc6a605e	-0.014305202
74	0xbdea280f	-0.11433422
75	0x3cf7b25b	0.030236414
76	0x3c1aa28f	0.009438171
77	0x3caebb3a	0.021329511
78	0xbdf87c49	-0.121330805
79	0x3c72d5e0	0.0148215
80	0xbdda9a48	-0.10673958
81	0xbd868956	-0.065691635
82	0xbd9f1187	-0.07767015
83	0xbdaef103	-0.08542063
84	0xbd9df159	-0.07712049
85	0x3c2a87cf	0.010408356
86	0x3d8c3a4f	0.06847059
87	0x3e6601da	0.22461644
88	0xbdd53a06	-0.10411458
89	0x3e41acf8	0.18913639
90	0x3dab26f8	0.08357042
91	0x3d68ad96	0.05680617
92	0xbccb7ab8	-0.02483879
93	0xbdeb956e	-0.11503111
94	0x3c85b552	0.016321812
95	0x3dad5c4a	0.08464868
96	0xbdafa8ff	-0.08577155
97	0x3c394387	0.011307604
98	0xbe19d7a7	-0.15023671
99	0x3d605adc	0.05477415
100	0x3c2fd9bc	0.010733064
101	0xbe0fc6a4	-0.14040619
102	0x3d9634f8	0.07334322
103	0x3bec4972	0.007210904
104	0x3d3762ed	0.044772077
105	0x3da30559	0.07960004
106	0xbe6221b8	-0.22083175
107	0x3b98ee88	0.004667107
108	0xbdc3bea6	-0.09557848
109	0xbd989f46	-0.07452254
110	0xbc3b2e5b	-0.011424626
111	0x3c0ac2f4	0.008469332
112	0xbd875706	-0.06608395
113	0xbc963422	-0.018335406
114	0xbdb97506	-0.090555236
115	0xbc0bde48	-0.008536883
116	0xbd4da6aa	-0.05020777
117	0xbd197b7a	-0.037471272
118	0x3c9838f4	0.018581845
119	0xbd8562e3	-0.06513002
120	0xbcaf013c	-0.021362893
121	0xbdc61e03	-0.09673693
122	0xbd9ed71a	-0.07755871
123	0xbcc80e86	-0.024420988
124	0x3cf4640d	0.029832864
125	0xbdf27320	-0.118383646
126	0xbcff8575	-0.031191567
127	0xbd67a943	-0.056557905
128	0xbda96fbc	-0.08273265
129	0x3d5b21f1	0.053499166
130	0x3d24984d	0.040184308
131	0x3db00639	0.08594937
132	0x3d78d2be	0.060747854
133	0x3dae53bb	0.08512064
134	0xbd8650ca	-0.06558378
135	0xbe1047e5	-0.14089926
136	0x3dc76e04	0.09737781
137	0x3d427761	0.04747713
138	0xbd3edbb2	-0.046596237
139	0xbd7bed97	-0.06150588
140	0x3e07571a	0.1321682
141	0xbcde87df	-0.027164398
142	0xbdb5157d	-0.08841989
143	0x3e1158ef	0.14194082
144	0xbd273276	-0.040819608
145	0xba4a58b4	-0.0007718906
146	0x3cd92e9d	0.026511485
147	0xbe208d52	-0.1567891
148	0x3e29bd3f	0.16576098
149	0x3c40a314	0.011757631
150	0xbe01133a	-0.1260499
151	0xbd81b4ca	-0.06333311
152	0xbe0b5c93	-0.13609533
153	0xbd22e93c	-0.03977321
154	0xbe6b4083	-0.22973828
155	0xbb8e980e	-0.0043516224
156	0xbd918954	-0.071062714
157	0x3cd373ba	0.025812019
158	0xbde2ea16	-0.110798046
159	0xbe885b36	-0.26632088
160	0x3e1afa1f	0.15134476
161	0xbd80bc29	-0.06285889
162	0xbd3fa7b4	-0.046790794
163	0xbdef13c3	-0.11673691
164	0xbc13588c	-0.008993279
165	0xbc1c4cee	-0.009539826
166	0xbdb2e51d	-0.08735106
167	0x3d81178b	0.063033186
168	0xbd95cb02	-0.07314111
169	0xbd005d94	-0.031339243
170	0x3d7d13d0	0.061786473
171	0xbca6608e	-0.020309713
172	0x3d920691	0.07130159
173	0xbda71725	-0.08158711
174	0x3d0b066f	0.033941682
175	0x3de7a656	0.11311023
176	0x3c55e4de	0.0130550545
177	0xbd32448c	-0.043522403
178	0x3de4d876	0.11174099
179	0xbadfe3bd	-0.0017081421
180	0x3e148dac	0.14507169
181	0xbce44d11	-0.02786878
182	0xbd28164c	-0.04103689
183	0xbd51f2e7	-0.05125704
184	0x3d88c8f2	0.06678952
185	0xbe0940a7	-0.13403569
186	0xbdb3005c	-0.08740303
187	0x3e1fceb5	0.15606196
188	0xbcf23638	-0.02956687
189	0x3c8c8a95	0.017155925
190	0xbd03d7b9	-0.03218815
191	0x3e0b3f85	0.1359845
192	0xbce7b6da	-0.028285433
193	0xbdc1746c	-0.09446034
194	0xbdf2f019	-0.11862201
195	0xb9bdc148	-0.00036192895
196	0xbd2b1cee	-0.041775636
197	0xbbafba0f	-0.005362756
198	0x3dc2441d	0.09485648
199	0xbdc259af	-0.09489762
200	0x3d81fcb6	0.06347029
201	0x3d964f8b	0.0733939
202	0x3d1dabb9	0.038493846
203	0x3d6cf350	0.05784923
204	0x3dc9da4e	0.098560914
205	0xbd94d0e3	-0.072664045
206	0x3ba7bc99	0.005118918
207	0x3da53a42	0.080677524
208	0xbe23095e	-0.15921542
209	0xbd8b0577	-0.06788152
210	0xbd28ebc9	-0.041240487
211	0x3d679698	0.0565401
212	0xbd514703	-0.051093113
213	0xbdd71129	-0.1050132
214	0xbdb57e07	-0.088619284
215	0xbd3443c3	-0.044009935
216	0x3c23a53a	0.009988124
217	0x3caaaffd	0.02083587
218	0xbc8158fa	-0.015789498
219	0x3daf1987	0.08549791
220	0x3d151ec8	0.03640631
221	0xbc8758b5	-0.016521791
222	0xbb90b347	-0.004415903
223	0xbe0ef799	-0.13961639
224	0x3d7c2135	0.061555106
225	0x3da4b8c5	0.080430545
226	0xbd13b516	-0.03606137
227	0x3cda3ee8	0.026641324
228	0x3b16c29d	0.0023004182
229	0xbcffba09	-0.031216638
230	0x3c3665a7	0.011132634
231	0xbc4b925a	-0.01242503
232	0xbd1f8c2f	-0.03895205
233	0x3daddbe7	0.08489209
234	0xbc0e2c44	-0.008677546
235	0xbb6d417a	-0.0036202357
236	0xbdba1dc9	-0.09087712
237	0x3d8b2961	0.06795002
238	0xbdcf645b	-0.10126563
239	0xbaaaf708	-0.0013043592
240	0x3e11ac6c	0.1422593
241	0x3d7ffa36	0.06249448
242	0x3ced969c	0.02900248
243	0x3de57e7a	0.11205764
244	0xbd09d638	-0.03365156
245	0x3da0e461	0.0785606
246	0xbd4b42d1	-0.049624268
247	0x3d8587c0	0.06520033
248	0xbd200a14	-0.03907211
249	0x3c89dec0	0.016829848
250	0xbdd85cf9	-0.10564608
251	0xbd9aef80	-0.07565212
252	0x3dcbb3c4	0.09946397
253	0xbd0eedd1	-0.03489477
254	0xbd5272b9	-0.05137894
255	0x3dc65516	0.096841976

l3/b f4 [162]
0	0xbc97d512	-0.018534217
1	0xbcb07a8d	-0.021542812
2	0xbbd4186c	-0.006472638
3	0xbcf1f80d	-0.029537225
4	0xbc07eb7c	-0.00829589
5	0xbce33c2b	-0.027738651
6	0xbca8e8fd	-0.02061891
7	0xbb792558	-0.0038016643
8	0xbbf6fa3c	-0.0075371545
9	0x3c8a9991	0.01691893
10	0xbc37a048	-0.011207648
11	0xbcac7a5f	-0.021054445
12	0xbcf4f47f	-0.029901741
13	0xbcc4ef34	-0.024039842
14	0xbbdc33de	-0.0067200502
15	0xbad6383a	-0.0016343661
16	0x3b0400e4	0.0020142132
17	0x3b2caa6d	0.00263467
18	0xbcb30369	-0.021852212
19	0x3a93628d	0.001124458
20	0x3bc053b4	0.005869353
21	0x39e59932	0.00043792423
22	0xbc5eb096	-0.013591906
23	0xbcb4107f	-0.021980522
24	0xbd07cc61	-0.033153895
25	0xbcf778b6	-0.030208927
26	0xbca496f6	-0.020091515
27	0xbcd1dff9	-0.025619494
28	0xbd331485	-0.04372074
29	0x3a182191	0.00058033416
30	0xbc291d0c	-0.010321867
31	0xbc96a682	-0.018389944
32	0xbce96d5c	-0.02849453
33	0xbc97b811	-0.018520387
34	0x3d26c476	0.040714704
35	0x3b4f1f11	0.003160421
36	0x3d18c9e0	0.037301898
37	0xbcf31214	-0.029671706
38	0xbc1b8000	-0.009490967
39	0xbc5c7ff8	-0.0134582445
40	0x3cd25e83	0.025679832
41	0xbca985d7	-0.020693703
42	0xbc90689a	-0.017628003
43	0x3d9021ec	0.0703772
44	0xbd214c6f	-0.039379533
45	0xbc05bb90	-0.008162394
46	0xbc549ba5	-0.012976562
47	0x3b685f37	0.0035457143
48	0xbce8d226	-0.02842052
49	0xbb852d04	-0.004064204
50	0xbc500064	-0.012695406
51	0x3c314b3d	0.010821161
52	0xbac0c0e3	-0.0014705922
53	0xbc6ef086	-0.014583712
54	0x3d269955	0.040673573
55	0xbc3b6051	-0.011436538
56	0xbd294de6	-0.041334055
57	0xbc4b1171	-0.012394295
58	0xbca7659e	-0.020434197
59	0xbc53359e	-0.012891201
60	0xbce5d479	-0.028055416
61	0xbceffdc6	-0.029295813
62	0x3b9c203a	0.004764584
63	0xbc18beb2	-0.009322809
64	0xbcd50c8d	-0.026006961
65	0xbca92d0d	-0.020651365
66	0xbc272bfb	-0.010203357
67	0xbc5a192a	-0.013311664
68	0xbc6c7ce3	-0.014434072
69	0xbd04a896	-0.03238734
70	0xbcaf08f7	-0.02136658
71	0xbc5f413e	-0.013626395
72	0xbc559f0c	-0.013038408
73	0xbb8e6f90	-0.0043467954
74	0xbb98ca5c	-0.004662795
75	0xbc9f27f9	-0.01942824
76	0xba354647	-0.0006915074
77	0x3ba3ae20	0.0049951226
78	0xb8b44387	-8.595647e-05
79	0xbc0ff1d1	-0.008785681
80	0xbca4a9e1	-0.020100536
81	0xbc055fa5	-0.008140479
82	0xbba92dfd	-0.005162953
83	0xbce8ecaf	-0.028433172
84	0xbc42cc41	-0.011889518
85	0xbbd6f240	-0.00655964
86	0xbc4728a3	-0.012155685
87	0xbc931eac	-0.017958961
88	0xbc2eb0eb	-0.010662298
89	0xbcda723a	-0.026665796
90	0xbcbbb59f	-0.022913752
91	0xbb8b2781	-0.0042466526
92	0xbc3f8ae4	-0.011690829
93	0xbcb70066	-0.022339057
94	0xbcad7970	-0.02117607
95	0xbca36add	-0.019948417
96	0x3c14ecfa	0.009089703
97	0x39b750ac	0.00034964585
98	0xbc91c1d0	-0.017792612
99	0xbc974ca9	-0.018469172
100	0x3d168c17	0.036754694
101	0xbc1dbb1e	-0.009627132
102	0xbcc91f92	-0.024551187
103	0xbc8a0cb2	-0.016851757
104	0xbd223a93	-0.039606642
105	0xbd0d2f76	-0.03446909
106	0xbc715862	-0.014730545
107	0xbc9f311b	-0.019432595
108	0xbd1a0460	-0.03760183
109	0xbc35ea3f	-0.011103212
110	0x3ba8a931	0.0051471223
111	0xbba77737	-0.005110647
112	0xbb37d5d2	-0.002805103
113	0xbc5cbbe3	-0.01347253
114	0xbce3f4d7	-0.02782671
115	0xbd4bc57e	-0.04974889
116	0xbca5045b	-0.020143678
117	0xbbdf3124	-0.006811278
118	0xbab407f2	-0.0013735278
119	0x3a852c7b	0.0010160351
120	0xbab14d1e	-0.0013527011
121	0xbbed0fc7	-0.007234547
122	0xbd5c3e33	-0.053770255
123	0xbd003e60	-0.031309485
124	0x3ac50044	0.0015029986
125	0xbba1f542	-0.004942567
126	0xbc5c0fe2	-0.013431521
127	0x3a63cffd	0.00086903555
128	0x3b7c3372	0.0038482812
129	0xbb5c6056	-0.0033626757
130	0xbd216e89	-0.039412055
131	0xbd08924c	-0.033342645
132	0xbc831b15	-0.016004125
133	0xbc599cc8	-0.0132820085
134	0xbb7f9baf	-0.0039002707
135	0xbd95b6f4	-0.07310286
136	0xbb81682d	-0.0039491863
137	0xbd1ff564	-0.039052382
138	0xbc82dfe9	-0.01597591
139	0x3b17ce1a	0.0023163618
140	0x3c5702e2	0.013123246
141	0xbcf233f4	-0.029565789
142	0x3bf5ad1f	0.0074974443
143	0xbbb511fa	-0.0055258246
144	0xbbc9d377	-0.006159242
145	0xbb0e75de	-0.0021737735
146	0x3ca49afb	0.020093432
147	0xbc8cffd6	-0.017211836
148	0xbcd6beff	-0.02621412
149	0xbc4910e6	-0.012272095
150	0xbbfb6190	-0.0076715425
151	0xbc9ba979	-0.01900171
152	0xbc547f9b	-0.012969877
153	0xbb9dab30	-0.004811667
154	0xba895910	-0.0010478813
155	0xbb0c05d2	-0.0021365774
156	0xbc851c78	-0.016248927
157	0xbc72687e	-0.014795421
158	0xbd2297bc	-0.039695486
159	0xbba8495e	-0.005135699
160	0xbcaf8443	-0.021425372
161	0xbc60fe18	-0.013732456

l2/W f4 [162, 162]
0	0xbe0fe9a8	-0.14053977
1	0xbd750a56	-0.05982431
2	0x3d3710d1	0.04469377
3	0x3810af02	3.4495264e-05
4	0xbd1f2b70	-0.038859785
5	0x3e06e9bb	0.13175099
6	0x3c81514c	0.015785836
7	0xbe3b1736	-0.18270573
8	0x3d92082c	0.07130465
9	0x3b7af05a	0.0038290233
10	0x3c885574	0.01664231
11	0xbd69ac37	-0.057049002
12	0x3c8d61d9	0.017258571
13	0x3d65ed10	0.056134284
14	0xbd9939bd	-0.07481716
15	0x3da273a9	0.07932217
16	0x3d853747	0.06504684
17	0x3b80898b	0.0039226464
18	0xbdabc571	-0.08387268
19	0x3ce40ccb	0.027838131
20	0xbd77f649	-0.06053761
21	0x3cb98a2e	0.022648897
22	0xbe0ab89a	-0.13546982
23	0xbd2fa83c	-0.04288505
24	0xba8450fe	-0.0010094938
25	0x3d468b65	0.04847278
26	0xbc8ba900	-0.017048359
27	0xbde86b1f	-0.11348557
28	0x3c665f67	0.014060832
29	0xbdca9e4d	-0.09893475
30	0xbd85f174	-0.06540194
31	0xbdfd17c5	-0.12358049
32	0xbc14db61	-0.009085507
33	0x3deadbdc	0.11467716
34	0x3e0f3ff3	0.13989238
35	0x3dba4f74	0.09097186
36	0xbcfa1458	-0.030527279
37	0x3d7ca03c	0.06167625
38	0x3dbebf3c	0.09313819
39	0xbd3c5cdf	-0.045987006
40	0xbd61dacb	-0.055140298
41	0xbb4179e9	-0.0029522127
42	0xbd938b7f	-0.07204341
43	0x3cf8825a	0.030335594
44	0x3dc654e4	0.0968416
45	0x3d85bd64	0.06530264
46	0xbca139dd	-0.019680912
47	0x3cec298e	0.028828409
48	0xbe190cda	-0.14946309
49	0x3d3fa00d	0.046783496
50	0xbcd9a498	-0.026567742
51	0xbd353f13	-0.044249605
52	0x3d87346b	0.06601795
53	0xbda09d3b	-0.07842489
54	0x3c7205d4	0.014771897
55	0x3d79d8a8	0.060997635
56	0xbb01926a	-0.0019771107
57	0x3cf1718e	0.029473092
58	0x3b8d85ed	0.0043189437
59	0x3db432af	0.0879873
60	0x3c944db1	0.018103452
61	0xbda54fea	-0.08071883
62	0x3cfbdaf2	0.03074405
63	0xbe21c4ea	-0.15797773
64	0xbd9636bc	-0.073346585
65	0xbd7fbe8e	-0.062437586
66	0xbc11f736	-0.008909037
67	0x3cd9658a	0.026537675
68	0x3b907676	0.004408653
69	0xbe1b57f0	-0.15170264
70	0x3cddef71	0.027091714
71	0xbde8ee7e	-0.11373614
72	0xbd694ded	-0.05695908
73	0xbdab6b60	-0.083700895
74	0xbd30d0a7	-0.043167736
75	0x3c28e472	0.010308372
76	0xbd31d5e3	-0.04341687
77	0xbc6c00eb	-0.014404516
78	0x3cfc2528	0.030779436
79	0x3cfb87d5	0.030704418
80	0xbd97bfdd	-0.07409642
81	0x3dd4011f	0.10351776
82	0xbdf5957d	-0.11991403
83	0x3dc17a0f	0.09447109
84	0xbd5e575f	-0.054282542
85	0xbd2dbf81	-0.04241896
86	0xbd2c5424	-0.04207243
87	0x3da457ec	0.08024582
88	0xbcd807d1	-0.026370915
89	0xbd3f4956	-0.046700798
90	0x3df77a02	0.12083818
91	0xbda6161d	-0.081096865
92	0xbc6100b0	-0.013733074
93	0x3c523ac9	0.012831398
94	0xbd50c32e	-0.050967388
95	0x3ddc58d9	0.10759134
96	0xbb63aee7	-0.00347417
97	0x3e2e8b83	0.17045407
98	0x3d11d962	0.035607703
99	0x3d5495f8	0.051900834
100	0x3d258bd2	0.040416546
101	0xbde0cfe8	-0.10977155
102	0x3c9a61ef	0.018845527
103	0x3d061cfd	0.03274249
104	0xbd8e7dc8	-0.069575846
105	0xbab2125d	-0.0013585795
106	0x3dd22b0f	0.10262119
107	0x3d0a345f	0.03374135
108	0xbcffae14	-0.031210937
109	0xbc602611	-0.013680951
110	0x3c9bb5d6	0.019007605
111	0x3e1bcb5e	0.15214297
112	0x3c53d09a	0.012928152
113	0xbd853727	-0.0650466
114	0xbd400906	-0.046883605
115	0x3c747f8f	0.01492299
116	0x3dfe37d9	0.12412996
117	0x3df51cf7	0.11968415
118	0xbda539fb	-0.080676995
119	0x3d1257f4	0.03572841
120	0x3dc94239	0.09827084
121	0x3d4825a6	0.04886403
122	0xbc0ab163	-0.008465144
123	0xbe286269	-0.1644379
124	0x3cbae33f	0.022813438
125	0x3ce58f26	0.02802236
126	0x3d9c215d	0.07623551
127	0xbe30e024	-0.17273003
128	0x3d81bfbd	0.06335399
129	0x3e047403	0.1293488
130	0xbd9ee48f	-0.07758438
131	0xbdb1f95e	-0.08690141
132	0x3de0e36a	0.10980876
133	0xbdbda30d	-0.09259615
134	0xbd8621a6	-0.06549387
135	0xbd1e1652	-0.038595505
136	0x3dfc1852	0.12309326
137	0xbdeceedb	-0.115689956
138	0x3dd96f30	0.106169105
139	0x3d287901	0.041131023
140	0x3d0dc138	0.034608096
141	0x3c47662f	0.012170359
142	0x3df6f861	0.12059093
143	0xbaa83d24	-0.0012835604
144	0x3dc6af39	0.0970139
145	0xbd5eecf9	-0.054425213
146	0xbe2b75c3	-0.16744141
147	0x3d84fbad	0.06493316
148	0x3b40f33c	0.0029441854
149	0x3d4dbec0	0.05023074
150	0xbcc0227f	-0.023453949
151	0xbdb68aba	-0.08913179
152	0xba33ce50	-0.0006859051
153	0x3d81648a	0.063180044
154	0x3c806ae5	0.015675971
155	0x3c8b4049	0.016998427
156	0x3d77d311	0.060504023
157	0xbd3f2632	-0.046667285
158	0x3dec90d0	0.11551058
159	0x3d4297e8	0.04750815
160	0x3c2315a2	0.009953888
161	0xbd79735c	-0.06090103
162	0x3c9e2022	0.019302431
163	0x3d569221	0.052385453
164	0x3aa20e7a	0.0012363933
165	0x3ddbc39f	0.10730671
166	0x3c04ae4a	0.008098194
167	0x3e0dda4b	0.13852803
168	0x3d6fb4c8	0.058522016
169	0x3df94706	0.1217175
170	0xbd97a6a8	-0.07404834
171	0xbd8d3914	-0.068956524
172	0x3d8718aa	0.06596501
173	0x3d725fa2	0.059173234
174	0xbc95c4c1	-0.018282296
175	0xbad2c4b0	-0.0016080346
176	0x3d1844cd	0.03717499
177	0x3da8accc	0.082360834
178	0x3d240885	0.040047187
179	0xbcf6a9f7	-0.030110342
180	0xbd67d470	-0.05659908
181	0x3d120214	0.035646513
182	0xbcc1deaf	-0.023665754
183	0x3d6e851d	0.058232415
184	0xbdf2bb40	-0.11852121
185	0x3c9058fd	0.017620558
186	0x3da7db20	0.08196092
187	0x3ccd043f	0.025026439
188	0x3cceedf7	0.025259955
189	0xbd396880	-0.045265675
190	0x3d2b1214	0.041765288
191	0xbdcc2e4d	-0.09969769
192	0xbd8cb2fc	-0.06870076
193	0x3d6f3494	0.05839975
194	0xbd3cc37a	-0.04608486
195	0x3cb58922	0.022160117
196	0x3dcb4399	0.099250026
197	0xbda2228b	-0.07916745
198	0xbcbc8354	-0.02301184
199	0x3d03839f	0.032107946
200	0xbe0abee7	-0.13549386
201	0x3d3bbd1f	0.045834657
202	0xbe10d364	-0.14143139
203	0x3d965277	0.07339948
204	0xbb9bef6f	-0.0047587673
205	0xbd895d4a	-0.067072466
206	0xbd948350	-0.07251608
207	0x3e37780c	0.17916888
208	0xbcdc3320	-0.026879847
209	0x3d132c8e	0.035931163
210	0x3d2872dd	0.041125167
211	0xbd35cef8	-0.044386834
212	0xbceef9e7	-0.029171897
213	0xbd946550	-0.07245886
214	0xbd9cffc5	-0.07665972
215	0xbdb494c7	-0.088174395
216	0xbdb570d7	-0.08859413
217	0xbd126171	-0.03573746
218	0x3e3b7b03	0.18308644
219	0xbd529dc7	-0.05142
220	0xbdd78ba9	-0.10524685
221	0xbd47a23b	-0.0487387
222	0x3d56b4ac	0.052418396
223	0xbd1b9afb	-0.037989598
224	0x3cc16aa6	0.023610424
225	0x3d615c59	0.05501971
226	0x3d855d7e	0.06511973
227	0x3db3d1e6	0.08780269
228	0xbddd18d8	-0.10795754
229	0xbd1e0ae9	-0.038584623
230	0x3d49f6df	0.0493077
231	0xbc221c3c	-0.009894427
232	0xbdcd617d	-0.1002836
233	0xbc8fdae4	-0.01756043
234	0xbb1a8498	-0.0023577567
235	0x3d3953e7	0.04524603
236	0x3d694b5c	0.056956634
237	0xbde224e5	-0.11042193
238	0xbd81e6d7	-0.06342857
239	0x3d9dd724	0.077070504
240	0xbcf8859c	-0.030337147
241	0xbe5a74c3	-0.21333604
242	0x3d03b39e	0.03215372
243	0x3d2d9233	0.042375755
244	0xbd4631d1	-0.048387352
245	0x3d8649a3	0.06557014
246	0x3e0ec150	0.1394093
247	0xbe39ef5e	-0.18157718
248	0x3d464a12	0.048410483
249	0xbd84b7c4	-0.06480363
250	0xbe5dba8e	-0.21653196
251	0x3e05147b	0.12996094
252	0xbd568454	-0.05237229
253	0x3cb13435	0.02163134
254	0x3d02b68a	0.031912364
255	0xba210fce	-0.00061440177

l2/b f4 [162]
0	0xbc7b52d9	-0.015339577
1	0xbc12dc45	-0.008963649
2	0xbb84a08c	-0.004047459
3	0xbc1613ce	-0.009159995
4	0x3b9bfabf	0.004760116
5	0x3c073fb7	0.008254937
6	0xbc966f15	-0.018363515
7	0x3bdb636c	0.0066952016
8	0xbcd03b88	-0.025419012
9	0xbc0504ab	-0.008118789
10	0xbc052972	-0.008127557
11	0xbd025343	-0.031817686
12	0xbc0c7f15	-0.008575221
13	0x3b742bab	0.0037257473
14	0xbcbf6971	-0.023365708
15	0xbc4e6b40	-0.012598813
16	0xbd01ccdf	-0.03168952
17	0xbc5ec888	-0.013597615
18	0xbbf67933	-0.0075217723
19	0x3b42a34b	0.002969938
20	0xbc043557	-0.008069358
21	0xbcb9b11e	-0.022667464
22	0xbc0aa754	-0.008462746
23	0xba4c4683	-0.00077924895
24	0xbbfa2893	-0.0076342314
25	0xbba73251	-0.0051024337
26	0xbc3f0fa5	-0.011661445
27	0xbd25780a	-0.04039768
28	0x3c11627b	0.008873577
29	0xbc70afbb	-0.014690335
30	0xbb385206	-0.0028125062
31	0xbcfcbab9	-0.030850755
32	0xbc37bf28	-0.011215009
33	0xbc7f57fd	-0.015584943
34	0x3bbe30e9	0.0058041704
35	0xbc8ebf0b	-0.01742508
36	0xbc7f91e1	-0.015598745
37	0x3b22e630	0.002485644
38	0x3bffcdee	0.007806531
39	0xbc3ea810	-0.011636749
40	0xbb77fe59	-0.0037840812
41	0x3b480bab	0.0030524533
42	0x3c983b95	0.018583098
43	0xbbe993fb	-0.0071282363
44	0x3c11b204	0.00889254
45	0xbc2da083	-0.010597351
46	0xbc260623	-0.010133299
47	0xbc0bef29	-0.008540907
48	0xbbdd4fd8	-0.006753903
49	0xbba79df8	-0.005115267
50	0xbbe5930d	-0.007006055
51	0xbd11f20a	-0.035631217
52	0x3827dd30	4.00219e-05
53	0xbc4220b1	-0.011848615
54	0x3abc3781	0.0014359803
55	0x383f02bc	4.5540495e-05
56	0xbc1cbe0e	-0.009566797
57	0xba8a7925	-0.0010564668
58	0xbba20c21	-0.0049452935
59	0xbc6edb11	-0.014578597
60	0xbcbf974f	-0.02338758
61	0x3c56ef49	0.013118573
62	0xbb87dd6c	-0.0041462686
63	0xbc7f018a	-0.015564332
64	0x3b24d257	0.0025149786
65	0xbc7e91bc	-0.0155376755
66	0x3d1f9f87	0.038970497
67	0xbc467644	-0.012113158
68	0xbc836962	-0.016041461
69	0x3c1caa99	0.009562158
70	0xbbe7a4fc	-0.007069228
71	0xbcb94b14	-0.022618808
72	0xbc01da1f	-0.007925539
73	0xbc78b79c	-0.015180495
74	0x3b5bee61	0.0033558833
75	0xbbad2381	-0.0052837734
76	0xbcae8daf	-0.021307794
77	0xbb58e7d9	-0.0033097176
78	0xbd2b24bf	-0.04178309
79	0x3a813180	0.0009856671
80	0xbc4dad7a	-0.012553567
81	0xbd38f8eb	-0.04515926
82	0xbc39f089	-0.011348852
83	0x3c41a3ae	0.011818809
84	0xbc47ffd6	-0.012206992
85	0x3acd547a	0.0015665435
86	0x3c2478ad	0.010038537
87	0xba4a36bd	-0.0007713845
88	0x3c9e4485	0.019319782
89	0xbc8d0a80	-0.01721692
90	0xbca01481	-0.019541027
91	0x39cbfac4	0.00038906012
92	0x3c8fa35c	0.01753395
93	0xbcf76736	-0.030200582
94	0xbccc0f3a	-0.024909604
95	0xbbe126e6	-0.006871092
96	0xba3e288f	-0.00072539685
97	0xbc226c3d	-0.009913501
98	0xbc941ed1	-0.0180811
99	0xbcaf21cf	-0.021378426
100	0x3b0985a6	0.0020984202
101	0xbaab0209	-0.0013046871
102	0xbbf41f91	-0.007450052
103	0xbc217afc	-0.009855982
104	0xbc9dcf0a	-0.019263763
105	0xbcb954a8	-0.022623375
106	0xbad3af96	-0.0016150351
107	0xbca5a821	-0.020221772
108	0xbc8403e8	-0.016115144
109	0xb9b1f45a	-0.00033942127
110	0x3c793002	0.0152092
111	0xbcc45f5e	-0.023971256
112	0x3af4fb5a	0.0018690631
113	0xbbc3d610	-0.005976446
114	0xbbeb9a71	-0.0071900417
115	0xbca47b96	-0.020078462
116	0xbc81aa44	-0.01582826
117	0x3ad438af	0.001619121
118	0xbbada682	-0.0052993903
119	0xb8f72600	-0.00011784956
120	0xba43a5a9	-0.0007463345
121	0xbc4214d9	-0.011845791
122	0xbd030d4d	-0.031995106
123	0xbc824644	-0.015902646
124	0xbb72673a	-0.0036987797
125	0xbce9d9af	-0.028546182
126	0xbce96871	-0.028492184
127	0xbb9ba18e	-0.0047494834
128	0xbb4a706d	-0.0030889765
129	0xbad7d20e	-0.0016465799
130	0xbbf9492d	-0.0076076
131	0x3c4be80a	0.012445459
132	0x3caaf7c4	0.020870097
133	0xbbdde4d7	-0.0067716646
134	0xbbe9876a	-0.0071267383
135	0x3caf9bd4	0.02143661
136	0x3d2f768d	0.04283767
137	0xbbd36a19	-0.006451857
138	0xbc25e870	-0.010126218
139	0x3b7c3fcb	0.0038490172
140	0xbb8a5235	-0.0042212256
141	0x39912fe0	0.00027692225
142	0xbc5cd120	-0.013477594
143	0x3afbd5b0	0.0019213464
144	0xbc9bf755	-0.019038836
145	0xbbadfb70	-0.0053095147
146	0x3c1c73b5	0.009549071
147	0xbc501f7a	-0.012702817
148	0xbba62f2d	-0.0050715418
149	0xbc86c8cd	-0.016453171
150	0xbc97c6e9	-0.018527465
151	0x3a80f681	0.0009839089
152	0xbbc4a5f3	-0.006001228
153	0xbb07a521	-0.002069779
154	0xbbd3f480	-0.0064683557
155	0x3d42f990	0.047601283
156	0x3c739e11	0.014869229
157	0xbb6ae698	-0.003584301
158	0x3b44f892	0.0030055386
159	0xbc326300	-0.010887861
160	0xbca5bbef	-0.020231215
161	0xbbd22ea2	-0.0064142505

l1/W f4 [162, 40]
0	0x3ce55081	0.027992489
1	0xbe166b25	-0.1468931
2	0x3e6706a9	0.22561134
3	0xbe8f4007	-0.27978536
4	0xbe75929f	-0.23981713
5	0x3d7d98bc	0.061913237
6	0x3eda841a	0.4267891
7	0x3ec675cb	0.38761744
8	0x3e9bebe9	0.30453423
9	0xbdeb1943	-0.11479428
10	0x3dbc5d6a	0.09197505
11	0xbe1ec61c	-0.1550526
12	0xbb7760f5	-0.0037747
13	0x3de3710e	0.11105548
14	0x3e2430f6	0.16034302
15	0x3c7c5d2b	0.015403072
16	0xbdca27c9	-0.0987087
17	0xbe65ca55	-0.22440465
18	0x3e2c509f	0.1682763
19	0xbcbbb4b6	-0.022913318
20	0xbcc17a39	-0.02361785
21	0x3e09efc4	0.1347037
22	0x3d4a4f77	0.04939219
23	0x3e8faaef	0.280601
24	0xbdcb9e95	-0.099423565
25	0xbe10c1f9	-0.14136495
26	0xbce27b7c	-0.027646773
27	0x3e3e409c	0.18579334
28	0xbd9e9360	-0.07742953
29	0xbd9bd6fa	-0.07609363
30	0x3e28b4f4	0.16475278
31	0x3e32936a	0.17439047
32	0xbea80e49	-0.328234
33	0x3e44062a	0.19142976
34	0x3e2dba47	0.1696559
35	0xbd9e8c93	-0.07741656
36	0xbd8087c3	-0.062758945
37	0xbdb38ee9	-0.08767492
38	0xbe7bcfa7	-0.24590932
39	0xbde4df64	-0.11175421
40	0x3ccc535f	0.024942098
41	0xbe584c17	-0.21122776
42	0xbd4ee428	-0.050510556
43	0x3e0ec8db	0.13943808
44	0xbc44a38f	-0.012001886
45	0xbe299de1	-0.16564132
46	0xbbb92915	-0.0056506493
47	0x3dee4746	0.11634688
48	0x3d98785f	0.07444834
49	0xbd7b8a6d	-0.06141131
50	0xbdf0b131	-0.117525466
51	0xbdb975df	-0.09055685
52	0x3d36a602	0.04459191
53	0x3c63932a	0.013890067
54	0x3e91e5a7	0.28495523
55	0x3cfe75b2	0.03106198
56	0xbd9f224e	-0.07770215
57	0xbe905004	-0.28186047
58	0xbdee38c3	-0.1163192
59	0xbd005c14	-0.031337813
60	0x3cb64d68	0.022253707
61	0xbdb378df	-0.08763289
62	0xbdda6efa	-0.10665698
63	0x3c79a066	0.015235996
64	0xbe101578	-0.1407069
65	0x3d8ff77a	0.07029624
66	0xbd5d4eb9	-0.054030154
67	0x3cb2d2e3	0.021829074
68	0x3c7747f2	0.015092837
69	0xbdf97f6b	-0.12182506
70	0x3e46bc9c	0.19407886
71	0xbdee1723	-0.11625507
72	0xbe21c80d	-0.1579897
73	0xbd055ab7	-0.032557216
74	0x3de23020	0.11044335
75	0xbd4e2a97	-0.050333586
76	0x3dcaac1e	0.0989611
77	0xbe2aedc5	-0.16692264
78	0xbe2ff844	-0.1718455
79	0x3b96ea27	0.00460555
80	0x3d6dd5a1	0.05806506
81	0x3e51cbe8	0.2048794
82	0xbd935fed	-0.07196031
83	0xbda7c4e9	-0.081918545
84	0xbd581319	-0.052752588
85	0xbe373a65	-0.1789337
86	0xbe0dfbf2	-0.13865641
87	0x3d0b26a6	0.033972405
88	0x3db66bca	0.08907278
89	0xbca9c9c3	-0.02072609
90	0x3e76df47	0.24108611
91	0xbd70c428	-0.05878082
92	0xbcf938c7	-0.030422581
93	0xbdff6737	-0.124708585
94	0xbde3208f	-0.110901944
95	0x3d8efd54	0.06981912
96	0x3ca3d88a	0.020000715
97	0xbd3f44e2	-0.04669655
98	0xbd53415b	-0.051576
99	0x3e4086ac	0.18801373
100	0x3dfd0e10	0.12356198
101	0x3d869b38	0.065725744
102	0xbe2ce88e	-0.16885588
103	0xbc990a5f	-0.018681703
104	0xbce0e59b	-0.027453234
105	0xbe21570e	-0.15755865
106	0x3d9ed034	0.07754555
107	0xbdfec9a7	-0.12440806
108	0xbcb9befa	-0.022674073
109	0x3d88e2bc	0.06683871
110	0x3ea840b1	0.32861856
111	0x3e877cf5	0.26462522
112	0x3d932732	0.0718521
113	0x3df94cee	0.12172876
114	0x3e20e926	0.15713939
115	0xbd4bb887	-0.049736526
116	0x3ec23e31	0.37938073
117	0xbde47c8c	-0.11156568
118	0xbd96a786	-0.07356171
119	0xbd11add6	-0.035566173
120	0xbbc2049e	-0.0059209606
121	0xbec0d898	-0.37665248
122	0x3e9d0f41	0.306757
123	0xbe9e30e7	-0.30896685
124	0xbde8eec6	-0.113736674
125	0xbdfa75b6	-0.12229483
126	0x3e1bc6f6	0.15212616
127	0x3e5302b7	0.20606504
128	0x3d2757e7	0.040855315
129	0xbe7235b8	-0.23653305
130	0xbd834c78	-0.0641107
131	0xbc2a6be9	-0.010401704
132	0x3c38cc4c	0.011279177
133	0xbe9c29c1	-0.30500606
134	0xbe8dfbf6	-0.27731293
135	0x3e823ae9	0.2543557
136	0x3d019189	0.031632934
137	0x3e07a8bd	0.13247962
138	0x3e07c7c8	0.13259804
139	0x3d4c5da6	0.049893998
140	0x3e6ad9a3	0.22934584
141	0x3e082960	0.13297033
142	0xbdf4e38c	-0.119574636
143	0xbec4bd19	-0.3842552
144	0xbe85a931	-0.26105645
145	0x3dcdbf4c	0.100462526
146	0x3e8c9cf5	0.274635
147	0xbe690785	-0.22756775
148	0xbe127f3c	-0.14306349
149	0x3da1a510	0.07892811
150	0x3dccdc1f	0.10002922
151	0x3df79067	0.120880894
152	0x3e16fe55	0.14745457
153	0xbe395bcb	-0.18101422
154	0xbe10f1b7	-0.14154707
155	0x3e500a94	0.20316535
156	0x3e24a7e6	0.16079673
157	0xbe43c9e6	-0.19119987
158	0x3d82d4a6	0.06388216
159	0x3db7f8c2	0.08982994
160	0x3ca8a00b	0.020584127
161	0x3de2f271	0.11081398
162	0x3e331e8b	0.1749212
163	0x3e2cf146	0.16888914
164	0xbe87b21a	-0.26503068
165	0x3beae9b4	0.007168973
166	0x3e1b3384	0.1515637
167	0xbc06c7c1	-0.008226336
168	0xbe2ae59b	-0.1668915
169	0x3d865e59	0.06560964
170	0xbe531869	-0.2061478
171	0x3dc58973	0.09645357
172	0xbac947c6	-0.0015356473
173	0x3e439ef8	0.1910361
174	0xbd1a9ab1	-0.03774518
175	0x3d8c8f8b	0.06863316
176	0x3d777270	0.06041187
177	0x3ce096e8	0.027415708
178	0xbe9b3297	-0.30312034
179	0x3aca4379	0.0015431485
180	0x3d715f84	0.05892898
181	0x3e3076a3	0.17232756
182	0x3e99ded5	0.3005282
183	0xbe0ace27	-0.13555203
184	0xbe43bd40	-0.19115162
185	0x3e045645	0.12923534
186	0xbdf58d08	-0.1198979
187	0x3e93cf83	0.28869256
188	0xbc8e375e	-0.017360386
189	0x3e11fe66	0.14257202
190	0xbe7d56c1	-0.24740125
191	0xbe22a65b	-0.15883772
192	0xbd89292a	-0.066973045
193	0xbd8b6f70	-0.068083644
194	0xbc8121ab	-0.015763124
195	0xbbcb02e2	-0.006195412
196	0xbdf04363	-0.11731603
197	0x3bdc6324	0.0067256857
198	0xbe5d0e40	-0.21587467
199	0x3d7ddd74	0.061978772
200	0xbdf263aa	-0.11835416
201	0xbd312b46	-0.04325416
202	0xbd065c87	-0.032803085
203	0xbd32e1ff	-0.043672558
204	0xbe70cd1d	-0.23515745
205	0x3dcde9c7	0.10054355
206	0xbdebc3ca	-0.11511953
207	0x3e8b8aeb	0.27254423
208	0xbd89dd49	-0.0673166
209	0xbe2135f2	-0.15743235
210	0x3e8ad454	0.27115119
211	0x3ea10aa4	0.3145343
212	0xbe01fd9f	-0.12694405
213	0xbe5bc41a	-0.21461526
214	0x3c4687c2	0.012117328
215	0x3e54d0db	0.20782797
216	0xbe63cd7f	-0.2224636
217	0xbda477d2	-0.080306664
218	0xbdadf836	-0.08494608
219	0xbca1798b	-0.019711277
220	0xbeaa6d38	-0.33286452
221	0x3e28988b	0.1646444
222	0xbe4b39a1	-0.19846202
223	0xbc2dcc3e	-0.010607777
224	0xbe3e59ba	-0.18588915
225	0xbd819522	-0.06327273
226	0x3dc29dec	0.095027775
227	0xbe2a2f18	-0.16619527
228	0xbe1c178f	-0.15243362
229	0xbdc64233	-0.09680595
230	0xbb3d1fbb	-0.0028858024
231	0x3ca30ddc	0.01990407
232	0x3e8624ef	0.26200053
233	0x3ea416df	0.320487
234	0x3e2130b4	0.15741235
235	0x3dd07712	0.10178961
236	0x3de8ce1b	0.113674365
237	0xbe5af96b	-0.21384208
238	0xbe129823	-0.14315848
239	0xbdd52822	-0.10408045
240	0x384f5efd	4.944111e-05
241	0x3c5f5827	0.013631857
242	0x3dad1184	0.084506065
243	0x3d349bb4	0.044093803
244	0xbd12b0db	-0.035813194
245	0xbda19eb9	-0.07891602
246	0xbd6d5659	-0.057943676
247	0xbd0f1368	-0.034930617
248	0x3e12e352	0.14344528
249	0xbd0d9a80	-0.03457117
250	0xbe014692	-0.12624577
251	0xbe6cc36e	-0.23121426
252	0xbe84a51f	-0.25907227
253	0xbd6b87e1	-0.05750263
254	0x3e59289f	0.21206902
255	0xbc252c8d	-0.0100814225

l1/b f4 [162]
0	0xbd1d6bc1	-0.03843284
1	0xbb8a5350	-0.0042213574
2	0xbba94262	-0.005165384
3	0x3b29a3d2	0.0025884998
4	0x3c855141	0.016274096
5	0xbaff8608	-0.00194949
6	0x3c6e167f	0.014531731
7	0xb963d5ef	-0.00021728103
8	0xbb94d71f	-0.004542246
9	0x3b9a5cc9	0.004710768
10	0xbb9ac2a9	-0.0047229123
11	0xbba03cfc	-0.0048900824
12	0xbc7b44e7	-0.015336252
13	0x3bce067a	0.006287393
14	0xb91bbb77	-0.00014851788
15	0xbc77efa0	-0.015132815
16	0xbc325768	-0.010885097
17	0xbce95b5f	-0.028485952
18	0x3b501750	0.0031752177
19	0xbbe7857a	-0.007065472
20	0x3ca14703	0.019687181
21	0xba90b3c0	-0.0011039898
22	0xbc47f8ad	-0.012205285
23	0xbcbbfda0	-0.022948086
24	0xbcd084d3	-0.02545396
25	0xbd033df6	-0.032041512
26	0xbb5d3de3	-0.0033758811
27	0xbafbe908	-0.0019219229
28	0x39b9a933	0.00035412013
29	0xbc9df791	-0.019283088
30	0xb9558a8f	-0.0002036488
31	0x3b2c613d	0.0026303076
32	0x3a40e1a6	0.0007357843
33	0xbbc55c64	-0.0060229767
34	0xbaba4050	-0.001420984
35	0x3b444258	0.002994677
36	0x3c172584	0.009225253
37	0xbc0f29ba	-0.008737976
38	0x3b12eef3	0.0022420257
39	0xbba8b9d6	-0.0051491065
40	0xbcd65513	-0.026163613
41	0xbc8c2f8b	-0.017112514
42	0x3ba38a03	0.0049908175
43	0xbcd154fa	-0.025553215
44	0xbc81b4c1	-0.01583326
45	0xb9fc2b40	-0.0004809741
46	0xbcadf556	-0.02123515
47	0xbc91d3d4	-0.017801203
48	0x3c558012	0.013031023
49	0xbbedefe1	-0.007261262
50	0xbc284037	-0.010269216
51	0x3c9f7d61	0.019468965
52	0xbcb73de2	-0.022368375
53	0xbc2ec606	-0.01066733
54	0xbcc228b8	-0.023701057
55	0xbb8d9d48	-0.004321728
56	0xbc5a8eb0	-0.013339683
57	0xbb926fc5	-0.0044688904
58	0xb9a93003	-0.00032269963
59	0xbac1cb06	-0.0014785237
60	0xbbd16722	-0.006390468
61	0x3c3829b6	0.011240413
62	0x3c8da085	0.017288456
63	0x3bb4711d	0.005506648
64	0xbc1d3ea3	-0.009597453
65	0xbc9a0728	-0.01880224
66	0x3b8b7d31	0.0042568673
67	0x3b9511d4	0.0045492444
68	0xbccebf70	-0.025237769
69	0xbc26df3c	-0.010185059
70	0xbae05a56	-0.0017116766
71	0xbc7829a9	-0.015146651
72	0xbc71bc20	-0.014754325
73	0x3c1b84c8	0.009492107
74	0xbc9e00e3	-0.019287532
75	0xbbc4b4d4	-0.0060030017
76	0xbc172e6d	-0.009227377
77	0xbbcbca32	-0.006219172
78	0xbb68813c	-0.003547742
79	0xbcd51c94	-0.026014604
80	0xbbaa2ada	-0.0051930966
81	0xbc534233	-0.012894201
82	0xbbc996f3	-0.0061520278
83	0x3c2614d0	0.010136798
84	0x3c80b7aa	0.015712578
85	0xbb1d3b36	-0.0023991591
86	0xba85c9cc	-0.0010207235
87	0xb702e298	-7.801362e-06
88	0x3c33445c	0.010941591
89	0x3c10f9a8	0.008848585
90	0x3b8e1a48	0.004336629
91	0x3c3d2e2f	0.011546656
92	0xbb3f7ba6	-0.0029217987
93	0xbc9864ea	-0.018602807
94	0xbceac65e	-0.028659042
95	0xbcb080da	-0.021545816
96	0x3b8f6137	0.0043756026
97	0xbb21271a	-0.0024589957
98	0xbc172a34	-0.009226371
99	0xbc786839	-0.015161567
100	0x3bf6eabf	0.007535308
101	0xbc2d8a3e	-0.010592042
102	0x3b2ce170	0.0026379488
103	0x3a70fb1c	0.00091926917
104	0xbc469513	-0.012120503
105	0x3ba2f255	0.004972736
106	0x3add79de	0.0016897281
107	0xbbdbb9b3	-0.0067054867
108	0x3a3dc60e	0.000723929
109	0xbcb0a619	-0.021563577
110	0xbc2ab230	-0.01041846
111	0xbbc1b145	-0.0059110248
112	0xbb667370	-0.003516402
113	0xbae57e52	-0.001750896
114	0xbae8bb47	-0.0017756008
115	0xbcc2a731	-0.023761364
116	0xbd19f5c8	-0.03758791
117	0xbba353ec	-0.0049843695
118	0xbaa5ae3e	-0.0012640429
119	0xbc33a5cc	-0.010964822
120	0xbab0bba1	-0.0013483652
121	0xbc20ad4b	-0.009806941
122	0xb9bb28e0	-0.00035697874
123	0x398950f2	0.00026190985
124	0x3a8c0641	0.0010683016
125	0xbc132e4b	-0.008983205
126	0x3cc7c236	0.0243846
127	0xbbc3c5e1	-0.0059745167
128	0xbd0b7e96	-0.03405627
129	0xb90b9739	-0.00013312408
130	0xbc1e6e5b	-0.0096698655
131	0x3c9e569b	0.019328406
132	0xbcca590d	-0.024700666
133	0xbb987e20	-0.004653707
134	0xbd0db2b3	-0.03459425
135	0xbc5c7db4	-0.013457704
136	0xbaf920dc	-0.0019006985
137	0xbbdf2dc4	-0.0068108756
138	0xbc023fa1	-0.007949741
139	0xba3c5af3	-0.00071851833
140	0x3bec2172	0.0072061354
141	0xbc8db0bf	-0.017296193
142	0x3b78edd6	0.0037983558
143	0x3b4c544f	0.0031178182
144	0xbc683a7f	-0.014174103
145	0xbcdc6b29	-0.026906567
146	0x3c650b00	0.013979673
147	0xbc502ec7	-0.012706465
148	0x3b8850cb	0.004160022
149	0xbbcb5d29	-0.006206174
150	0x38f0bc2a	0.0001147914
151	0xbd2d5111	-0.04231364
152	0xbc817984	-0.015805013
153	0xba96e626	-0.0011512681
154	0xbc8af94a	-0.016964573
155	0xbb77f7ba	-0.0037836866
156	0xbce90248	-0.02844347
157	0xbc3ee3a9	-0.011650958
158	0x3b94fb9b	0.0045465953
159	0xbc29daac	-0.010367077
160	0xbc8dfdfb	-0.017333021
161	0xbbc7dace	-0.0060990816

l4/W f4 [4, 162]
0	0x3c83c30f	0.016084222
1	0xbbd944f2	-0.0066305334
2	0x3e5e9f68	0.21740496
3	0xbe2ec1b8	-0.17066085
4	0x3d2cfabf	0.042231318
5	0xbd9dc8ba	-0.07704301
6	0xbd79e65c	-0.061010703
7	0x3da2688d	0.07930098
8	0x3e35de54	0.17760593
9	0xbd7ed1f9	-0.062211964
10	0xbd4a33af	-0.049365696
11	0x3d2eaa6d	0.042643
12	0xbd8b79c9	-0.06810338
13	0x3ccd5357	0.025064154
14	0x3bd54ae4	0.006509172
15	0xbd6a4554	-0.057195023
16	0xbc430f56	-0.011905512
17	0x3d4e1b3b	0.050318938
18	0xbdc48397	-0.09595411
19	0xbd5d929f	-0.054094907
20	0x3a3b9f1e	0.0007157194
21	0x3d364346	0.04449775
22	0x3e0144b1	0.1262386
23	0xbda1baf7	-0.07896989
24	0x3cb30e6d	0.021857465
25	0xbca7b9f8	-0.020474419
26	0xbc9fb3de	-0.019494947
27	0x3a24afea	0.0006282317
28	0x3bbfb0e5	0.005849945
29	0xbcff7c06	-0.031187069
30	0x3b1f9d3f	0.00243552
31	0xbd558707	-0.052130725
32	0xbd625563	-0.055257212
33	0xbc7023b4	-0.01465695
34	0x3d49ae12	0.049238272
35	0x3d1d1763	0.03835238
36	0x3d229f67	0.0397028
37	0xbac43866	-0.0014970421
38	0x3d6038bd	0.05474161
39	0x3c6f8003	0.014617923
40	0x3c810217	0.015748067
41	0x3c38a753	0.011270362
42	0x3ce49aa7	0.027905775
43	0x3dccbc3e	0.09996842
44	0x3dc8809d	0.09790156
45	0x3d90f431	0.07077826
46	0xbdad5983	-0.08464339
47	0x3d1d14ee	0.03835004
48	0xbc95602f	-0.01823434
49	0xbd441882	-0.047874935
50	0x3c2f997f	0.010717749
51	0xbe34890e	-0.17630407
52	0x3df31ef2	0.11871137
53	0xbdd4082e	-0.10353123
54	0x3dbde386	0.09271912
55	0xbd8d6209	-0.06903464
56	0x3d301235	0.042986114
57	0x3d901cc3	0.07036736
58	0xbd3e6e13	-0.046491694
59	0x3da3820f	0.07983791
60	0x3dc258db	0.09489604
61	0x3d82af7b	0.063811265
62	0x3d8f410e	0.0699483
63	0x3d80ef02	0.06295587
64	0xbe270461	-0.16310264
65	0x3df45bba	0.11931558
66	0xbddf92f4	-0.10916701
67	0x3da3cd8a	0.07998188
68	0x3dbe2e67	0.09286194
69	0x3cb37fa2	0.021911446
70	0x3a8556ec	0.0010173
71	0xbdd14c17	-0.10219591
72	0xbd90bc2d	-0.07067142
73	0x3d5b8d32	0.05360145
74	0x3d3d9b51	0.0462907
75	0xbd43ef2a	-0.047835506
76	0xbcc5f24a	-0.024163384
77	0x3d83a837	0.06428569
78	0xbba31e2f	-0.0049779634
79	0x3a400680	0.00073251873
80	0xbd8be7e1	-0.06831337
81	0x3c3bdd9d	0.011466411
82	0xbdd318f7	-0.10307496
83	0xbd468dd2	-0.048475094
84	0x3dcab7c3	0.09898331
85	0x3d7b8b8b	0.061412375
86	0xbdea5296	-0.11441533
87	0x3c22c436	0.009934476
88	0xbca025b3	-0.019549226
89	0x3dca935f	0.0989139
90	0x3d56e001	0.05245972
91	0xbd97f3a9	-0.07419521
92	0xbd9bf445	-0.0761495
93	0x3c84f759	0.016231226
94	0xbc1bc891	-0.009508268
95	0x3d810eae	0.06301628
96	0x3d2c183c	0.0420153
97	0xbd8dc8d5	-0.06923071
98	0xbd6f5c4a	-0.058437623
99	0xbcb61e4b	-0.022231242
100	0x3da620c8	0.08111721
101	0x3afc3be1	0.001924392
102	0xbd4d1ddd	-0.050077308
103	0x3c45b893	0.012067932
104	0xbce93d1b	-0.02847152
105	0xbd232a8b	-0.039835494
106	0x3d3703c9	0.044681344
107	0x3dd39a36	0.10332148
108	0x3d3d09ae	0.04615181
109	0x3cc062c8	0.023484603
110	0xbe4781ae	-0.19483063
111	0x3d3adb2f	0.045619186
112	0xbbf880ed	-0.0075837285
113	0xbd0c927c	-0.034319386
114	0xbd20f23e	-0.03929352
115	0x3c82aa34	0.0159503
116	0x3959c855	0.00020769362
117	0x3d7293f3	0.059223127
118	0x3c521c15	0.012824078
119	0xbcc5a52a	-0.024126608
120	0x3db3a577	0.08771794
121	0x3db0de4b	0.08636149
122	0xbd4d5fa2	-0.05014003
123	0x3cc5929b	0.024117758
124	0xbe0d8de8	-0.13823664
125	0xbc8ca4d5	-0.017168442
126	0x3df7047b	0.120614015
127	0x3db456f5	0.08805648
128	0xbe58c317	-0.21168171
129	0x3e125cf1	0.14293267
130	0xbcdea3d6	-0.027177732
131	0xbd1c0980	-0.038094997
132	0xbad779d0	-0.0016439501
133	0xbc49b6ff	-0.012311696
134	0xbdf4e23a	-0.11957212
135	0xbde8ea40	-0.11372805
136	0x3d97e281	0.07416249
137	0xbd7ad221	-0.06123555
138	0x3e0b4e02	0.13603976
139	0xbb100d43	-0.002198056
140	0x3c4989d3	0.012300926
141	0xbe3df5f3	-0.18550853
142	0x3d0b89c5	0.034066934
143	0x3ce47c22	0.027891222
144	0xbe41048a	-0.18849388
145	0x3da9f991	0.08299554
146	0x3ddb6285	0.107121505
147	0x3cf852fa	0.030313004
148	0x3de154ac	0.11002478
149	0x3d721832	0.059105106
150	0xbcbcd8d0	-0.023052603
151	0x3d4b66b3	0.04965849
152	0x3dc39b01	0.09551049
153	0xbca09d46	-0.019606244
154	0xbd8769ca	-0.066119745
155	0xbc6e887b	-0.014558907
156	0x3c8acac8	0.016942397
157	0x3d09d9b1	0.033654872
158	0x3ca19576	0.019724589
159	0x3d12cdd1	0.035840813
160	0xbdcc5834	-0.09977761
161	0xbd26188c	-0.040550753
162	0xbda5170d	-0.08061037
163	0xbe026108	-0.12732327
164	0x3da5dfe3	0.08099344
165	0xbde5c9b4	-0.112201124
166	0x3bd22a51	0.006413736
167	0xbbf6f49a	-0.007536483
168	0xbdeedc7b	-0.11663147
169	0x3d7b6ce9	0.06138316
170	0x3caa74b5	0.020807603
171	0x3adce982	0.0016854259
172	0xbcaece3c	-0.021338575
173	0xbe2d265a	-0.16909161
174	0xbc36dcd8	-0.011161052
175	0x3bd7a3e2	0.0065808157
176	0xbdcc4813	-0.099746846
177	0xbc34e604	-0.011041168
178	0xbbd8fd0b	-0.006621962
179	0x3db80a6e	0.08986364
180	0xbd04427d	-0.03228997
181	0x3d11ffa7	0.0356442
182	0x3de32bf3	0.11092367
183	0xbdb51bfe	-0.0884323
184	0x3c1319bc	0.0089783035
185	0xbdc43767	-0.0958088
186	0x3ca51575	0.020151833
187	0xbe5f389c	-0.21798939
188	0x3d970541	0.07374049
189	0x3dfdd3b4	0.12393895
190	0xbe2ef291	-0.17084719
191	0xbe2adad1	-0.16685034
192	0x3d07eabc	0.033182845
193	0xbc1c6aec	-0.009546977
194	0xbe42be49	-0.190179
195	0xbce5ad2b	-0.028036674
196	0x3d4482a4	0.04797615
197	0x3e2180f7	0.15771852
198	0x3c66b806	0.014081961
199	0xbda5121b	-0.08060094
200	0x3d66cbc2	0.056346662
201	0xbcdade60	-0.026717365
202	0x3dca76b7	0.09885924
203	0xbe5b4d00	-0.21416092
204	0xbd9b7257	-0.07590168
205	0x3e3a3423	0.18183951
206	0xbe22f12f	-0.15912317
207	0xbd6184a0	-0.05505812
208	0xbdc1a40e	-0.09455119
209	0x3d9e1d05	0.07720379
210	0x3d19eb8e	0.037578158
211	0xbd476e4c	-0.04868917
212	0xbda637c6	-0.08116107
213	0x3e0b0ee6	0.13579902
214	0xbd7e0c5c	-0.062023506
215	0xbd10273c	-0.035193667
216	0xbd502792	-0.050818987
217	0xbc2c14ff	-0.010503053
218	0xbd8a5050	-0.067536
219	0x3cbb24ca	0.02284469
220	0xbcef0ba2	-0.029180352
221	0xbd1b3e9b	-0.037901502
222	0xbe1b35b1	-0.151572
223	0xbe84f254	-0.25966132
224	0x3d111c2f	0.03542727
225	0xbd0d5a18	-0.03450975
226	0xbe2402cb	-0.1601669
227	0xbdc08d36	-0.09401934
228	0x3d2ca452	0.042148896
229	0x3a759d3b	0.00093694375
230	0x3c00851e	0.007844238
231	0x3d942d0e	0.07235156
232	0xbdc45eca	-0.09588392
233	0xbdd72a32	-0.10506095
234	0xbdc4976e	-0.095991954
235	0x3c75710c	0.014980566
236	0x3d604626	0.0547544
237	0xbd4742f1	-0.048647825
238	0xbbc930d8	-0.006139856
239	0x3d9d00b0	0.07666147
240	0x3d38c259	0.04510722
241	0x3df49382	0.119421974
242	0x3cf34a9d	0.029698664
243	0x3ab930c0	0.0014128909
244	0xbc501f9d	-0.01270285
245	0x3cbaff1c	0.022826724
246	0xbdecc7ee	-0.11561571
247	0xbdd087fa	-0.101821855
248	0x3b8a6ce4	0.0042244066
249	0x3d854cc5	0.06508783
250	0x3da3205c	0.079651564
251	0xbe4ecefc	-0.20196146
252	0x3c8d4c33	0.017248249
253	0x3d7c70b5	0.061630923
254	0xbd93f418	-0.072242916
255	0xbd0ba92c	-0.03409688

l4/b f4 [4]
0	0x3c04b2a9	0.0080992365
1	0x3e09b72a	0.13448778
2	0x3d633d3f	0.05547833
3	0xbd7b431f	-0.06134331
