mymodel.npz (npz, 14164 bytes, 5 tensors)

predictor/l2/W f4 [41, 41]
000000 5d 57 27 3e ce 9e 69 bd 50 5a c4 be 64 ef a5 bd
       0.1634192 -0.057036214 -0.38350153 -0.08102301
000010 e8 74 4e bc 91 bd 07 bd 8d eb 2f bd 4a 7b 3e be
       -0.012601115 -0.03313977 -0.042949248 -0.18601719
000020 b1 0e 9d 3d 3a 88 4a bc 37 3f de 3e cb 25 ba bc
       0.07668818 -0.0123615805 0.43407604 -0.0227231
000030 3a 0f 9a be 61 ff c0 3d ac 67 92 3e 8d d1 bd 3c
       -0.30089742 0.0942371 0.2859472 0.02317121
000040 66 7a a3 be 3d 08 40 3e d4 75 c3 3d b4 eb 82 be
       -0.3192932 0.18753143 0.09543958 -0.25570452
000050 5f c7 08 bc 5a c6 01 bc ab 7f 24 be 08 9b 43 bd
       -0.008348315 -0.007920826 -0.16064326 -0.04775527
000060 16 eb 47 be 9d 49 38 bd 54 a2 dd be d9 ec cc 3b
       -0.19523272 -0.044992078 -0.4328791 0.0062538204
000070 ec 29 f7 3e d5 c5 ba 3d e6 bd e6 bd c0 44 0d bd
       0.4827417 0.09119765 -0.11266689 -0.034489393
000080 7b 7b b2 3d 1a dc 29 3d 3f 31 32 be 13 1e cb 3d
       0.08714958 0.04146967 -0.17401598 0.099178456
000090 f8 3c 39 bd aa 38 db 3c 76 70 ff bd 77 25 10 3e
       -0.04522416 0.026760418 -0.12472622 0.14076792
0000a0 85 69 b4 3d 70 5c b5 3e b3 77 88 3d 07 11 86 3e
       0.08809189 0.35422087 0.06663456 0.26184866
0000b0 72 85 e9 3d 31 24 42 bd 5c 92 1d 3e 81 64 01 3e
       0.11402406 -0.047397796 0.15387863 0.12635995
0000c0 15 49 5c be 56 b9 6f bd 88 66 a5 3e 65 3b a5 bd
       -0.21512254 -0.05852636 0.32304788 -0.08067969
0000d0 e8 7f d8 bd 29 5b ff 3d 37 44 19 be 6d e7 5f 3d
       -0.10571271 0.12468559 -0.14967428 0.054664064
0000e0 ef 3d 69 bd df a8 4e bd a1 07 15 be 76 ec 84 be
       -0.05694383 -0.050454017 -0.14553691 -0.25961655
0000f0 14 bc 9f 3e 92 f8 6b bd 7d d9 43 3e 55 14 72 bc
       0.3119818 -0.057610102 0.19125934 -0.014775355
000100 2b 00 33 3d 64 41 0c 3e 86 c3 50 be 8c 33 57 bd
       0.043701332 0.1369682 -0.20387086 -0.052539393
000110 9b 4f 44 bc 50 ef b0 bc 08 ae 34 3e 2a 4c 24 be
       -0.01198187 -0.021598488 0.17644513 -0.1604468
000120 b0 2f 3e 3e 9c 99 99 bd 85 16 42 3d b2 7e 9d be
       0.18572879 -0.07500002 0.047384758 -0.30760723
000130 0c 44 d9 3d 3f bd 3f 3e 39 d8 7b 3d 53 ab 53 be
       0.10608682 0.18724535 0.061485503 -0.20670824
000140 92 e1 82 be 28 9e 67 3e 1e ae b1 3e 2b 61 13 3d
       -0.25562721 0.22618926 0.34703153 0.03598134
000150 0b e8 12 3e 17 4e 11 3e 91 6f 61 be 61 39 6f bd
       0.1434633 0.14189945 -0.22015215 -0.05840433
000160 23 f8 9c 3d 1a 07 f8 bd 02 da bc 3d 78 25 9f be
       0.07664516 -0.121107295 0.09221269 -0.31083274
000170 9a 54 02 3e 07 87 b8 3d f6 70 7f 3e 49 8c b3 3d
       0.12727585 0.090101294 0.24945435 0.08766992
000180 67 17 46 be fb 7c ee 3d c5 fe a4 be 47 49 f1 3d
       -0.19344865 0.11644932 -0.32225624 0.11781555
000190 3c e9 4a be 68 ec 04 3e 19 2c a1 be d0 fd 53 be
       -0.19815534 0.12980807 -0.31478956 -0.2070229
0001a0 33 5e 22 3b 61 b8 51 3d e4 e0 bd 3d 48 aa 7c be
       0.0024775385 0.051201228 0.0927141 -0.24674332
0001b0 6e 76 25 3e bc 9c 83 bd 83 ab 93 bd df 16 1a 3d
       0.16158459 -0.06426379 -0.07210448 0.037619468
0001c0 2b dc 27 3e 6b 6c 97 bd 12 47 9c 3c b6 de b5 3c
       0.16392581 -0.07393726 0.019076858 0.022200923
0001d0 98 27 ff 3c e4 f1 1b be 13 3e 11 3e 88 eb c5 3c
       0.03114681 -0.15228993 0.14183836 0.024160162
0001e0 a3 f3 89 bd 62 ad 0e be 73 1c b8 be 82 9f 15 3e
       -0.06735923 -0.13933328 -0.35959205 0.14611629
0001f0 be 43 32 bd c2 8a 2c be 0d c8 d9 bc ab 69 9a 3d
       -0.043521635 -0.16849807 -0.02658465 0.07539686
000200 cb ea 8f 3e 2a 77 dd 3d 25 91 86 3d 39 bc 29 be
       0.2810882 0.10813744 0.06570653 -0.16575707
000210 e7 fd 9e 3c b8 69 89 3d 42 1b 1f 3d 02 dd e4 3e
       0.01940818 0.067096174 0.038844354 0.44699866
000220 dd 4a 29 be 8a 43 b1 3e 3f d9 83 bd b7 3c a2 be
       -0.16532464 0.3462184 -0.06437921 -0.31686947
000230 78 9e 5f 3d 6f 3e be ba 4b 2b 31 3e 03 79 12 3e
       0.054594487 -0.0014514456 0.17301671 0.14303975
000240 a4 69 44 be 78 13 63 bd 38 e6 3a bc bf 1e a3 3c
       -0.19180924 -0.05543849 -0.0114074275 0.019912122
000250 ba dc db be 01 c5 26 be da 2d 3f 3e bf 76 84 3d
       -0.42941839 -0.16286089 0.18669835 0.064679615
000260 ae fe 2e 3e 5b d6 fe 3c f0 13 91 3e ac 1d d6 3d
       0.1708934 0.031108072 0.28335524 0.10454878
000270 dd a0 4b be 87 95 27 bd cd 16 be 3b 52 22 3f bd
       -0.19885583 -0.040914085 0.005801058 -0.04666359
000280 6c 1e 4f 3e af cd c8 3d 23 47 5b 3c 1a ff 91 3d
       0.20226449 0.09804856 0.0133836595 0.07128735
000290 95 4a 4d be 82 38 47 3e b4 b6 e9 3c b6 5b 0e be
       -0.20047982 0.1945515 0.028529502 -0.13902172
0002a0 28 51 20 3e 2c 52 44 3e 09 9d 30 bd bc a8 11 3d
       0.15655959 0.19171971 -0.04311851 0.03556131
0002b0 08 3f b8 bd bd f0 03 bc 9e c2 26 3d 99 57 79 bd
       -0.08996397 -0.008053002 0.040712945 -0.060874555
0002c0 52 b9 53 bc a9 34 59 be eb 89 0e 3e ec 83 52 be
       -0.012922602 -0.21211495 0.13919799 -0.20558137
0002d0 a2 ae ff 3d fc cb 66 3d ed 14 94 be 51 38 bb bd
       0.124844804 0.05634688 -0.28922215 -0.09141601
0002e0 53 e2 26 3b 22 2f 12 be 1c 4d 7b 3d db 08 8f 3c
       0.002546449 -0.14275792 0.061352834 0.017460277
0002f0 9b 8b 19 be c4 f2 bb 3d 09 09 80 3d 2b c9 66 3e
       -0.14994662 0.09177163 0.06251723 0.22537677
000300 01 b7 dc bd 7e 58 00 bd 56 9b f0 3d 0f 1f 8f bc
       -0.10777093 -0.031334393 0.11748378 -0.017470865
000310 37 d4 14 3e c2 a9 80 be 04 3d cf 3d f8 4d 94 3e
       0.14534079 -0.25129515 0.1011906 0.28965735
000320 7b 92 2d be a9 4f 09 3d c0 d6 e6 bd ed 4b c7 3c
       -0.16950409 0.033523235 -0.11271429 0.024328196
000330 2d 6c 32 be 66 a3 5c be d2 58 66 be d8 df 1d 3d
       -0.17424078 -0.21546707 -0.2249482 0.038543552
000340 36 6e 52 be b3 94 d4 bd 79 4f f9 bd ed 52 26 3e
       -0.20549855 -0.103799246 -0.12173361 0.16242571
000350 81 7b d2 bd 00 0a 15 be 8e 0b 37 3e 99 17 16 3e
       -0.10277463 -0.14554596 0.17875502 0.1465744
000360 42 4c db 39 a2 76 3e bd 33 7e 90 3e 23 d4 8a be
       0.00041827752 -0.046499856 0.28221282 -0.27114972
000370 3a 61 f2 3b 8b b6 06 3e b7 b9 02 3e ec e6 b1 3d
       0.007396844 0.13155572 0.12766157 0.08686623
000380 96 58 b3 bd 85 39 43 3d ea 8b f6 3c 44 1b 1d bd
       -0.08757131 0.047662277 0.030096013 -0.03835608
000390 8e d7 53 be 5c 2c 84 3e 14 c6 8f be a9 3d 31 3a
       -0.20687696 0.25815094 -0.2808081 0.0006761202
0003a0 7b f0 17 3e de cd 83 bd 89 77 8d 3c 05 58 8f be
       0.1483783 -0.064357504 0.017268913 -0.2799684
0003b0 8b 9a fc bd fb d3 f9 3c 47 11 74 3e cd 08 69 bd
       -0.12334164 0.030496588 0.23834716 -0.05689316
0003c0 1c fd 24 bb 1a 2b 76 3e 58 bc eb bc 7b 45 3d be
       -0.002517528 0.2403988 -0.028776333 -0.18483536
0003d0 e8 d6 07 3e ba 9c b7 3c 0c 4d c5 3a 38 24 f0 3d
       0.13265574 0.0224136 0.0015052869 0.11725658
0003e0 19 df c1 be 4b 4f 8e be b4 95 1a 3e b5 ea 69 3e
       -0.37865523 -0.2779487 0.1509617 0.2284344
0003f0 5b 15 81 3a 19 2e cb bd c9 77 14 be 53 6a 5f 3c
       0.0009848283 -0.09920902 -0.1449882 0.0136361895

predictor/l2/b f4 [41]
000000 dc e1 1c bd 36 09 0a 3d 86 c6 2b bd b3 40 f0 bc
       -0.038301334 0.03370019 -0.041937374 -0.029327726
000010 2a 5e a3 bd 3a 0d c6 bc d6 c0 d3 3d 37 01 b3 be
       -0.07976945 -0.024176229 0.10339515 -0.34961864
000020 97 e1 a8 bc 98 8c 67 3c b7 eb 93 3c fa 9e c4 bc
       -0.020615382 0.014132641 0.018056734 -0.024001587
000030 bc b4 f6 bc 00 6f 11 3c 06 cb 05 bc 32 b9 0e 3d
       -0.030115478 0.008876562 -0.00816608 0.034844585
000040 43 a9 b2 3c 4b fe 70 bc 3e 93 ba bc 64 db c9 bc
       0.021809226 -0.014709066 -0.022775289 -0.024640746
000050 bb 6c 1c bc 13 6d 1a 3b 3e 66 6f 3c d2 49 5c bc
       -0.009547408 0.0023563548 0.014611779 -0.0134453345
000060 ff 1f c2 bc ea 7b 2a bc b9 26 9a bc 69 dc 55 bc
       -0.023696898 -0.01040552 -0.018817293 -0.013053038
000070 b7 1b 57 3d e3 da 5f be 5d a9 a0 bc 48 91 e5 bc
       0.052516665 -0.21860842 -0.019612009 -0.028023377
000080 ff f9 68 bc dd f1 90 bb 4c 7a 2e bc 76 e1 fa bb
       -0.01421976 -0.0044233636 -0.010649275 -0.0076562716
000090 79 ff 2d bc f9 84 34 bd 3f 3b d6 bd bb 63 77 bc
       -0.010619991 -0.044072125 -0.10460519 -0.015099461
0000a0 a9 90 b6 bc
       -0.022285776

predictor/l1/W f4 [41, 41]
000000 91 ad fd bc 5e 3e b9 3d 63 59 2e 3e f5 28 bf bd
       -0.030966552 0.09045099 0.17026286 -0.09333984
000010 41 ea 63 be 21 42 09 be bb b1 0d 3e 05 d0 46 3e
       -0.2225733 -0.13404132 0.1383733 0.1941529
000020 1c cf 47 bd 58 27 28 3e d8 41 94 3d 83 1f 11 3e
       -0.0487815 0.16421258 0.07239121 0.14172177
000030 d3 e1 74 bb 8c ed 87 3e df ab 13 3e 05 c6 75 bd
       -0.0037366047 0.2654842 0.14421032 -0.0600033
000040 d3 26 e0 3d 40 7e 22 3e 66 f8 1a 3c dd cf f0 bd
       0.10944905 0.15868473 0.009458637 -0.11758397
000050 75 fd 5f 3e 32 ee 87 3e 94 dc 1a 3e 88 51 95 3d
       0.2187403 0.26548916 0.15123206 0.072909415
000060 e1 75 67 3e db 0e 1f be f5 78 88 3e eb 20 41 be
       0.22603561 -0.1553301 0.26654783 -0.18860213
000070 38 b6 aa bd 2c 61 1c bc 76 5c 02 3e 04 df 0b bd
       -0.08335537 -0.009544652 0.12730584 -0.03414823
000080 d6 83 b8 3d f7 90 cf 3d 75 bf 89 3e ab 29 3d 3e
       0.09009521 0.10135072 0.26903883 0.18472926
000090 47 1d 56 3e 93 62 26 3d 39 87 3e bd 7f bf 1f 3d
       0.20909606 0.04062135 -0.046515677 0.039000984
0000a0 fa 16 95 bd f5 db e4 bd 16 42 6a be 11 f9 6a 3e
       -0.07279773 -0.11174766 -0.22876772 0.22946574
0000b0 e2 46 4f bb 96 70 04 be 88 ee 23 be 5c c7 02 bc
       -0.0031627943 -0.12933573 -0.16008961 -0.007982101
0000c0 81 4b 2b bd 9b 56 49 be 9a 1a 9a bd 4d ce 02 be
       -0.041820053 -0.19661944 -0.07524605 -0.1277401
0000d0 7b bc 9b 3e ec c8 75 bd dd 33 14 be b7 6e e5 3c
       0.30417237 -0.060006067 -0.1447291 0.028006895
0000e0 60 b0 db 3d fb cf 80 3d 5a 22 99 bd db 22 44 bc
       0.10727 0.06289669 -0.07477255 -0.011971201
0000f0 2a f3 47 be eb 1e 25 3d 77 97 32 be 7b f8 6f be
       -0.19526353 0.04031269 -0.17440592 -0.23434632
000100 cf 0d 56 3e 7d c2 01 bd 4e 28 1f bb 40 a0 34 bd
       0.20903705 -0.03167962 -0.0024285498 -0.04409814
000110 bd 96 47 3e cc a0 a2 be 5f 22 59 3d f3 a7 b9 3d
       0.19491096 -0.31763303 0.053011294 0.09065237
000120 39 85 59 be bf e0 2a 3a 38 62 b1 3d a1 76 4d bb
       -0.21242227 0.0006518475 0.08661312 -0.0031351226
000130 c2 64 c7 3e e5 36 3e bd 1d f9 ca 3d c7 47 85 bd
       0.3894406 -0.04643907 0.09910796 -0.06507831
000140 f0 bb f3 3d 00 7e 62 bd 76 30 9c bd 92 e0 70 3e
       0.119010806 -0.055295944 -0.07626431 0.23523167
000150 de 29 74 bd c5 1a 94 3c bb 21 47 b9 0d 59 a6 bd
       -0.05961024 0.018079171 -0.00018990684 -0.08122454
000160 81 68 bc bc 81 1b ac bd c6 14 c5 bc e3 2c 3c be
       -0.02299905 -0.084036835 -0.024057757 -0.18376498
000170 24 db 33 be 80 14 53 be 76 18 cb bd c5 19 a8 3c
       -0.17564064 -0.20613289 -0.09916775 0.0205201
000180 f5 68 60 3d 06 ec c6 bd 1e 73 0b 3d 96 da 27 3d
       0.054787595 -0.09712987 0.03404533 0.040979944
000190 7c 14 31 3e 20 8c a9 3d 43 5d 99 bd 4c fc a2 be
       0.1729297 0.0827868 -0.074884914 -0.31833112
0001a0 e6 e9 02 3e 42 a4 0e 3e 6d de 7d bd 07 ea 2d 3e
       0.12784538 0.13929847 -0.0619797 0.16983806
0001b0 59 81 51 be db b4 89 3d 90 d2 fb bd 0b 14 09 be
       -0.20459498 0.067239486 -0.12296021 -0.13386552
0001c0 bf 37 2f be bc 97 0b be a3 f6 91 3d f5 41 27 be
       -0.17111109 -0.13632101 0.0712712 -0.16333754
0001d0 b9 17 47 3d 91 e5 2b be d7 2b bd bd e6 5c 56 bd
       0.048606608 -0.16786791 -0.092368774 -0.05233469
0001e0 fb 24 23 bb de c7 40 3e 02 98 82 3d a2 1c 4a bd
       -0.0024893868 0.18826243 0.063766494 -0.049343713
0001f0 2f 45 af bd d5 ef 74 bd d9 8b 64 be 78 5c bd 3d
       -0.085581176 -0.059799034 -0.22318973 0.09246153
000200 75 e3 0e be 03 18 22 3e cb 22 61 bd 6c f1 39 be
       -0.13953955 0.15829472 -0.05496482 -0.18158501
000210 3c 7a 87 be 05 37 f6 bd e8 00 cd 3d 59 ed b4 bd
       -0.26460445 -0.12022213 0.100099385 -0.08834333
000220 14 f9 af 3d 22 a0 bc bd 10 61 d3 3e e7 f7 1f 3d
       0.0859243 -0.092102304 0.4128499 0.039054777
000230 c4 33 5d 3e 80 a6 75 3d dc 36 41 3e 12 e4 66 3e
       0.21601778 0.05997324 0.18868583 0.2254794
000240 29 59 4c bd f8 a3 94 3c bd 91 e8 3d cc 16 85 3d
       -0.049889717 0.018144593 0.11355922 0.06498489
000250 1f 02 b0 bd de e8 cf 3d 08 73 64 be 61 e0 96 3d
       -0.085941546 0.10151838 -0.22309506 0.07367016
000260 f1 f8 f6 bd 42 8f 45 3c 2d eb 8d 3d 35 bb d9 bd
       -0.120592006 0.012058081 0.06929622 -0.1063141
000270 22 3e 63 3e bc d8 04 ba 64 be f8 bc 15 94 42 3e
       0.2219167 -0.00050676963 -0.030364223 0.19001801
000280 c6 e8 79 3e 4c 95 57 be 90 73 20 bd c8 03 e2 bd
       0.24405202 -0.21053046 -0.03917271 -0.110358775
000290 3a e0 a9 3b 72 5e 17 bd 06 d3 7d bd d5 3f ca 3d
       0.0051842006 -0.036955304 -0.061968826 0.09875456
0002a0 b4 09 1b 3e e0 d6 2b 3d a0 00 2b bd 0d 90 84 3d
       0.1514042 0.041952968 -0.041748643 0.06472788
0002b0 99 75 91 3d 60 f1 d9 bc 10 2a 95 3e ee 71 68 3e
       0.07102508 -0.026604354 0.29133654 0.2269971
0002c0 ce db 6e 3d d1 89 76 bc 5a db c4 3d 7f 33 b7 3e
       0.05831509 -0.015047506 0.096121505 0.35781476
0002d0 69 87 5f 3d 14 f9 79 bc 8a 31 0b bd b4 77 bb bd
       0.054572497 -0.015257139 -0.03398279 -0.09153691
0002e0 33 22 50 3e 7a 9e 40 bd c4 63 9b 3c cb 65 9c 3d
       0.20325546 -0.047026135 0.01896847 0.07636603
0002f0 f1 b2 4a 3e cf fd c0 3c a3 99 a3 3d 0c 9c 5c 3d
       0.19794823 0.023558525 0.07988288 0.053859755
000300 39 1f 20 be c6 27 19 3d 6c 7f d1 bd 26 ca 4e bd
       -0.1563691 0.037391447 -0.10229382 -0.050485753
000310 aa d4 ee 3c 69 7a 83 3e f4 c9 27 3d 43 6b db 3d
       0.02915414 0.2567933 0.040964082 0.10713818
000320 9d f0 f4 ba 14 0a 2c be dd 61 21 be 68 53 8f be
       -0.0018687431 -0.1680072 -0.15759988 -0.2799332
000330 51 47 97 bd cb 7f af bd ab 18 24 3d 13 a0 b5 3d
       -0.073866494 -0.085692964 0.040062588 0.08868422
000340 c0 ef dd 3c 4a 48 0c 3d 1b eb f8 bd be 92 bc 3d
       0.02709186 0.034248628 -0.12154218 0.09207676
000350 a4 cb a3 3d 6f 45 7b be 3b e5 8b 3d e9 dd 25 be
       0.07997826 -0.24538206 0.068308316 -0.16197933
000360 8e c4 f2 3d 61 91 66 be 7a a8 be 3d 34 19 62 bd
       0.11853896 -0.22516395 0.09309478 -0.055199817
000370 d8 1b 86 3d 4c 4b a3 39 32 c2 06 bd a0 20 28 be
       0.065482795 0.00031145883 -0.032900043 -0.16418695
000380 14 e2 4f 3d f0 5d 5f be 82 2b ca 3c 25 3e 7f be
       0.050752714 -0.21813178 0.02467895 -0.2492605
000390 17 1e 89 3b d0 39 1b bd 14 a5 36 be 7c 67 39 3e
       0.004184495 -0.03789693 -0.1783641 0.18105882
0003a0 0a ef a2 bd c4 8c 04 bd b2 b0 c1 3d 4f 32 85 3d
       -0.07955749 -0.032360807 0.0945753 0.06503736
0003b0 46 8a c0 be a0 c9 e1 3d cf 92 1e 3d 18 da 8d bd
       -0.37605494 0.11024785 0.038714226 -0.06926364
0003c0 4a 59 2b bc 6d 34 93 bd 22 51 7e bd 61 4f 40 3c
       -0.0104583 -0.07187734 -0.062089093 0.011737675
0003d0 13 d7 2f 3e 17 ab 09 3d d8 f3 16 be b0 62 c1 3d
       0.17171888 0.03361043 -0.14741457 0.09442651
0003e0 af 70 9a bd ed 3b fa 3b c0 c9 e0 bc bd 5b 8b bd
       -0.07541024 0.0076365382 -0.027439952 -0.06804607
0003f0 88 84 86 3e 8a c2 63 3d 5e c2 6b bd 4b a2 5c 3d
       0.26272988 0.05560545 -0.05755841 0.053865712

predictor/l1/b f4 [41]
000000 56 58 01 3d 94 c7 bf bc 3d 45 99 3d d6 55 b7 bc
       0.031578384 -0.023410596 0.07483909 -0.022379797
000010 17 73 39 bb 7b de e9 3c 83 fa b4 ba 8b 55 89 bd
       -0.0028297359 0.02854847 -0.0013807568 -0.06705769
000020 32 f8 3e 3c cd 80 9e 3d 34 7c 0e 3c 18 46 13 bc
       0.011655854 0.077394105 0.0086966045 -0.00898888
000030 45 21 a3 bc 00 00 00 00 46 7c 2b bd 0f d7 af 3c
       -0.019913325 0.0 -0.041866563 0.021464853
000040 34 8d 7b 3d 6b fe 23 3c 62 ab ae bc 94 d1 e1 bd
       0.06141396 0.010009388 -0.021321956 -0.11026302
000050 3e 2c bf bc c1 e9 7f 3c 60 1b a8 ba 70 fc 57 bc
       -0.023336526 0.015619696 -0.0012825541 -0.013182744
000060 97 b7 12 bc 47 d0 47 3c e6 f0 eb bd b7 a2 a2 bb
       -0.008954904 0.012195653 -0.11520557 -0.004963245
000070 7a 74 65 3e 55 95 cd bc c2 1a 4f bd f7 e8 aa bc
       0.22407714 -0.025095621 -0.050562628 -0.02086304
000080 0e 5b 71 3c 50 55 3a 3c 4c 19 1d bd 58 dc 04 3d
       0.014731182 0.011372879 -0.038354203 0.0324367
000090 3e b4 26 3d 00 c8 af 3d e5 ba d7 bd 66 be d7 3d
       0.040699236 0.08583069 -0.10533694 0.105343625
0000a0 71 41 d8 bc
       -0.026398392

predictor/l3/W f4 [1, 41]
000000 b4 b1 98 3d 2f 17 83 bd 0c cc 36 3d 7e dd ca 3d
       0.07455769 -0.06400906 0.044628188 0.099055275
000010 2e 26 a1 bd fe 0e d2 3d 79 7e 75 3d 31 54 b1 3e
       -0.0786861 0.10256766 0.059935067 0.34634545
000020 6b ac 1d 3e 89 0d 88 bc eb 63 9c 3d 79 fa d8 bd
       0.15397803 -0.016608017 0.07636245 -0.10594649
000030 e4 a7 0e 3d a8 42 24 be 2b 27 82 be 11 2a 26 bd
       0.03482808 -0.16041052 -0.25420508 -0.04056746
000040 da fb c9 bd c5 b1 c1 bd 5d 95 c6 3c ff e4 ff 3c
       -0.0986249 -0.09457735 0.024241144 0.031237124
000050 ef 7b 15 be 9b c6 44 3e cb 39 32 bd fe 00 56 bd
       -0.14598058 0.19216387 -0.043512147 -0.05224704
000060 04 1c fb 3c 29 1c b0 bd 1d c3 3c 3e 01 60 d9 3c
       0.030653007 -0.08599121 0.18433805 0.026535036
000070 35 88 da bd 8f d0 98 be 4c 85 06 3e 13 b2 9b 3d
       -0.10670511 -0.29846618 0.13136786 0.07602324
000080 ca 40 4c 3e 4f 67 8b bd 4e 33 2b be ac b0 b1 bd
       0.1994659 -0.06806814 -0.1671879 -0.086762756
000090 f5 91 41 3d 5b cf d3 3d e0 a7 d6 3c a1 6a 2b 3d
       0.047258336 0.10342284 0.026203096 0.041849736
0000a0 ed 4c 66 3d
       0.056225706
