mymodel.npz (npz, 14187 bytes, 5 tensors)

predictor/l1/W f4 [41, 41]
00000000: 13b9 213c a4b5 533e 1a8c 3f3e 9bdc 58be
00000010: a4f0 b63e c85d b53d 2e0c a7bc a62e 04be
00000020: 2cf0 9c3e 543f 983d 7793 6abe 1a3e 07bd
00000030: 7e1e 05bd 87ea e9bc aa80 843e b529 6fbe
00000040: e576 1a3d 8161 503e 5eef c73d 3901 903e
00000050: ae03 a2be ddba d6bd e99d 8b3e 9de1 32bd
00000060: cf95 20bc 6434 4a3e 9116 33bd fb9a 583e
00000070: e3f8 5dbd b108 8bba 7b45 a53c af4f b539
00000080: b711 b33d b521 1bbc b97d 9ebd 2586 c63b
00000090: 4f51 b83d 856e 08bd 433c 343e 2aa3 92bd
000000a0: 2302 9cbe 39dd 633c 7116 273e 9105 0abe
000000b0: feb4 283e 1dd5 afbe bc7a 673e 10de dc39
000000c0: b066 4ebd c2c1 dabc ad84 45bd 2dc8 fb3d
000000d0: 7085 dabd 14ee 64bd 4eb3 91be cf40 3fbe
000000e0: 6d45 60be 3526 34be 3e1a c5bd 6aca d53c
000000f0: ef0a 443e 7ffa cf3c ab43 1abe c808 c03b
00000100: 0130 5fbe 4438 b63c cb02 3fbe 1833 25be
00000110: 988f ea3d 992f 0abe 806a babd ba78 bebd
00000120: eb3c 9ebe b0fc 46bd c50b 13bd 27e6 23be
00000130: 2513 05be daae d9bd 5f89 36be ada6 3a3d
00000140: 668f 713c a7f0 023e e675 b2bc 2dc4 d7bd
00000150: a522 633d 4fdf 483d 417c 503e f76f 1b3d
00000160: 6c2e c93d bdd1 c3bd 5c49 cb3d 5602 0d3e
00000170: 59c9 5fbd c070 023e 3b86 c33d 76ca 933e
00000180: 9d3a 7cbd 8482 d03d 1f53 10be b143 043e
00000190: f74b d93d bb19 31be ea63 f1bd d4c8 563d
000001a0: 4ad7 3e3e f6e9 48be f732 febd 38e7 2c3c
000001b0: efa4 e23c b9ed 11be d4f7 2e3e 692d 633d
000001c0: 2463 763d 41e9 383e 8dcd 4abd 21c0 87bd
000001d0: 2eeb bc3d aaff babd ed3c b03d 40ff a6bd
000001e0: 5ba2 91be 1c4e 933d 550c 9c3e f0ec b1be
000001f0: a535 35be b4a7 ea3d 747e ba3d 1b19 87bc
00000200: 0741 79bc 4ba0 95be 8772 0c3e d3c8 1a3e
00000210: 1dae be3e e4b1 87be 6164 21be fab5 b23d
00000220: 5ef3 dfbd 8a85 c03d d103 8abd eb39 59be
00000230: 2666 2d3e 3c13 973c 0ef1 19bd 28d8 3bbd
00000240: 5923 02be c2dd 68be 658c 183d 25f3 c7bd
00000250: 63f8 4fbe 48c5 83be c0bc 1bbe 9e32 333e
00000260: 8bd2 efbc c465 093e 87e1 17be 3833 be3d
00000270: c832 ad3c 5545 41bd 9b61 2fbd af72 d5bd
00000280: c56c ffbd f033 053e 775f 3bbd 180a 723d
00000290: 029b e7bd 3eee 37bd b4dc 08bf c9f4 263e
000002a0: e5fc b9bc d590 72be e736 803e a2f1 8bbe
000002b0: 91b4 1abd b821 403d 410f 2b3c 0be3 913d
000002c0: c71a 62bd 7914 81be 0adf 3d3d 48ff 27be
000002d0: 88f6 c23d b5f0 74bd ba94 873d 03c1 42be
000002e0: 2063 4abe e5e1 acbe a0fc 29be 9393 fcbd
000002f0: 033b 2dbc be16 bb3d d29b 94bd d4b3 773e
00000300: d4ea e6bd 4cd0 a63c a443 de3d 5e93 923d
00000310: 324f 1f3e 7f79 32bd 8239 f43d bef8 203e
00000320: fc51 503e e12c 1abe 8ed4 da3d f2ae a93e
00000330: ef32 9f3d bef8 ee3d a1b8 1b3e 11f0 f6bd
00000340: 795f 263e 11ac 953e 6442 143e 7c03 07be
00000350: 074f 5bbe 48e9 bd3d 306b 4b3e f23a 34bd
00000360: eab8 20bb d360 413e 038e cc3e 7997 11be
00000370: 1542 74be 0438 2e3e b0bc 013d 6d63 23bd
00000380: c01b d9bc 55ee 003d cf4f 0c3f 740d 2abe
00000390: 2aa3 0abe 9cdb 1abe b93b 9cb9 dd79 a7bc
000003a0: a886 3d3d 77e8 873d 8653 1b3d e72c 3c3e
000003b0: c27e 8fbc 141c 2a3d 1f51 ec3b 5d3c 4cbe
000003c0: 756b 8dbe 2c29 693d ac73 8b3e 06eb 6abe
000003d0: 7852 3dbe 36fd 1bb9 15cb 883c caf9 1a3d
000003e0: de6e b2bd 1e39 0ebe df2e 063e a40d 4c3e
000003f0: 9dc5 2d3d 0507 a33e 836a 8a3e d15a 1d3e
0.009870785 0.20674759 0.18705788 -0.21177904 0.3573047 0.08855778 -0.02039155 -0.1290842
0.30651987 0.07433954 -0.22907816 -0.03301821 -0.032499783 -0.028554214 0.25879413 -0.23355754
0.037711043 0.20349695 0.097624525 0.28125933 -0.31643432 -0.1048486 0.27268913 -0.043672193
-0.009801342 0.19746548 -0.043722693 0.2115287 -0.054192435 -0.0010607449 0.020174732 0.0003458238
0.08743613 -0.009468486 -0.077388234 0.0060584717 0.089998834 -0.033308525 0.17601113 -0.07160027
-0.3047038 0.013907724 0.16317154 -0.13478686 0.16475293 -0.3434228 0.22605413 0.0004212712
-0.0503909 -0.026703719 -0.048222233 0.1229404 -0.106699824 -0.05589111 -0.2845711 -0.18677066
-0.21901484 -0.175927 -0.09624146 0.026097495 0.19144796 0.025388 -0.15064876 0.005860422
-0.21795656 0.022243626 -0.18653409 -0.16132772 0.114531696 -0.1349472 -0.091023445 -0.093003705
-0.30905852 -0.048580825 -0.035899896 -0.16005765 -0.12995584 -0.106290534 -0.1782584 0.04556911
0.0147436615 0.12787114 -0.021784734 -0.105354644 0.05545296 0.04904109 0.20359899 0.037948575
0.098233074 -0.09561489 0.099261016 0.13770422 -0.05463538 0.12738323 0.09547087 0.28865403
-0.061579335 0.10181144 -0.14094208 0.12916447 0.10610192 -0.17294972 -0.11786635 0.05243762
0.18636814 -0.19620499 -0.124120645 0.010553174 0.027666537 -0.1425084 0.17086726 0.05546323
0.06015314 0.1805773 -0.049512435 -0.066284426 0.092245445 -0.09130795 0.08605371 -0.08154154
-0.2844418 0.071926326 0.3047816 -0.3475108 -0.17696245 0.11457768 0.0910615 -0.016491463
-0.015213258 -0.29223856 0.13715564 0.15115671 0.37242213 -0.26502907 -0.15760948 0.087261155
-0.109350905 0.094004706 -0.06739009 -0.212135 0.16933498 0.018441789 -0.037583403 -0.04586044
-0.12708797 -0.22740844 0.037243266 -0.09763173 -0.20309596 -0.2573645 -0.15208721 0.17499778
-0.0292752 0.13417727 -0.14832126 0.09287113 0.021142378 -0.04718526 -0.042817693 -0.10422265
-0.12471918 0.13008094 -0.04574534 0.059091657 -0.11308862 -0.04490494 -0.53461766 0.16304316
-0.022703597 -0.23688062 0.25041887 -0.2733279 -0.037769858 0.046907157 0.0104406485 0.07123383
-0.055201318 -0.25210932 0.046355285 -0.16405976 0.09519678 -0.05979987 0.06620164 -0.1901894
-0.19764376 -0.33766094 -0.16600275 -0.12332835 -0.0105731515 0.09135197 -0.07256283 0.24189693
-0.11275259 0.020362996 0.10852745 0.07157014 0.15557554 -0.0435729 0.11925031 0.15719888
0.20343775 -0.15056182 0.10685073 0.33141285 0.07773387 0.116685376 0.15207149 -0.12057508
0.16247357 0.2923284 0.14478451 -0.13184923 -0.21416865 0.092730105 0.19865108 -0.044001527
-0.002452428 0.18884592 0.39952096 -0.14217938 -0.23853333 0.17013556 0.031674087 -0.03988974
-0.02650249 0.03147729 0.5480928 -0.16606694 -0.13538805 -0.15122837 -0.00029799136 -0.020443851
0.046270996 0.06636136 0.03792145 0.18376504 -0.017516498 0.041530684 0.007211819 -0.19944902
-0.27621046 0.05692403 0.27236688 -0.22941217 -0.1848849 -0.0001487628 0.0166984 0.037835874
-0.087125525 -0.13888976 0.13103817 0.19927078 0.042424787 0.31841293 0.27034387 0.15366675

predictor/l1/b f4 [41]
00000000: 4c1c 8d3b e763 67bd e8c2 9ebc acfa 24bc
00000010: b15f d2bc 9395 32bb 570f 9fbd c789 cebb
00000020: 3a15 953d 229a 90bc a135 7dbc d69d 98bc
00000030: 8aac 85bc 80b8 1b3d 7008 00be a5bf a33b
00000040: fa25 0ebd 37a3 82bc 99bd c9bc 34ae 25bc
00000050: 7e29 24bc 06ec 8c3d 0da5 17bb 3c74 f93b
00000060: 855c 24bc 425f 333b 5aec 8bbc b467 973c
00000070: 230a 31bd 3d5b a4ba ec4c a43d 2b7e 2f3d
00000080: 4e8a f73b e4b5 43bd d58b e03c 9397 75bc
00000090: 0fb3 eebd 1d3c 28bb 2f31 60bc 5690 b53b
000000a0: 50cb 85bc
0.0043063518 -0.05649176 -0.019380048 -0.01006953 -0.025680395 -0.0027249798 -0.07766598 -0.0063030454
0.07279439 -0.017651621 -0.015454681 -0.01862995 -0.016317625 0.03801775 -0.12503219 0.004997211
-0.034704186 -0.015946968 -0.02462654 -0.010112334 -0.010019658 0.068809554 -0.002313915 0.007612733
-0.010031824 0.002737001 -0.017080475 0.018482067 -0.043222558 -0.0012539398 0.08022484 0.042844933
0.007554329 -0.047780886 0.027410427 -0.014989751 -0.116552465 -0.0025670596 -0.013683601 0.005540888
-0.016332299

predictor/l3/W f4 [1, 41]
00000000: b38d 7fbe 5046 493e 7f3c 2fbe 93b7 d7bd
00000010: ed83 8b3e 83be ddbc 80bd b33c 1eaa 34bd
00000020: 56f9 97be eaaa 20bd d851 8d3e 0b7e 23bd
00000030: 1130 3e3d ebbc 39bd f81b 19ba 7ad7 abbd
00000040: ca11 01be 10cb 103e 2dfd 8bbe aae3 babd
00000050: 354c a2bd 8ed9 9dbc 4cb8 9cbd 1d48 3ebd
00000060: 47e8 b83d 95c1 d0bd 64d4 753e ade0 1ebe
00000070: cac5 f1bd d3c2 6fbe fbf2 153d df0e 193e
00000080: eb4e 12be ba3a e6bd c544 523e 8c45 05bf
00000090: 5e4c 55bc 7ea5 bdbe 0200 f5bd ea13 d9bc
000000a0: 8132 873e
-0.24956398 0.19655728 -0.17112921 -0.10533061 0.2724909 -0.027068382 0.021940947 -0.04410755
-0.29682416 -0.039225496 0.27601504 -0.039915126 0.04643256 -0.04534618 -0.00058406545 -0.08390708
-0.12604442 0.14139962 -0.27341595 -0.09125455 -0.079246916 -0.019268777 -0.07652339 -0.04645549
0.090286784 -0.10193173 0.24006802 -0.15515395 -0.118053034 -0.23414163 0.036608677 0.14947079
-0.14287917 -0.1124167 0.20534046 -0.52059245 -0.013018696 -0.37040323 -0.11962892 -0.026498754
0.2640572

predictor/l2/W f4 [41, 41]
00000000: f189 afbc 86a7 19bc 9713 923c 77e2 9dbc
00000010: 7826 2dbf 8b6d 4cbc d086 cebc 976c 9fbe
00000020: d500 0ebe 85cb 65bd 2255 cabe 77de c63d
00000030: 7841 aebd a65e 523e 0bc1 25be 3b84 bc3b
00000040: 1738 d33e a679 50be 7b9b d13e 58a3 44bc
00000050: 3ad3 463d a270 eabd e5ed b03c 6f66 ebbd
00000060: 9d55 cf3e 5613 26bd 2aa3 e83d 0b15 ecbd
00000070: 75a6 65be 2e83 263e 8937 893d 33f6 7b3d
00000080: 4a94 123c 7316 28be 0dac 1cbd 7340 57be
00000090: 5412 a13f f93e b5bd 14c2 5c3e 298b 9a3d
000000a0: 83ec 863e 5a95 cf3e 0008 6e3a 46df db3b
000000b0: 39ba 623d 1bf9 b53e 2e16 943e 7af0 673d
000000c0: 1145 6e3e 54b5 bb3e d559 24bd f89b fbbd
000000d0: 6ec6 b73d 7333 a53d 10c2 7dbe f31e 6abe
000000e0: c6d2 87bc 1bba 66bd 3fa6 173e c71b c63c
000000f0: 3929 dd3d d3ca 2cbe ec4c 6e3d 5f4a 3dbe
00000100: 4df4 303e 271e cc3d 5e6c a23e c40b 29be
00000110: c479 073e 9996 a03e 5394 513e 578c 5a3c
00000120: 3dd7 3c3e 66c6 94bd 4341 343e 3e4a 463d
00000130: 9432 b0bd 4005 ffbc 2141 fe3d 7bad 60bd
00000140: 265b 073e 9467 e13d 38c5 43be caf3 743e
00000150: 2583 acbc 05cd 8bbe b6a7 103e 85e4 bb3e
00000160: 6f88 b63d bf7b 053e 310a 09be 0230 093e
00000170: e584 2a3e 903e 883d 0fe1 5c3e c0f9 d4be
00000180: 6df1 8c3e 0693 26be 0024 973d ce59 06bd
00000190: 4b7a 623e ea0d 463d 7e67 d63d 142d 40be
000001a0: b10f a3bd ace4 d43c cb8b 403e 2fc6 e83d
000001b0: eb7d 04bc 7892 e5bd 5a64 35be 7db5 91bd
000001c0: f9f3 3bbe 18cc 26be 74b4 5f3e 15ac d93d
000001d0: 1cf1 b93d 966e 86be 7e32 3cbd fa60 f13d
000001e0: cc28 8c3e 7ada 31be 64a3 9b3c 0be5 793d
000001f0: 321a fe3d f3ce 30be 8e94 acbe aaaa 993d
00000200: 89ac db3d 9eb8 32be 9bdc 473d 703e 553e
00000210: c6c0 eabb 51fb 0bbe 4474 123e d614 453e
00000220: 94e1 09be 7983 07b9 b248 8ebd 550c 5d3e
00000230: 8e27 40bd 5f88 21bd 797c aabd 0896 983d
00000240: 8d65 db3d 3203 363c 6168 02be 17a2 46bb
00000250: 541f f8bd a016 113e 2af7 0fbd 8d38 a63e
00000260: c1be 1f3e f73b 5c3d b7f6 713d 6316 b3be
00000270: e7a7 e93d ada3 cc3d 70fc 59bb 4060 913c
00000280: 8dba bcbd c939 78be eaec 3bbd c2bb 083e
00000290: 8bcd 63be d2e1 923e 61a2 cd3d b727 dbbd
000002a0: efbe 0fbe 665c f13c 4644 073d 0470 9d3e
000002b0: c088 423e bf45 1ebc be00 a63d 05e2 c3be
000002c0: 0adc 343e 78ee 10be 9157 3f3e e778 06be
000002d0: 8986 4cbd ffad e5bd 65db 393e 8033 22be
000002e0: 6016 a43d e868 2a3e 990a 913d 6f4d 1bbe
000002f0: 7b5a 59be f9d9 bbbd 7361 593d 4e9c 27be
00000300: 4c73 dabe 8776 37bd 0494 af3d 9ea2 1e3e
00000310: a646 b6bc e36c a23c 86df f4bd 09a2 cdbe
00000320: 7bf3 41be 7a5d 88bd 3e54 893e 5f0a 9cbd
00000330: 8aa1 ab3c dbf8 f8bd 1bd6 1fbe 5f23 1fbd
00000340: 6e8c cebd dcf4 7cbe 02ef f03d 723f 3bbd
00000350: 978e 89be c159 e23c 44af 82bd 37a0 b73e
00000360: 758a 8bbe aa27 873e 2e5a fb3e e016 14be
00000370: 02ac 29be 6ce1 f63d 10bb aa3d 32c4 ab3d
00000380: 23ec acbc 58c5 073e 1dcf 763e 59f0 b3be
00000390: 578e 35be 265c 6ebe df22 6e3d 7e71 62be
000003a0: a377 5cbe 90f9 ea3d 1ead 0d3e 664c 883e
000003b0: af97 56bd f970 893d 9592 cebd b391 5d3d
000003c0: 749f 92bd ca1f 9a3d 0b60 89be 5f06 f9bd
000003d0: 68fb b0bb 74ad fc3b 1560 a53d 7831 d5be
000003e0: 3237 4ebe 57e6 41bd e4ee b6bd e1f0 513d
000003f0: f610 10bd e752 10bd ae1b 4f3e 3508 3fbe
-0.02142808 -0.00937832 0.017831607 -0.019273026 -0.67636824 -0.012477289 -0.025210768 -0.31137535
-0.13867505 -0.056102294 -0.39518076 0.097104006 -0.08508581 0.20543918 -0.16186921 0.005753068
0.4125373 -0.20358905 0.40938935 -0.012001835 0.048541285 -0.11447264 0.021597812 -0.11494147
0.40495005 -0.040545784 0.11359246 -0.11527451 -0.2242678 0.16260979 0.067000456 0.06151409
0.008946488 -0.16414814 -0.038250018 -0.21020679 1.2583718 -0.08849902 0.2155841 0.07546074
0.2635232 0.40543634 0.00090801716 0.006709966 0.055353377 0.35541615 0.28923172 0.05662582
0.23268534 0.3666178 -0.040124733 -0.12285608 0.08973394 0.08066454 -0.2478106 -0.22863369
-0.016579997 -0.056329828 0.14809512 0.024183167 0.10798878 -0.16874246 0.058178827 -0.18485402
0.17280693 0.099666886 0.31723303 -0.16508394 0.13230044 0.31364897 0.20466737 0.013339124
0.18441482 -0.07264404 0.1760302 0.048410647 -0.08603397 -0.031130433 0.12414766 -0.054852944
0.13218364 0.11006084 -0.19118202 0.23921123 -0.021058628 -0.27304855 0.14126477 0.36697784
0.089127414 0.13035487 -0.13382794 0.1339722 0.16652258 0.06652558 0.21570228 -0.41596794
0.27527943 -0.16267022 0.07379913 -0.03280049 0.22116964 0.048353113 0.10468958 -0.18767196
-0.07961977 0.025987945 0.18803327 0.113659255 -0.008086662 -0.11209577 -0.17714062 -0.07114694
-0.18354787 -0.16288793 0.21846181 0.10628525 0.09079191 -0.26256245 -0.04594659 0.11786075
0.27374876 -0.17368498 0.01899881 0.061009448 0.1240734 -0.17266445 -0.33707088 0.07503255
0.10726268 -0.17453238 0.04879437 0.208246 -0.0071640937 -0.13670088 0.14302164 0.1924623
-0.13464957 -0.0001292358 -0.06947459 0.21586736 -0.046912722 -0.039436694 -0.083245225 0.07450491
0.10712729 0.01110916 -0.1273513 -0.0030309015 -0.1211535 0.14168787 -0.035147823 0.3246502
0.1560011 0.053768124 0.059073176 -0.34978017 0.11408978 0.09992156 -0.0033262037 0.01774609
-0.09215269 -0.24240793 -0.045880236 0.13352874 -0.22246377 0.28687912 0.10040737 -0.107009344
-0.14037679 0.029463004 0.033024095 0.30749524 0.18997478 -0.009660183 0.0810561 -0.38258377
0.17662063 -0.14153469 0.18685748 -0.13132058 -0.04993299 -0.11214828 0.18150099 -0.15839958
0.0801208 0.16641581 0.070820995 -0.15166257 -0.21225922 -0.09172434 0.05307145 -0.1636822
-0.4266609 -0.04479077 0.085731536 0.15491721 -0.022250485 0.019827312 -0.11956696 -0.40162686
-0.18940537 -0.06658454 0.26822084 -0.07619166 0.020951051 -0.121568404 -0.15609019 -0.038852092
-0.100853786 -0.24702781 0.11764337 -0.045714803 -0.268666 0.027630689 -0.063810855 0.35864422
-0.27254072 0.2639745 0.4909224 -0.14461851 -0.16569522 0.120547146 0.083364606 0.08387031
-0.021108693 0.13258874 0.24102445 -0.35144308 -0.1773008 -0.2327734 0.058138724 -0.22113606
-0.21530013 0.114733815 0.1383557 0.26620787 -0.05239075 0.06711001 -0.10086552 0.054094028
-0.071593195 0.075255945 -0.26831087 -0.12159418 -0.0054010637 0.007711107 0.08074967 -0.41639304
-0.20138243 -0.04733881 -0.089322835 0.05125511 -0.035172425 -0.03523531 0.20225403 -0.18655474

predictor/l2/b f4 [41]
00000000: 6a46 12be 37b4 813a a9ab 19bc c8d2 04bc
00000010: 46c3 c3bd d93e ff3b 1827 763a 9255 cbbb
00000020: 26f0 093d 3d33 7b3e 10dc b8ba 6252 b93d
00000030: ae7e 6bba 889c 99bb 270b a1bc f545 1b3b
00000040: 1065 373b 6ed1 003c cd54 463a e866 83bb
00000050: c694 60bc 392b 053d 5335 0f3b 8172 12bc
00000060: 58c4 97bc 0872 253c 1d9d 0bbb 93b7 a5ba
00000070: 39fe af3c acc2 92bb a448 3d3a 3d17 dfb9
00000080: 7dff 9a3a 646f 71bc 8568 91bc a385 3e3c
00000090: 316f 94bb c579 483e 1105 6b3b 4498 59bc
000000a0: bdfa e2ba
-0.14284673 0.0009895627 -0.009379306 -0.008106895 -0.0955873 0.0077894744 0.00093899807 -0.006205269
0.03367629 0.24531265 -0.001410367 0.090489164 -0.00089834153 -0.0046878494 -0.019658638 0.002369282
0.0027983822 0.007862432 0.0007565737 -0.00401007 -0.013707345 0.032511923 0.0021851852 -0.008938433
-0.018526241 0.010097988 -0.0021303364 -0.001264321 0.021483527 -0.004478773 0.0007220602 -0.00042551188
0.0011825409 -0.01473603 -0.017750034 0.011628541 -0.0045298566 0.19577701 0.0035861174 -0.013280932
-0.0017317157
