mymodel.npz (npz, 14175 bytes, 5 tensors)

predictor/l1/b f4 [41]
0.0021998629 0.0100019835 -0.0119146975 -0.012566577 0.0056837886 0.026695082 -0.017149061 -0.019211637
-0.014275503 -0.018357461 -0.0017717358 -0.012335683 -0.01352398 -0.024575327 0.02365364 -0.029135069
-0.013630029 -0.008944092 -0.020687997 -0.0075894753 0.04005766 -0.020982945 -0.011707282 -0.0014212938
0.0020355969 -0.0317699 -0.0057107746 -0.003720747 -0.02323912 0.010759534 -0.012943402 -0.032124776
-0.016309043 -0.018174896 -0.0029285403 -0.026494294 0.019134896 -0.02292048 0.055935886 -0.019232392
0.018715812
00000000: 932b 103b 5cdf 233c dd35 43bc 0be4 4dbc
00000010: 133f ba3b a5af da3c 307c 8cbc b961 9dbc
00000020: cde3 69bc 6362 96bc 9739 e8ba 9b1b 4abc
00000030: af93 5dbc 3252 c9bc 47c5 c13c abac eebc
00000040: 7c50 5fbc 3e8a 12bc e079 a9bc 22b1 f8bb
00000050: 8013 243d 6de4 abbc e6cf 3fbc b54a baba
00000060: a667 053b 2821 02bd 7321 bbbb c7d7 73bb
00000070: f85f bebc c248 303c 9010 54bc 4595 03bd
00000080: 8b9a 85bc 85e3 94bc c1ec 3fbb 900a d9bc
00000090: c9c0 9c3c bbc3 bbbc 071d 653d 408d 9dbc
000000a0: e751 993c

predictor/l1/W f4 [41, 41]
-0.08161065 -0.1867269 -0.34037355 0.17905015 0.017388515 0.012226691 0.1671027 -0.23205611
-0.015793633 0.16777022 0.16521831 -0.123326086 0.41439492 -0.15715012 -0.10124258 -0.02125025
-0.39063522 -0.34074417 0.048327025 -0.09791481 0.087015964 -0.09365105 -0.1987513 -0.10604928
0.15223317 -0.07917499 -0.31629092 -0.015094727 0.2574519 -0.23997268 -0.0824261 0.06906006
0.083565876 0.023624977 0.052833162 -0.15667248 0.035513554 -0.23201957 -0.08366503 0.08321444
0.26707765 -0.01642527 -0.010761074 0.12605385 -0.09118598 -0.09118802 -0.30779502 -0.105274595
-0.08896878 0.017107254 0.073412076 0.0782759 0.11853529 -0.17256293 -0.13989376 -0.04438915
-0.17645803 -0.07240168 -0.28504556 -0.022237498 0.08812882 -0.025534047 0.190152 0.09785194
-0.12343184 0.14150196 -0.31087965 0.089167856 0.083309025 -0.036354374 0.07568194 0.13217779
-0.16618343 0.18127768 0.25798896 -0.055354785 0.13707407 0.15287381 0.2266591 -0.07307647
-0.17558971 -0.001908734 -0.015451385 -0.25207448 -0.021643646 -0.13190621 0.2163236 -0.2748517
-0.057945065 0.07686792 0.10050449 0.09729324 0.073120005 0.06718244 -0.18801592 -0.099920616
-0.13468307 0.019651338 0.17738463 -0.2117464 0.091929995 0.27811268 -0.2305646 0.022653818
0.06702235 0.29709843 -0.10821305 -0.14580858 -0.15632814 0.099070385 -0.11420575 -0.2873913
0.07700531 -0.2404043 -0.12771173 -0.08412986 0.1175096 -0.297648 0.041016757 -0.053040184
0.11213155 -0.045397565 0.3722133 -0.0051603727 -0.08269027 0.03153891 0.034266613 -0.22000009
-0.1047603 0.12287156 -0.10968065 0.261988 0.00653567 -0.103878364 -0.1012432 0.028568165
-0.10608228 0.17735796 -0.03857378 0.15941122 -0.124297485 -0.18256295 -0.16143195 -0.08701347
0.1560743 0.0021317308 -0.026764488 -0.08589955 -0.027494969 0.15246817 0.10097345 -0.17699543
-0.21180211 0.021562172 -0.3032301 0.24239957 -0.2885648 -0.09306708 0.041038115 -0.011522237
0.16103993 0.15459007 0.26477054 -0.31153682 0.0649644 0.04189852 0.060985044 0.12296922
0.11558738 0.045041695 -0.14577432 -0.0023613002 0.05846586 0.11058329 -0.025351116 -0.026157454
0.11995675 0.029720169 -0.017872097 -0.061986275 0.0342954 0.11117765 -0.09083625 0.20206825
-0.22351012 -0.033970725 0.051882096 -0.13484351 -0.16428451 -0.10838299 0.21330887 0.08175373
-0.054525677 -0.11563063 -0.034158614 -0.21753004 -0.12020471 0.038877815 0.083974175 -0.0269948
0.14226358 0.17237446 0.2426726 -0.11599829 0.09126564 -0.083383456 0.31667086 -0.14293563
-0.15923336 -0.16498595 0.16303112 0.17778817 -0.10801342 0.08055346 -0.07866776 -0.18930046
-0.07508935 -0.102567874 0.15194748 -0.041240703 -0.15404487 -0.13482593 0.049951877 -0.17882943
0.09138202 0.1519469 0.010251886 -0.20119157 -0.029989371 0.1640346 0.104926236 -0.030638114
0.028821932 0.11644651 -0.057715885 0.14773604 0.19875516 -0.2935234 -0.26838422 -0.30599624
0.03561119 -0.20154777 0.26055413 -0.058427826 -0.013839984 -0.050345525 0.049582183 -0.22045705
0.049831785 0.085994914 0.23788303 0.23896381 -0.18543005 -0.017947517 0.10103831 -0.047850132
00000000: 7c23 a7bd 5635 3fbe 7145 aebe ec58 373e
00000010: 5c72 8e3c 7552 483c f81c 2b3e 1ea0 6dbe
00000020: a661 81bc f5cb 2b3e fd2e 293e 6392 fcbd
00000030: 922b d43e f6eb 20be 4558 cfbd 0115 aebc
00000040: 5701 c8be 0576 aebe 8ff2 453d 8f87 c8bd
00000050: 6d35 b23d 1fcc bfbd 7685 4bbe 5d30 d9bd
00000060: 03e3 1b3e 7f26 a2bd e2f0 a1be e04f 77bc
00000070: bcd0 833e 66bb 75be 04cf a8bd 5c6f 8d3d
00000080: 9624 ab3d 2b89 c13c 9667 583d c06e 20be
00000090: a976 113d 8a96 6dbe 9258 abbd 556c aa3d
000000a0: 67be 883e 4a8e 86bc 374f 30bc 4314 013e
000000b0: b7bf babd c9c0 babd 4f97 9dbe 359a d7bd
000000c0: 4435 b6bd 8324 8c3c 1259 963d 1d4f a03d
000000d0: a1c2 f23d 56b4 30be 4f40 0fbe 66d1 35bd
000000e0: 6ab1 34be 5547 94bd 7ef1 91be 6a2b b6bc
000000f0: e27c b43d c72c d1bc 35b7 423e 9966 c83d
00000100: d5c9 fcbd e4e5 103e 9e2b 9fbe a39d b63d
00000110: ec9d aa3d 53e8 14bd 22ff 9a3d 9d59 073e
00000120: fd2b 2abe dba0 393e 2117 843e b3bb 62bd
00000130: 255d 0c3e f48a 1c3e 5319 683e 1ea9 95bd
00000140: cacd 33be 7c2e faba ce27 7dbc e80f 81be
00000150: 044e b1bc 6c12 07be ef83 5d3e 5db9 8cbe
00000160: ce57 6dbd ee6c 9d3d 4cd5 cd3d ae41 c73d
00000170: f1bf 953d f296 893d 3f87 40be 2ea3 ccbd
00000180: 5cea 09be d8fb a03c 51a4 353e 0cd4 58be
00000190: cb45 bc3d c964 8e3e 2019 6cbe 8094 b93c
000001a0: 0443 893d 491d 983e ce9e ddbd d84e 15be
000001b0: 7c14 20be 6ae5 ca3d b4e4 e9bd f424 93be
000001c0: f6b4 9d3d 8b2c 76be ddc6 02be 474c acbd
000001d0: e0a8 f03d 5265 98be 3001 283d aa40 59bd
000001e0: 3aa5 e53d ccf2 39bd be92 be3e 5818 a9bb
000001f0: 8459 a9bd f22e 013d 265b 0c3d b447 61be
00000200: 918c d6bd 16a4 fb3d 40a0 e0bd 4b23 863e
00000210: 2c29 d63b 2ebe d4bd 9858 cfbd c907 ea3c
00000220: ab41 d9bd 539d 353e 8aff 1dbd b23c 233e
00000230: ae8f febd c8f1 3abe 6b4e 25be 1e34 b2bd
00000240: f1d1 1f3e 82b4 0b3b 3341 dbbc 1aec afbd
00000250: 213d e1bc 9e20 1c3e 2bcb ce3d 4a3e 35be
00000260: a7e2 58be 27a3 b03c fa40 9bbe 9837 783e
00000270: c4be 93be f499 bebd 9517 283d c4c7 3cbc
00000280: a7e7 243e dc4c 1e3e 0190 873e c181 9fbe
00000290: 0e0c 853d c89d 2b3d 74cb 793d 49d7 fb3d
000002a0: 14b9 ec3d a47d 383d dd45 15be 0bc0 1abb
000002b0: e679 6f3d 7e79 e23d 25ad cfbc 2848 d6bc
000002c0: e2ab f53d b677 f33c 8168 92bc 52e5 7dbd
000002d0: 5579 0c3d 1cb1 e33d 5b08 babd fbea 4e3e
000002e0: d6df 64be e324 0bbd 5282 543d 6b14 0abe
000002f0: 333a 28be e7f7 ddbd a46d 5a3e 806e a73d
00000300: 5156 5fbd c0cf ecbd e7e9 0bbd 32c0 5ebe
00000310: e32d f6bd 583e 1f3d a7fa ab3d 3324 ddbc
00000320: 8bad 113e ee82 303e 2b7f 783e 8390 edbd
00000330: 7be9 ba3d f2c4 aabd af22 a23e b85d 12be
00000340: 120e 23be 14f2 28be a1f1 263e 1a0e 363e
00000350: 2436 ddbd 36f9 a43d 901c a1bd fbd7 41be
00000360: 72c8 99bd 1b0f d2bd 1f98 1b3e 03ec 28bd
00000370: f0bd 1dbe cf0f 0abe 579a 4c3d 101f 37be
00000380: 7f26 bb3d f897 1b3e 87f7 273c 2a05 4ebe
00000390: 45ac f5bc b0f8 273e 91e3 d63d c8fc fabc
000003a0: f91b ec3c 827b ee3d 7e67 6cbd 1e48 173e
000003b0: 7986 4b3e b348 96be a869 89be 8aab 9cbe
000003c0: 0add 113d 8a62 4ebe 5a67 853e 0452 6fbd
000003d0: 1ac1 62bc 1c37 4ebd b016 4b3d 7ebf 61be
000003e0: 6a1c 4c3d 1a1e b03d 9c97 733e eeb2 743e
000003f0: 60e1 3dbe ac06 93bc 2ced ce3d 80fe 43bd

predictor/l2/b f4 [41]
-0.009981952 -0.01225243 -0.016884122 0.013208918 -0.014759288 -0.010211835 0.013429188 -0.017018165
-0.013264167 -0.025437519 -0.014396099 -0.010557429 0.014481805 -0.004320728 -0.016427288 0.026342668
0.031132897 -0.017347483 -0.016982252 0.013971069 0.017595954 0.0019002086 -0.009888743 -0.013609389
-0.016970357 -0.0049048555 -0.0030405733 -0.0699622 -0.011719358 0.01729454 -0.013040607 0.008489277
0.027047748 -0.016943105 -0.015231392 -0.008631644 -0.017778533 0.013456494 -0.012990514 0.123385556
-0.012379308
00000000: 578b 23bc 6bbe 48bc 9250 8abc 386a 583c
00000010: f1d0 71bc 8a4f 27bc 1906 5c3c ae69 8bbc
00000020: f351 59bc 5862 d0bc 9edd 6bbc 11f9 2cbc
00000030: 1845 6d3c e594 8dbb 8592 86bc 94cc d73c
00000040: 6b0a ff3c 4f1c 8ebc 5d1e 8bbc e9e6 643c
00000050: 6425 903c 6c10 f93a 6504 22bc eaf9 5ebc
00000060: 6b05 8bbc e9b8 a0bb 5b44 47bb 5848 8fbd
00000070: 8d02 40bc 47ad 8d3c 45a8 55bc 9c16 0b3c
00000080: 3d93 dd3c 44cc 8abc 178d 79bc bd6b 0dbc
00000090: 49a4 91bc a078 5c3c 2ad6 54bc 91b1 fc3d
000000a0: 95d2 4abc

predictor/l2/W f4 [41, 41]
-0.0729974 0.0015439073 -0.06742093 -0.2743686 -0.033209816 -0.32627222 -0.29994336 -0.1379616
0.069099575 0.06587447 -0.052073702 0.18609679 0.25672883 -0.70820594 0.32855597 0.76027524
0.049097147 0.014548924 0.037257493 0.1513467 0.10974085 -0.19899635 -0.13821875 0.515517
0.110478364 0.0107223 -0.04532152 -0.0011283645 -0.118430756 -0.053659324 -0.33036387 -0.27012837
-0.09682414 0.10537519 -0.09632009 -0.09671099 0.31525987 -0.028007865 -0.031580452 0.25481418
0.21380696 -0.0961116 -0.08210426 -0.04432854 -0.008776154 -0.22214456 0.034118056 0.07000877
0.12442884 0.024040662 -0.09073777 -0.09650962 0.05799374 -0.11616406 -0.06993129 -0.032351304
0.12944455 0.11559489 0.33886513 0.17616427 0.15087913 -0.1147199 -0.14582965 -0.10876393
-0.052312702 0.04683306 0.21801217 0.21541432 0.14185692 -0.11698896 0.123702586 0.0033924398
0.31338364 -0.2307645 -0.19221835 -0.07821007 0.07961102 0.21785721 -0.034511454 0.060702696
0.06118722 0.0775779 -0.23899876 -0.028883858 -0.14458719 -0.25142786 0.4770393 -0.14512095
-0.096694216 0.13287258 0.040552255 -0.014570552 -0.08313251 -0.1488109 0.04437285 0.0514523
0.16448896 0.0897432 -0.012345323 -0.14779098 -0.12049412 -0.040938955 -0.08960732 0.11019602
0.12813625 -0.090163164 -0.025646655 -0.06427121 -0.15198585 0.080245994 0.060288776 -0.25184545
0.15096386 -0.15034313 -0.060597014 -0.19470356 0.24716417 -0.08826347 -0.16089344 -0.08655866
0.18561503 0.050116226 0.03369285 0.24003224 -0.13408343 0.0469721 -0.056187276 0.033679184
-0.16156113 0.11043818 0.02252892 0.02738128 0.038690884 0.15259245 -0.10065498 0.11066938
-0.02408709 -0.21619344 -0.119934104 0.028024528 0.023553766 0.057440482 0.083189145 -0.0020448384
0.107308604 -0.096593514 -0.058420602 0.11218734 0.18115494 -0.10679357 0.07293412 0.06846129
-0.14198683 -0.19206864 0.2862675 0.090279765 -0.5688911 -0.12521724 -0.19059366 -0.057759136
-0.21930389 0.028345494 -0.02441943 0.105512366 0.10438712 0.13035242 0.053095553 -0.082805574
-0.06095436 -0.04638619 -0.0393195 -0.1010583 0.22716035 0.06527526 -0.12002161 0.07936201
-0.054918267 -0.4764277 0.028671432 0.03227469 -0.09717523 -0.024046438 0.40101886 0.15177292
-0.058269784 0.0058793696 0.33490226 0.288933 -0.0808469 0.029001243 -0.17072393 -0.2688952
0.128331 -0.07228432 0.19739069 0.031807695 0.049476203 0.060589936 -0.03960012 0.36725777
0.22140662 0.025844531 0.17665088 0.084941365 -0.31760612 -0.17503227 -0.007041447 -0.2052956
-0.03603056 0.093706794 0.0014636756 0.15394284 -0.12800986 0.06460764 0.08107008 -0.1325157
0.09580397 -0.07257459 0.093020685 -0.14290062 -0.15479137 -0.081842825 -0.058197506 -0.52742714
-0.12981911 -0.2258811 0.0018978957 -0.21347094 -0.07556198 -0.05698 -0.08121366 -0.14861083
0.019042756 -0.04888884 0.0143483775 -0.120675124 -0.023165109 -0.0037220446 -0.2068782 -0.0838126
-0.07334519 0.15061691 0.06311797 0.18298736 0.13295695 0.3481616 0.05785661 0.2881554
0.11095261 -0.18297873 0.051699825 -0.0665534 0.20719668 0.08354862 0.07331904 -0.06862919
00000000: a97f 95bd ef5c ca3a fc13 8abd 0b7a 8cbe
00000010: 0407 08bd 270d a7be 2d92 99be ce45 0dbe
00000020: 1484 8d3d 32e9 863d 3c4b 55bd 2890 3e3e
00000030: f671 833e fc4c 35bf 7d38 a83e 66a1 423f
00000040: 171a 493d 9c5e 6e3c 509b 183d a1fa 1a3e
00000050: d0bf e03d b3c5 4bbe 3789 0dbe ecf8 033f
00000060: 7b42 e23d 96ac 2f3c 0fa3 39bd a1e5 93ba
00000070: d38b f2bd e1c9 5bbd 7425 a9be 444e 8abe
00000080: bc4b c6bd f3ce d73d 7843 c5bd 6910 c6bd
00000090: be69 a13e c070 e5bc 815a 01bd 0177 823e
000000a0: 36f0 5a3e 29d6 c4bd 4726 a8bd d891 35bd
000000b0: dcc9 0fbc dd79 63be 60bf 0b3d c260 8f3d
000000c0: 8cd4 fe3d ecf0 c43c b9d4 b9bd d6a6 c5bd
000000d0: d88a 6d3d 6ce7 edbd 2338 8fbd cd82 04bd
000000e0: 1d8d 043e 04bd ec3d bb7f ad3e 6864 343e
000000f0: 0f80 1a3e 44f2 eabd 5e54 15be a0bf debd
00000100: d845 56bd 06d4 3f3d 953e 5f3e 9295 5c3e
00000110: f142 113e e897 efbd c857 fd3d b253 5e3b
00000120: d273 a03e 874d 6cbe e3d4 44be 9a2c a0bd
00000130: 1a0b a33d f615 5f3e e25b 0dbd 64a3 783d
00000140: 739f 7a3d 29e1 9e3d 17bc 74be d79d ecbc
00000150: aa0e 14be 27bb 80be 7f3e f43e 969a 14be
00000160: 9e07 c6bd c00f 083e 1f1a 263d 53b9 6ebc
00000170: 6141 aabd e261 18be 4ec0 353d a6bf 523d
00000180: cb6f 283e 48cb b73d 0a44 4abc 8556 17be
00000190: 9fc5 f6bd 9baf 27bd 0b84 b7bd 73ae e13d
000001a0: 2636 033e 77a7 b8bd ef18 d2bc a0a0 83bd
000001b0: 2ea2 1bbe 0358 a43d 5df1 763d e3f1 80be
000001c0: 4596 1a3e 8df3 19be 9334 78bd 5f60 47be
000001d0: 9b18 7d3e 7ac3 b4bd 40c1 24be ab45 b1bd
000001e0: de11 3e3e ac46 4d3d 8401 0a3d 03cb 753e
000001f0: 2b4d 09be d165 403d a124 66bd 2ff3 093d
00000200: 4870 25be 6a2d e23d 928e b83c b54e e03c
00000210: 557a 1e3d 3241 1c3e 3324 cebd a1a6 e23d
00000220: 4a52 c5bc d061 5dbe 03a0 f5bd b293 e53c
00000230: d4f3 c03c b646 6b3d 125f aa3d b202 06bb
00000240: 9dc4 db3d d2d2 c5bd 714a 6fbd 7ac2 e53d
00000250: ae80 393e 96b6 dabd 7c5e 953d 6f35 8c3d
00000260: ff64 11be a4ad 44be a791 923e 99e4 b83d
00000270: d9a2 11bf f338 00be fc2a 43be d894 6cbd
00000280: 3391 60be cf34 e83c 420b c8bc de16 d83d
00000290: eac8 d53d 1b7b 053e b97a 593d f895 a9bd
000002a0: 47ab 79bd 72ff 3dbd 7c0d 21bd a7f7 cebd
000002b0: b99c 683e 09af 853d e4cd f5bd 8d88 a23d
000002c0: faf1 60bd 55ee f3be 5ae0 ea3c 7732 043d
000002d0: cf03 c7bd 09fd c4bc 5852 cd3e 5c6a 1b3e
000002e0: 4cac 6ebd baa7 c03b 4f78 ab3e 07ef 933e
000002f0: 0f93 a5bd 0494 ed3c 41d2 2ebe a2ac 89be
00000300: 3469 033e cd09 94bd c920 4a3e c948 023d
00000310: 8fa7 4a3d 272d 783d bc33 22bd 3609 bc3e
00000320: 6bb8 623e e9b7 d33c f8e3 343e bdf5 ad3d
00000330: 459d a2be a93b 33be f0bb e6bb 0339 52be
00000340: c894 13bd 59e9 bf3d ced8 bf3a 31a3 1d3e
00000350: 0415 03be 0351 843d 1208 a63d 32b2 07be
00000360: df34 c43d fda1 94bd a181 be3d 8a54 12be
00000370: a181 1ebe 369d a7bd 8260 6ebd 7705 07bf
00000380: 4def 04be 604d 67be d0c2 f83a 2098 5abe
00000390: 3dc0 9abd dc63 69bd 5953 a6bd 702d 18be
000003a0: 8eff 9b3c aa3f 48bd 7515 6b3c 8524 f7bd
000003b0: c1c4 bdbc 8ced 73bb e1d7 53be f1a5 abbd
000003c0: 0136 96bd 523b 1a3e ff43 813d 0a61 3b3e
000003d0: de25 083e 3d42 b23e 0dfb 6c3d 1b89 933e
000003e0: 1f3b e33d c75e 3bbe 32c3 533d 264d 88bd
000003f0: 5e2b 543e 8a1b ab3d 4b28 963d 768d 8cbd

predictor/l3/W f4 [1, 41]
0.08902501 0.035305087 0.2444632 0.12696278 0.13260052 -0.12539907 -0.13763827 0.099480376
0.2711451 0.11799136 0.04301629 0.050542284 -0.13829426 -0.022436133 0.023924485 -0.069020346
-0.13742253 0.14945376 0.21936926 -0.29018235 -0.110999204 -0.024703113 -0.07874239 0.06734696
0.18463808 0.15245742 0.103391 0.30632672 -0.2219259 -0.019958712 0.15794726 -0.30740252
0.112001896 0.15295167 0.089252904 0.1382073 0.15740816 -0.09813078 0.19640319 0.22189479
-0.039528295
00000000: bf52 b63d 119c 103d 9054 7a3e 8802 023e
00000010: 6ec8 073e 9d68 00be 0cf1 0cbe 5ebc cb3d
00000020: 88d3 8a3e 74a5 f13d d931 303d 6d05 4f3d
00000030: 039d 0dbe fbcb b7bc 48fd c33c 8a5a 8dbd
00000040: 7eb8 0cbe 680a 193e 56a2 603e c892 94be
00000050: 8d53 e3bd 2f5e cabc b143 a1bd 34ed 893d
00000060: c411 3d3e cc1d 1c3e a9be d33d dbd6 9c3e
00000070: 8b40 63be 7480 a3bc edbc 213e dd63 9dbe
00000080: 4061 e53d 5d9f 1c3e 3aca b63d 3786 0d3e
00000090: 9b2f 213e caf8 c8bd eb1d 493e 6338 633e
000000a0: 6ce8 21bd
