mymodel.npz (npz, 14187 bytes, 5 tensors)

predictor/l1/b f4 [41]
0	0x3b8f5aff	0.0043748613
1	0xbc38c319	-0.011276984
2	0x3cdc1c84	0.026869066
3	0x3d3e9f6d	0.04653876
4	0xbcf766d2	-0.030200396
5	0xbca79a8a	-0.020459432
6	0xbc3c98a7	-0.0115110045
7	0xbb93a894	-0.00450618
8	0xbc9ce66e	-0.019152846
9	0xbcd792d2	-0.026315127
10	0x3ca61107	0.020271791
11	0x3c1956ed	0.009359104
12	0x3c33e456	0.0109797325
13	0xbc28cbe0	-0.010302514
14	0xbc8502c9	-0.01623668
15	0xbc9b5c3c	-0.01896488
16	0x3d583592	0.052785464
17	0xbc33e42a	-0.0109796915
18	0xbcd1b448	-0.02559866
19	0xba9725e9	-0.0011531684
20	0x3ddf5215	0.10904328
21	0x3c35b768	0.011091091
22	0xbc17c635	-0.009263565
23	0xbb71eb95	-0.00369141
24	0xbc9564f1	-0.01823661
25	0x3c4c2538	0.0124600455
26	0x3bea5573	0.0071512996
27	0x3a73dc9c	0.0009302588
28	0xbd026cfc	-0.031842217
29	0x3ba7f47c	0.0051255804
30	0x3c3df25c	0.0115934275
31	0xbb9bccc1	-0.004754633
32	0x3b1fbd11	0.0024374167
33	0xbc482728	-0.012216367
34	0xbd030c36	-0.031994067
35	0xbb18d341	-0.0023319277
36	0x3a9d78c8	0.0012014145
37	0x3b0b84de	0.0021288912
38	0x3bfe5e8b	0.0077627352
39	0xbc876e61	-0.016532125
40	0xbcab50a9	-0.020912485

predictor/l1/W f4 [41, 41]
0	0xbe391607	-0.18074809
1	0x3e2c2905	0.16812523
2	0xbd2750b9	-0.040848467
3	0x3ce2b1f4	0.027672745
4	0x3e0dd168	0.13849413
5	0xbd781313	-0.060565066
6	0xbcc9adca	-0.024619002
7	0xbea313e7	-0.31851122
8	0x3e935bbe	0.2878093
9	0xbd0716c0	-0.03298068
10	0xbe6829ad	-0.22672148
11	0x3da62aa8	0.08113605
12	0x3d09b1a5	0.03361668
13	0x3d978042	0.0739751
14	0x3ba59205	0.0050528073
15	0x3dfc85eb	0.1233023
16	0x3e574fce	0.21026537
17	0xbe887c06	-0.26657122
18	0x3e18a708	0.14907467
19	0xbe0189ad	-0.12650175
20	0xbd2d3126	-0.0422832
21	0xbe2527ac	-0.16128415
22	0xbe53636d	-0.20643397
23	0x3dd6f780	0.10496426
24	0xbd395383	-0.04524566
25	0x3c9879f3	0.018612837
26	0x3d1dd391	0.038531844
27	0xbdc38547	-0.09546905
28	0xbdcf7f03	-0.101316474
29	0x3c6cf515	0.014462729
30	0x3d533569	0.051564608
31	0xbe71ec71	-0.23625351
32	0xbe65662a	-0.22402254
33	0xbe42341b	-0.18965189
34	0x3d2258f4	0.039635614
35	0xbdd5eda1	-0.10445715
36	0x3e378c28	0.17924559
37	0xbe177fef	-0.14794897
38	0xbd1ea2ff	-0.038729664
39	0xbe3babd8	-0.18327272
40	0xbd77a82a	-0.060463108
41	0xbe61ba24	-0.22043663
42	0xbce07aee	-0.027402367
43	0xbe2699a7	-0.16269551
44	0x3eedac3c	0.46420467
45	0x3df67724	0.12034443
46	0xbe4c276c	-0.19936913
47	0xbb6da967	-0.0036264302
48	0x3de48c7e	0.11159609
49	0xbd4493f6	-0.04799267
50	0x3e0f71a1	0.1400819
51	0xbdddaa99	-0.108235545
52	0xbe730156	-0.23730978
53	0x3daf476f	0.08558547
54	0xbe0a0898	-0.13479841
55	0x3e9355b9	0.2877634
56	0x3e32c463	0.17457728
57	0xbcd2e4a8	-0.025743797
58	0xbd96265c	-0.07331535
59	0x3e7dd477	0.2478808
60	0x3e5b3579	0.21407117
61	0xbe0b66ad	-0.13613386
62	0x3d01090a	0.03150276
63	0xbc99b226	-0.018761706
64	0xbc9be359	-0.019029306
65	0x3da19595	0.07889859
66	0x3d3eeb93	0.04661138
67	0xbd5e62c4	-0.05429341
68	0x3e97423a	0.29542714
69	0x3d9b5117	0.07583826
70	0xbe0980ae	-0.13427994
71	0xbdb5420e	-0.088504896
72	0x3e0f2512	0.13978985
73	0x3dcbd46d	0.099526264
74	0xbe60d66a	-0.21956792
75	0x3db6e23b	0.08929869
76	0x3e015cd3	0.12633066
77	0x3de94081	0.11389256
78	0xbcd3bcd7	-0.025846882
79	0x3d4c423a	0.049867846
80	0x3e9311de	0.2872457
81	0xbe8861cb	-0.2663711
82	0x3dabf63c	0.08396575
83	0x3e86d533	0.26334533
84	0x3d6feefe	0.05857753
85	0x3e06b79e	0.13155982
86	0xbe1c55a9	-0.15267052
87	0x3c296a1a	0.010340238
88	0x3e85b4e2	0.26114565
89	0xbe8a0f5c	-0.26964843
90	0xbe2a3d7f	-0.16625021
91	0x3dbd0409	0.09229285
92	0xbb5dc448	-0.0033838917
93	0x3e3dcbed	0.18534823
94	0x3daa50d1	0.08316196
95	0xbd843518	-0.06455439
96	0x3e1456a9	0.14486183
97	0xbd8e31fe	-0.06943129
98	0x3e474185	0.19458587
99	0x3e1c6a2b	0.15274875
100	0x3db3c431	0.08777655
101	0x3d98cb07	0.074605994
102	0xbe08d9b6	-0.133643
103	0xbe12d525	-0.1433912
104	0xbe202256	-0.15638098
105	0xbe56f04f	-0.20990108
106	0xbc98bc12	-0.018644366
107	0xbe3b1eec	-0.18273515
108	0xbe617b0a	-0.22019592
109	0x3d24f95e	0.040276878
110	0x3de79cae	0.11309181
111	0xbe75b89b	-0.23996203
112	0xbddcc4f6	-0.10779755
113	0x3ddb3248	0.1070295
114	0x3e287472	0.1645067
115	0x3e9edc85	0.31027618
116	0xbccd16a1	-0.025035204
117	0xbe05dc1c	-0.13072246
118	0xbc21c805	-0.0098743485
119	0xbe166d6d	-0.1469018
120	0xbe1a04f6	-0.15040955
121	0xbb4e3a10	-0.0031467713
122	0x3e264b14	0.16239578
123	0x3d9c697d	0.07637308
124	0x3dfefa57	0.12450092
125	0x3e93f778	0.2889974
126	0x3c8dbdc2	0.017302398
127	0xbec80a67	-0.39070436
128	0x3e0304ba	0.12794772
129	0xbe0ed913	-0.13949995
130	0xbed3552a	-0.41275913
131	0xbe07f4d1	-0.13276984
132	0x3e097ac4	0.13425738
133	0xbda17532	-0.07883681
134	0xbd94171c	-0.0723097
135	0x3db2c201	0.087284096
136	0x3df3c7a2	0.11903311
137	0xbe9a9351	-0.30190518
138	0xbca6a668	-0.02034302
139	0x3b8ee35b	0.004360599
140	0xbdfd580b	-0.123703085
141	0x3dc0c677	0.09412854
142	0xbe09970c	-0.13436526
143	0xbcc83cf6	-0.024443131
144	0x3d6e75cc	0.05821781
145	0xbb728911	-0.0037007967
146	0xbe01f5aa	-0.1269137
147	0xbdfb512b	-0.12271341
148	0xbcba1edd	-0.022719795
149	0xbd7ea2fb	-0.06216715
150	0x3e2fd13a	0.17169657
151	0xbd58b6f5	-0.052908856
152	0xbe09538d	-0.13410778
153	0xbdc53ae5	-0.09630374
154	0xbdff4e8a	-0.12466152
155	0x3e4e7953	0.20163469
156	0xbd974580	-0.07386303
157	0xbe00f6fd	-0.12594219
158	0xbd98c307	-0.074590735
159	0xbdc2cfbe	-0.0951228
160	0x3e9212d1	0.2852998
161	0xbe2b8954	-0.16751605
162	0x3d99b352	0.07504906
163	0xbe25feb3	-0.16210441
164	0x3d44ef2a	0.048079647
165	0xbc8e31c5	-0.017357716
166	0xbdb76b15	-0.08955971
167	0x3d07c8c2	0.033150442
168	0x3d3727d0	0.044715703
169	0xbe8cdde0	-0.27513027
170	0xbe91e9fe	-0.28498834
171	0x3de5386a	0.11192401
172	0xbc37156d	-0.011174542
173	0x3de4734e	0.11154805
174	0xbe7b5527	-0.24544202
175	0xbec02bd0	-0.37533426
176	0xbd72aaea	-0.059245028
177	0x3d82eae1	0.06392456
178	0xbd1f9278	-0.038958043
179	0x3cfa7a8a	0.03057601
180	0xbd0d198d	-0.034448195
181	0x3dc8fb2c	0.09813532
182	0xbde179a5	-0.1100953
183	0xbe14160e	-0.14461538
184	0xbc968e35	-0.018378356
185	0x3db5764c	0.08860454
186	0xbd90c6ab	-0.07069143
187	0xbdcf4875	-0.10121242
188	0xbe3c2789	-0.18374456
189	0x3e3ad337	0.18244635
190	0x3dbada04	0.091236144
191	0xbd79aeae	-0.060957603
192	0x3af309f8	0.00185424
193	0x3d1a254c	0.037633225
194	0xbcfe90e1	-0.031074943
195	0xbe606d47	-0.21916686
196	0xbe35a3e3	-0.17738299
197	0x3e1943b4	0.14967233
198	0xbe169d98	-0.14708555
199	0x3e9d2594	0.30692732
200	0x3e087c91	0.13328768
201	0x3d05ea39	0.032694075
202	0x3dc7eb20	0.097616434
203	0xbdf87ec8	-0.121335566
204	0x3e21db51	0.15806319
205	0x3ddb0e94	0.1069614
206	0xbd259032	-0.04042072
207	0xbda3c509	-0.07996566
208	0xbcc2783c	-0.023738973
209	0xbd95af9b	-0.07308885
210	0xbeac20be	-0.3361873
211	0x3ddbf6d7	0.1074044
212	0x3e307a18	0.17234075
213	0x3e469475	0.1939257
214	0xbd81fd11	-0.06347097
215	0x3d9f81ec	0.077884525
216	0xbcd2c50e	-0.025728729
217	0xbd9ad29a	-0.075597
218	0x3e4a6083	0.19763379
219	0x3e48cd99	0.1960968
220	0xbe3e084d	-0.18557854
221	0x3d7c5a3a	0.061609484
222	0xbddb859a	-0.10718842
223	0x3cd3c71f	0.025851784
224	0xbe43116e	-0.19049618
225	0xbe793ba0	-0.24339151
226	0x3e4152eb	0.18879287
227	0xbe4a350d	-0.197468
228	0xbd511e75	-0.051054437
229	0x3e1ec0cc	0.15503234
230	0x3e6c1132	0.23053434
231	0xbdf877de	-0.12132238
232	0xbda47f73	-0.080321215
233	0x3dbe2be9	0.09285719
234	0x39d02d6a	0.00039706688
235	0x3e30fece	0.172847
236	0x3e0cfe65	0.13768919
237	0x3e081849	0.13290514
238	0x3e022368	0.12708819
239	0xbec3cbaf	-0.38241336
240	0xbdfe50f6	-0.12417786
241	0x3e82b937	0.25531933
242	0x3e974041	0.2954121
243	0xbe1cc1e0	-0.15308332
244	0x3db83c42	0.08995868
245	0xbe3aef70	-0.182554
246	0x3ec7c716	0.39019078
247	0xbddc357d	-0.107523896
248	0xbcb0c22d	-0.021576965
249	0xbd3c245e	-0.04593312
250	0x3e03e4d1	0.12880255
251	0xbd02470a	-0.03180603
252	0x3dd2eea4	0.10299423
253	0xbd5842b3	-0.052797984
254	0xbdbcee1c	-0.09225103
255	0xbe31c843	-0.1736155

predictor/l2/b f4 [41]
0	0xbc0066d3	-0.007837015
1	0xbbc29de9	-0.0059392345
2	0x3ae6649f	0.0017577595
3	0xbbec78a3	-0.0072165295
4	0xbbf95c67	-0.007609892
5	0x3b3601c2	0.0027772044
6	0x3c729a41	0.014807285
7	0xbc6000a4	-0.013672028
8	0x3b6b2473	0.003587988
9	0xbc89a7cc	-0.016803645
10	0xba3c67fd	-0.00071871263
11	0xbb56df18	-0.0032786783
12	0xba866599	-0.0010253667
13	0xbc2e8c56	-0.010653576
14	0xbc9a2d3b	-0.018820396
15	0xbb871d97	-0.0041234004
16	0x3bb52c52	0.005528965
17	0xbc843e01	-0.016142847
18	0xbc431769	-0.011907437
19	0xbc8103e9	-0.015748935
20	0xbca0f578	-0.019648299
21	0x38b98448	8.846127e-05
22	0xbcbaddc3	-0.022810822
23	0xbaced346	-0.0015779517
24	0xbcfda557	-0.03096263
25	0x3cd80641	0.02637017
26	0xbbd57536	-0.006514217
27	0xbc1c3ec9	-0.0095364535
28	0x3b60cba8	0.0034301076
29	0x3c5a5b56	0.01332744
30	0x3d8483d3	0.06470456
31	0xbc241645	-0.010015075
32	0xbc113a41	-0.0088639865
33	0x3b80af17	0.0039271223
34	0x3c08d763	0.008352133
35	0x3cec78e8	0.028866246
36	0x3c0304b4	0.007996727
37	0x3bb5220f	0.0055277417
38	0x3ca42461	0.020036878
39	0xba8da4a6	-0.0010806515
40	0x3b23335a	0.0024902434

predictor/l2/W f4 [41, 41]
0	0xbe172d2d	-0.14763327
1	0x3dc220ed	0.09478936
2	0xbe187447	-0.14888106
3	0x3c8ae0f0	0.016952962
4	0x3c0ec8bb	0.00871485
5	0xbedfacbb	-0.4368647
6	0x3e14217b	0.14465897
7	0x3b0c08bf	0.0021367518
8	0xbd9f7941	-0.07786799
9	0x3e226741	0.158597
10	0x3cc8e0ab	0.024521193
11	0xbc921b56	-0.0178353
12	0xbbac120d	-0.0052511753
13	0x3ca48f21	0.02008778
14	0xbdb37466	-0.087624356
15	0xbea114bf	-0.3146114
16	0xbb705878	-0.0036673825
17	0xbe9f394d	-0.31098405
18	0x3e28dfb9	0.16491593
19	0xbd2c9877	-0.04213759
20	0xbe44ddce	-0.19225237
21	0xbd95afc3	-0.073089145
22	0x3e3b3b89	0.1828443
23	0x3dfc57fe	0.12321471
24	0xbd9fcba9	-0.07802517
25	0x3e3f4ad5	0.1868089
26	0x3d0b19fb	0.033960324
27	0x3e0cfc8e	0.13768217
28	0x3e37ba54	0.17942172
29	0xbd74a64d	-0.05972891
30	0x3e0bd6e2	0.1365619
31	0x3d8898cb	0.06669768
32	0xbdd4c38a	-0.103888586
33	0x3d89fcea	0.06737693
34	0x3e02877e	0.12746999
35	0xbd24a5da	-0.04019723
36	0x3e136045	0.14392193
37	0xbb66a21c	-0.003519184
38	0x3b27ca8b	0.0025602903
39	0x3cac88c7	0.021061314
40	0x3cf67ceb	0.030088862
41	0xbeb36b8d	-0.35042992
42	0xbe005251	-0.12531401
43	0xbd9d8bc6	-0.07692675
44	0xbc96823c	-0.018372647
45	0xbe402ae4	-0.18766361
46	0x3dcdd49e	0.10050319
47	0x3cabb06d	0.02095815
48	0x3e24a487	0.16078387
49	0x3d9ce36f	0.07660567
50	0xbdd0a97d	-0.10188577
51	0xbe778a90	-0.24173951
52	0xbde613fd	-0.11234281
53	0xbd44ecad	-0.048077274
54	0x3dec441b	0.115364276
55	0xbce69ff0	-0.028152436
56	0xbd47440b	-0.048648875
57	0xbd84d4bf	-0.064858906
58	0xbd16e34d	-0.036837865
59	0xbd804e11	-0.0626489
60	0xbe14d0c8	-0.14532769
61	0xbe10ca4f	-0.14139675
62	0x3ddc3cc5	0.10753778
63	0x3e5b381a	0.2140812
64	0x3cea6c88	0.028616205
65	0x3d88da12	0.066822186
66	0x3e65da1f	0.22446488
67	0xbe2ef023	-0.17083792
68	0xbd8b80b8	-0.068116605
69	0x3cfbcb36	0.030736547
70	0x3e22db15	0.15903886
71	0xbd2a84aa	-0.041630425
72	0xbd00efb0	-0.031478584
73	0xbde85cf6	-0.11345856
74	0xbd343d1e	-0.0440036
75	0xbe23f76d	-0.16012354
76	0x3df8ca50	0.12147963
77	0xbdbcb6cc	-0.09214553
78	0xbe9735ed	-0.2953333
79	0x3e2574af	0.16157793
80	0x3d582fac	0.05277984
81	0xbe24fdde	-0.16112468
82	0xbcc693e8	-0.02424045
83	0x3d26d735	0.04073258
84	0xbdf48450	-0.11939299
85	0x3daa9f97	0.083312206
86	0xbe18e71a	-0.14931908
87	0x3c9fd4d6	0.019510668
88	0x3e190107	0.14941798
89	0x3bcb387f	0.006201803
90	0xbe463988	-0.19357884
91	0xbe61da83	-0.22056012
92	0x3da946c0	0.082654476
93	0xbea8ac46	-0.32943934
94	0x3e070ac5	0.13187702
95	0xbe0bf8af	-0.13669084
96	0xbd40abe7	-0.04703894
97	0xbcaeb169	-0.02132483
98	0xbe76ab61	-0.24088813
99	0x3df8c221	0.12146402
100	0xbe5bad11	-0.21452738
101	0x3e0d32cf	0.13788913
102	0xbdfd725c	-0.12375328
103	0xbd593281	-0.05302668
104	0xbe50e24c	-0.20398825
105	0x3e5df988	0.2167722
106	0xbe6fe728	-0.23428023
107	0xbe16b3e1	-0.14717056
108	0x3e5f538d	0.21809216
109	0x3e025402	0.12727359
110	0x3dffecb4	0.124963194
111	0xbe688e67	-0.22710572
112	0x3c438da3	0.011935624
113	0x3e2c1ab2	0.16807058
114	0xbbf00fa1	-0.007326082
115	0x3d841d33	0.06450882
116	0x3e147b38	0.14500129
117	0x3cb92665	0.022601316
118	0x3e4238b2	0.1896694
119	0xbd33b2e6	-0.043871783
120	0x3cf12a7d	0.029439205
121	0xbe0f7cce	-0.14012453
122	0xbd38d3e9	-0.04512397
123	0xbe695bd2	-0.22788933
124	0xbda3b6a9	-0.07993824
125	0x3bdb666d	0.0066955597
126	0x3e08099f	0.1328492
127	0xbe3ce5d2	-0.18447044
128	0x3ce76ad3	0.02824918
129	0x3e386689	0.18007864
130	0x3e63ce2e	0.2224662
131	0xbe69878f	-0.22805618
132	0x3e6ab9b9	0.2292241
133	0xbc8c7c31	-0.017149063
134	0xbe2fc8b3	-0.17166404
135	0xbe81ffc8	-0.25390458
136	0x3d332b48	0.043742448
137	0xbd83dcd4	-0.06438604
138	0xbe22a90b	-0.15884797
139	0x3d11fe35	0.03564282
140	0xbe56dc69	-0.20982517
141	0x3d8d721b	0.069065295
142	0x3dcc4717	0.09974497
143	0xbe2702e4	-0.16309696
144	0x3ce9eefa	0.028556336
145	0x3d17d395	0.037067015
146	0x3e76e344	0.24110132
147	0xbd215500	-0.039387703
148	0x3cd76145	0.026291499
149	0xbe192db4	-0.1495884
150	0xbea6933b	-0.32534203
151	0xbe55d8f7	-0.20883547
152	0xbe76bd1a	-0.24095574
153	0xbde8c8c0	-0.11366415
154	0xbdecb5fa	-0.11558147
155	0x3d89f39b	0.06735917
156	0xbdcde25c	-0.1005294
157	0x3c60ffc6	0.013732856
158	0x3a90dda7	0.0011052386
159	0x3da0aa14	0.0784494
160	0xbddf433e	-0.10901497
161	0x3deb1f4d	0.114805795
162	0x3e38f75c	0.1806311
163	0xbea4b630	-0.32170248
164	0xbd12912e	-0.035782985
165	0xbe1f54de	-0.15559718
166	0xbdcdc114	-0.10046592
167	0xbe3b5d00	-0.18297195
168	0x3d812eb6	0.063077375
169	0xbe0ca8c0	-0.13736248
170	0x3e480ed8	0.19536912
171	0xbe5d5887	-0.21615802
172	0xbc4e8c74	-0.012606729
173	0xbe242e8c	-0.16033381
174	0x3dbfb3f0	0.09360492
175	0x3d085f2e	0.033293895
176	0x3d95051c	0.07276365
177	0xbd016798	-0.031592935
178	0xbe2c7a4e	-0.1684353
179	0x3da3d1e1	0.079990156
180	0x3e53057d	0.20607562
181	0x3e7ddcfa	0.24791327
182	0xbe69e126	-0.22839794
183	0x3df3ada5	0.118983544
184	0xbe6a6d42	-0.22893241
185	0xbdfe5dd3	-0.12420239
186	0xbdbcff9b	-0.092284404
187	0xbde7e74a	-0.11323412
188	0xbd33cec7	-0.04389837
189	0xbe0e824c	-0.13916892
190	0xbd3cad56	-0.046063744
191	0xbc1dea64	-0.009638403
192	0x3de502e6	0.111821935
193	0xbe3d0019	-0.18457069
194	0xbd8846ec	-0.06654152
195	0xbe0f9a6b	-0.1402375
196	0x3e82e20d	0.25563088
197	0xbde56fe8	-0.11202985
198	0x3b465201	0.003026128
199	0xbccfbf91	-0.0253599
200	0x3dd6166c	0.104534954
201	0x3e2195a1	0.15779735
202	0xbebe99f4	-0.37226832
203	0x3ddc84a3	0.10767486
204	0x3e7a6ab4	0.24454767
205	0x3e48e8a6	0.19619998
206	0xbdd3a58e	-0.103343114
207	0x3e3e0399	0.1855606
208	0xbe03e13d	-0.1287889
209	0xbc414026	-0.011795079
210	0xbd348a2a	-0.044077076
211	0x3e44b99a	0.19211426
212	0xbe771b56	-0.24131522
213	0xbdf91c42	-0.12163593
214	0xbd89d43a	-0.06729932
215	0x3d94ae21	0.07259775
216	0xbadacc02	-0.0016692879
217	0x3e84828e	0.25880855
218	0x3c6483cf	0.013947441
219	0xbdf67264	-0.12033537
220	0xbe29a2fa	-0.16566077
221	0x3bdd3daf	0.006751738
222	0x3c4dfcb3	0.012572455
223	0xbe111b10	-0.1417048
224	0x3b538062	0.0032272567
225	0x3da69480	0.08133793
226	0x3e3ea04f	0.1861584
227	0xbdf89815	-0.12138382
228	0x3db6e95a	0.08931227
229	0xbcd871a7	-0.026421381
230	0x3dd722f8	0.10504717
231	0x3d8a1307	0.067419104
232	0x3d4f5bc1	0.050624613
233	0x3d8e09ed	0.06935487
234	0xbaf0dfd6	-0.0018377255
235	0x39a2c299	0.00031044034
236	0xbb4d3b08	-0.0031315703
237	0xbe109b7b	-0.14121811
238	0x3e82f9c4	0.2558118
239	0xbe29ab47	-0.16569243
240	0x3de51ec4	0.11187509
241	0xbe04c14b	-0.1296436
242	0xbd58b533	-0.05290718
243	0x3de84203	0.11340716
244	0xbea9ffb9	-0.33202913
245	0xbe9df859	-0.30853537
246	0x3deaa1a2	0.1145661
247	0x3ed10db0	0.40830755
248	0xbe11af70	-0.1422708
249	0xbc55443e	-0.0130167585
250	0xbe6418f0	-0.22275138
251	0xbe184c14	-0.14872772
252	0xbc5dc67d	-0.013536093
253	0xbbb0f4b2	-0.0054002637
254	0xbcea9bcb	-0.028638741
255	0xbe090dc3	-0.13384156

predictor/l3/W f4 [1, 41]
0	0x3e731c84	0.23741347
1	0x3e837d89	0.25681713
2	0x3d01a293	0.031649183
3	0x3e995dd4	0.29954398
4	0xbcea14cb	-0.028574368
5	0x3c16138a	0.009159932
6	0xbe157bc6	-0.14597997
7	0xbe7855a6	-0.24251422
8	0xbdba95fd	-0.09110639
9	0xbbe9200a	-0.007114415
10	0xbda37108	-0.079805434
11	0xbde04233	-0.109501265
12	0xbd8dfea6	-0.06933336
13	0xbd009484	-0.031391636
14	0x3dbf49f2	0.09340276
15	0xbd3b1190	-0.045671046
16	0x3d4719dc	0.048608646
17	0x3e4895d5	0.19588406
18	0x3c5eb2d8	0.013592444
19	0x3d0ebf4f	0.034850415
20	0xbd3bf39a	-0.045886613
21	0x3e37ba06	0.17942056
22	0x3dfa7e97	0.12231176
23	0xbe40a149	-0.18811525
24	0x3e87e50f	0.26541945
25	0xbcc8d1a2	-0.024514023
26	0x3df55111	0.11978353
27	0xbdeac9b4	-0.11464253
28	0x3e242eff	0.16033553
29	0xbd9f3e17	-0.077755146
30	0xbec39526	-0.3819973
31	0xbd4d727e	-0.050158016
32	0x3daad7a3	0.08341911
33	0x3d7ef478	0.062244862
34	0x3d86eac8	0.0658775
35	0x3dbc6c8c	0.09200391
36	0x3d041c74	0.032253698
37	0x3cd0ffcd	0.0255126
38	0x3cd670c3	0.026176816
39	0x3c9eb09c	0.019371323
40	0x3e932ab5	0.2874352
