mymodel.npz (npz, 14156 bytes, 5 tensors)

predictor/l2/W f4 [41, 41]
00000000: 3d45 1c3e 4619 05be f7ca c1bd 6eec 1a3d
00000010: c6b1 cbbc 8481 02be bd41 8a3e 6c8f 733e
00000020: 9329 143c 93f3 15be d2db 873e 4bfa 333e
00000030: 48fb 133e 46cf 393e 2ff0 8abe 9e07 513e
00000040: e05d 07bf 6bdb 223e 8747 d03d 9829 553c
00000050: c088 30bc 5c5d 96be 9497 373e dba4 10be
00000060: d292 bd3d 57de 313e 9b2f f4bb 5f9f f33d
00000070: 4879 f33a 7add 883e 2997 a3bd 210f 373e
00000080: 441e 6fbe e7a1 273e 7778 76bd 342d bdbd
00000090: b1e6 113e ca1c 083e 61a5 aa3b 8d45 993d
000000a0: 6d56 8a3d 1584 d53d eded 4cbe 46e7 0c3e
000000b0: 231a a2be b29f 2ebe 9740 503d 8715 2fbe
000000c0: ecf1 ccbc 9cf4 50be e670 1ebf 2946 21be
000000d0: 9a80 3e3d 68c1 93be ef02 cdbe 1d9d 353d
000000e0: 65a0 933d 5c1d b03c a0ad 56bd ddc1 273e
000000f0: 619a 6f3e e69e 273e e47a 463e 06f9 ca3d
00000100: 047a 7d3b 656c 553c 6a95 0cbe d003 3b3e
00000110: 93cf 4bbd 2cb8 85bd 748d 3b3e 8604 46bc
00000120: 051e b8bd b330 2abd fab8 95bd d5ee 603d
00000130: 802d 1abe a0fb c83a 283f 0fbd 83a6 92bd
00000140: d0bf da3d b519 36be 200b 74bd 6deb 283e
00000150: cdb3 a1bb 15c7 893e c02f 27be 03b9 c23c
00000160: a428 07be 2737 b43d 8614 013e 556f b93d
00000170: dc78 96ba dc2a 0e3d 5167 233d 614b 793d
00000180: 6f45 68bd d389 29be 8dd1 533e 04f7 b03d
00000190: 276f d3bc b724 593e 96d5 dcbd 0e6b 543e
000001a0: 1353 ee3d 632c 373e 17de 82be ff11 93bd
000001b0: 70ae f2bd 0b30 27be 1c0e b1bb 5298 713e
000001c0: 6ec6 15be 008b 1d3e 0ebd e5bd 4a58 43bd
000001d0: a182 0c3e 2b43 823c 1c70 4d3d 0f05 873d
000001e0: f2d6 583e 50ba 72be 5d3d 76bd 12df 43bd
000001f0: 2677 adbe dba8 3d3e 4271 0d3e 1918 e2bd
00000200: 273b 833a c11c 6cbd 1a4a ef3c e9ea 0b3c
00000210: 09d2 fb3d 5823 05bd 2bc4 913e 13d0 26bc
00000220: 7984 1b3e e804 473e 88e4 7bbd 967c 1fbc
00000230: ffda 11bb 68c3 c83d 6970 96bb 95fe 81bc
00000240: 2dcf cf3c cf64 483e 9d9b 08bc 68d2 a4bd
00000250: 83e3 dd3d 0e39 b1bd 8622 f2bc 3796 99bd
00000260: 991e 79be 2f9f b63c 8c5c 8b3e 886e 2fbe
00000270: f561 2a3c beed b3bb 99f9 83bd c4eb 9dbc
00000280: c9e0 84be 1a32 c4bd c666 8dbd b9b6 debd
00000290: 6e05 24be 4fd5 683d b534 973e dae3 69be
000002a0: a75b 66bd 387f c93d 9cfb 223d 180e d9bb
000002b0: d7f1 c9bd 884b 2ebe ca49 5ebe 0885 cfbc
000002c0: 0c53 273d 79b5 45be 1674 6abe 7e46 65be
000002d0: bf79 433d 848d 663c 9284 283e ece7 94bd
000002e0: ca00 38be c9b3 aebd 8eb6 ffbc c24f 46be
000002f0: 9b7c 643e 2572 d73d 26eb 3dbe 0912 983e
00000300: 4848 2cbe 9835 003e e650 0cbe 556c ec3d
00000310: d99c d1bd 7f62 3f3d a0d0 74bd 8ca1 76be
00000320: d38b c13b 47f1 823e 80d4 20bd 8527 bf3d
00000330: eb32 44bd 4f7f 20bd 08d7 723e 2b45 193e
00000340: 869b 8f3d 8ff5 8dbd e3cb 3fbe 1c4c d93e
00000350: 08ba 913c a3b4 61bb 367b b7bd 13e4 58bc
00000360: 4e7b 2a3e 075d 51bd 29d7 2bbe 5fee 9fbd
00000370: 924f 89be 80fe 103e a6a2 febd c5be 7b3e
00000380: fede bdbd 077c c63d 3b08 57be b6b7 39bd
00000390: 0139 d7bc af1e bebd d9bd 9cbd a863 38be
000003a0: a562 15be 0bd9 d23d d1c5 9ebd 7f0c 653d
000003b0: 8018 cc3d 5813 213b f948 a6be d512 393e
000003c0: 512c 80bb 73b5 093e c034 343d 222e abbd
000003d0: 0de8 82be 906c 85bd 4321 823d 5461 5f3d
000003e0: 866d 9c3e 53ff aa3a 388c 053e a007 293e
000003f0: 98e5 e13d 569c 593e 9e5b 813e 6416 debe
0.15260787 -0.12997922 -0.094625406 0.037823133 -0.024865042 -0.12744719 0.2700328 0.2378518
0.009043115 -0.14643697 0.26534897 0.17575948 0.14451325 0.18145475 -0.2713637 0.20413062
-0.52877617 0.15904014 0.10169893 0.013010405 -0.010774791 -0.29368103 0.17928916 -0.14125387
0.092565194 0.17369972 -0.007451964 0.11895632 0.0018575573 0.26731473 -0.07987816 0.17876865
-0.23351389 0.16370355 -0.060173478 -0.092371374 0.14248158 0.13292232 0.005207703 0.07483969
0.06754766 0.10425583 -0.20012636 0.13760099 -0.31660566 -0.17053106 0.050842848 -0.17098056
-0.025017701 -0.20405811 -0.6189102 -0.1574942 0.046509363 -0.28858495 -0.400413 0.044339288
0.07208327 0.021498375 -0.052411675 0.16382547 0.23398735 0.16369209 0.19382817 0.09910779
0.0038677463 0.013026332 -0.13728872 0.18263173 -0.049758505 -0.065292686 0.18315679 -0.012086039
-0.08990101 -0.04155035 -0.07310672 0.054915268 -0.1505642 0.0015333779 -0.03497234 -0.07160666
0.106811166 -0.17783244 -0.059580922 0.16496058 -0.004934764 0.269097 -0.16326809 0.023769861
-0.13199097 0.08799582 0.12605485 0.09054438 -0.0011480111 0.034708843 0.039893452 0.060862903
-0.056706842 -0.16556482 0.20685406 0.086408645 -0.025809838 0.21205412 -0.10782926 0.20743963
0.11636939 0.17888026 -0.25560066 -0.07181167 -0.118496776 -0.1632692 -0.0054032933 0.23593262
-0.14626476 0.15385056 -0.112177 -0.04769162 0.13721706 0.015901169 0.050155744 0.06592762
0.21175745 -0.23703885 -0.060117114 -0.04782016 -0.33879966 0.18521444 0.13812736 -0.110397525
0.0010012136 -0.05764461 0.029210139 0.008539894 0.122959204 -0.03250441 0.28469977 -0.010181445
0.15187253 0.19435465 -0.06149724 -0.009734293 -0.0022255776 0.09802896 -0.004591037 -0.015868464
0.025367344 0.19569705 -0.008337882 -0.08047944 0.1083441 -0.086534604 -0.029557478 -0.07499354
-0.24328078 0.022292702 0.27219045 -0.17132008 0.010399331 -0.0054909876 -0.06444091 -0.01927746
-0.25952747 -0.095798686 -0.06904368 -0.10874695 -0.16017696 0.056844052 0.295324 -0.22840825
-0.05623975 0.09838718 0.039790735 -0.0066239946 -0.098605804 -0.17021 -0.21707836 -0.025331989
0.040850684 -0.19307508 -0.22895846 -0.22390172 0.047723528 0.014071826 0.16456822 -0.07270798
-0.17969051 -0.08530385 -0.031214979 -0.19366363 0.22313158 0.10519818 -0.18546733 0.2970126
-0.16824448 0.12520444 -0.13702735 0.115441 -0.102349944 0.046724793 -0.059769273 -0.24085063
0.005906561 0.25574705 -0.039265156 0.093337096 -0.04790012 -0.03918391 0.2371484 0.14967792
0.070120856 -0.06931602 -0.1873012 0.4244088 0.017788902 -0.0034439943 -0.089590475 -0.013237971
0.166486 -0.05111411 -0.16781296 -0.078091376 -0.2681852 0.14159584 -0.124333665 0.24584492
-0.09271048 0.09691625 -0.20999233 -0.045341216 -0.026272299 -0.09283196 -0.07653398 -0.18006766
-0.14588411 0.10295304 -0.07752574 0.05592012 0.099656105 0.002457818 -0.3247755 0.1807359
-0.003911533 0.13448124 0.04399562 -0.083584085 -0.25567666 -0.06514847 0.063540004 0.05453618
0.3055231 0.0013046063 0.1304177 0.16506815 0.1103012 0.21251044 0.2526521 -0.43376458

predictor/l2/b f4 [41]
00000000: 8999 543c d85e 38bc 98aa 463c 72b1 44bc
00000010: 7969 a83c b0fb 2ebc 509d 85bc 3045 96bb
00000020: 0c1e 7e3c 8676 d0bc 417b 4cbc 5299 a63b
00000030: dcfd 183b da1d 6e3c bbac ebbb a473 39bc
00000040: 0c18 3abc ad75 debb 2318 f73d 88b6 053d
00000050: 4f58 dabb 24fa ac3a 2479 683c 1e04 4ebc
00000060: d43a 013c 0b1e 9abc 9abf 29bc efa9 89bc
00000070: df77 c738 53e4 68bc a8d4 443c f839 9bbc
00000080: 64c0 b33d 0924 be3a fe8a 41bc 7eb5 243c
00000090: ed1e 4abc 356d 463b c113 1bbc f185 0abb
000000a0: 4280 a0bc
0.012976059 -0.011253081 0.012125634 -0.012005197 0.020558106 -0.010680124 -0.016310364 -0.0045858845
0.015510093 -0.025447141 -0.012480558 0.005084195 0.0023344671 0.014533484 -0.007192222 -0.011319075
-0.011358272 -0.0067889304 0.120651506 0.03264478 -0.0066633592 0.0013197106 0.014189038 -0.012574224
0.007887561 -0.018813154 -0.010360623 -0.016804663 9.511387e-05 -0.014214593 0.012013592 -0.01894854
0.0877693 0.0014506589 -0.0118129235 0.010053037 -0.012336475 0.0030277495 -0.009465159 -0.0021136964
-0.019592408

predictor/l3/W f4 [1, 41]
00000000: 8de7 dfbd af05 4fbb b484 a3bd 6522 cf3d
00000010: 94c6 41be d3f6 c83d 37e7 dc3d a67f d9bd
00000020: 29d3 9dbc d7be af3d 247f 1a3d d8e8 15be
00000030: 2d71 f5bc 86c7 d7bc 5cac 4c3d ead2 063e
00000040: cd7b 5e3d bb51 ac3d fcd5 9bbe 4a7a f1bd
00000050: 85f4 073e be87 5dbe 2a43 3dbe 5ddf 373c
00000060: 1fe7 523d 58a7 183e 982c f23d 6cad b03d
00000070: ff03 4c3e ec6c 1d3e a794 49bd ec7c e53d
00000080: c2c9 fabd 7d27 94be ac24 c63b d2bf 99bd
00000090: d13d 8a3c db16 683e cafc 003d 961b 303e
000000a0: dfbe 2f3e
-0.10932837 -0.003158908 -0.079842955 0.10113982 -0.18923408 0.09812703 0.10786288 -0.1062005
-0.019265728 0.08581322 0.037718907 -0.14639604 -0.029961193 -0.026340257 0.049969062 0.13166395
0.054317284 0.08414026 -0.30436695 -0.11790903 0.1327687 -0.21633813 -0.18482652 0.011222688
0.051489946 0.14907587 0.11824912 0.086268276 0.199234 0.15373582 -0.04921403 0.112054676
-0.122455135 -0.28936377 0.006046852 -0.0750729 0.01687518 0.22664969 0.03149108 0.17198023
0.17162655

predictor/l1/W f4 [41, 41]
00000000: f1e2 f7bd 4624 e9bc 196f eb3d 519c 52be
00000010: e741 aa3e 7ea8 123e 9246 6c3e 3a26 99bd
00000020: aea6 3bbd 8a89 c2bd e334 bc3d 6258 73bd
00000030: 6a73 05be db5b 423e a9b3 053e 4819 ffbd
00000040: 4498 f03c af68 a73e c399 c6bc da17 643d
00000050: d74f db3c 3fd6 203d 3195 42be c08d c33c
00000060: a7a8 8dbe 4ef1 bebc 91e2 8c3d 0938 923d
00000070: 63cc c33c a146 04be 512f a7bd 25bb 6e3d
00000080: dd01 943d dec1 6b3e d6d9 ae3d 30a6 9ebe
00000090: b282 5e3c 380a 4d3a dcf5 75bd f36d 7fbe
000000a0: 15d3 273e f0a4 8abd a136 2f3d 56fe 743c
000000b0: 6592 85be bcc3 f7bd 0391 79be c7cd 4f3d
000000c0: 6ae1 0e3a a181 563e 4b3c 1fbd 81e2 d73e
000000d0: 11a0 5bbd d24c b7bd 255a 433d 7c86 c6bd
000000e0: 0d66 c03d 9dee 3c3e 8600 943e 816c 95be
000000f0: 10f7 5f3d dbba c6bc ac06 03bd fdd3 63be
00000100: ba4d b4be d9cd a63d 23da 2cbd b941 643e
00000110: bd2c eeba ba14 633e 5303 18be 6379 6b3e
00000120: cff8 57be 307b c8bd 515b 153e fca0 2e3d
00000130: f10d 2cbe 7f25 f4bc 2fc3 1abd 53ea 3d3d
00000140: 6b4e 273e 370e e0bd ac7c 603e 3a09 01be
00000150: 2bc7 9cbd baf2 7a3d db26 09be 386f 69bd
00000160: 5408 7cbd 7645 0dbe 3c4c 0b3e ed95 05bc
00000170: b006 d43a f04c 23be bdee 92be c0fa c03c
00000180: 0a8b ea3d 8312 9ebe 4506 7a3e 2758 193e
00000190: 0b83 2c3e c6e1 a2be 4dee c9bd 6552 fa3d
000001a0: bc12 5abe f8b4 ebba c862 963d c5a6 4fbe
000001b0: 38c7 88bd da98 893e ce87 38be c0b6 b6be
000001c0: a814 533e 833f 583c e554 803d 9b9b 153d
000001d0: eb2a 83be ad1d 8f3e f666 67bd 1008 c13c
000001e0: 54f4 093d ebc8 18be 0749 c23d 6131 7ebd
000001f0: 3c53 8cbe a8d8 08bd d684 103e 3a27 913e
00000200: 1622 523e 01b5 84be 3433 bebd e4e0 a7bd
00000210: 5388 62bd c420 013e bf1b bd3d a107 f0bd
00000220: 3c80 873c 1c6c 1dbd 2b2b 983e e101 2c3d
00000230: 5548 84bd 309c 573e a1bb 99bd 5f22 933d
00000240: d63f 823b 0c82 813d 8c22 9dbe 34ba 63be
00000250: 60dc 02bf 59f7 95bc ec2c bebc ac75 d7bd
00000260: 9521 b0bd 43e6 2ebe c14f 913d e280 2abe
00000270: 1385 95bd 921a b7bd cf19 2abd 1f99 cc3d
00000280: 1270 f03d 5d3a 76be 72f5 773d 6144 6bbe
00000290: c917 0bbd c578 6c3e 262c fe3d 50a5 b6bc
000002a0: 0144 983d 52c0 33be 3c74 b73e ee59 063e
000002b0: 5f60 06be 65bb 38be 5763 fbbd f282 063e
000002c0: c102 8abe fcb8 853d 02ce 73be ea86 783c
000002d0: ef8f 503e 8e3f 31be 786e b4be b02f 9cbd
000002e0: 09d1 783c ceda 903b cfd8 79ba 59aa afbd
000002f0: 561b 0ebe 696a bfbc aa16 29be be50 05be
00000300: 50f6 723c 91d4 553d 6f14 babc beaf 383d
00000310: d43f 833c e462 9b3d 125f a83a 0dcb 83be
00000320: 0e4b 7a3e 0b68 85bb c6d1 0fbd ef1a a1bd
00000330: 8e55 1b3e 58d0 8bbc 5991 71bd 2e71 973d
00000340: 4e80 923d 9dcf 1c3d 543d d1bd 2d62 6fbd
00000350: e1d7 f03d d6cd 063e c4b3 e4bd 5e68 123e
00000360: ec26 0bbe 03a8 debd a7f9 3abe 1793 76be
00000370: 67b6 8ebe 5d46 27be 512e 4fbe 82c5 683b
00000380: 4e37 84bd 0d49 05bd c78c 6d3e 9429 ac3d
00000390: 023d 3bbe 2979 b3bc 26d5 233e f35b f33d
000003a0: 0cd6 3b3d 61eb 853b 1630 21bb 4f99 4a3c
000003b0: be2d 0b3d aaee 5dbe a1ec 243e 60eb 9c3d
000003c0: c3c6 c9bd fec7 1f3e ea66 c23c cb89 b73d
000003d0: f106 bfbd 8e79 1cbe fb77 8cbd c3ca 80bc
000003e0: 7072 023e 3c60 4cbe 346f 6dbd fd6c 013e
000003f0: 6dae 63bd 6f68 9bbd e74a 7dbe 4143 743e
-0.121038325 -0.02845968 0.114957996 -0.20567442 0.33253404 0.14322087 0.23073795 -0.07477994
-0.045813255 -0.0949889 0.09189775 -0.05941046 -0.13032308 0.18980353 0.13056816 -0.12455994
0.02936948 0.32697055 -0.024243241 0.05568681 0.026771469 0.03926682 -0.19002225 0.023871303
-0.27667734 -0.023308422 0.068791516 0.07139594 0.02390117 -0.12917568 -0.08163322 0.058283944
0.07226918 0.23023173 0.08537643 -0.30986166 0.013580965 0.0007821652 -0.060048923 -0.24944286
0.16389115 -0.067697406 0.042776708 0.014953217 -0.26088253 -0.1209788 -0.24371724 0.050733354
0.00054504594 0.20947887 -0.03887586 0.42164996 -0.053619448 -0.08950199 0.04769339 -0.096936196
0.09394465 0.18450399 0.2890665 -0.29184344 0.054678977 -0.024259022 -0.031988785 -0.22248836
-0.3521555 0.08144731 -0.04220022 0.22290696 -0.0018171292 0.22175875 -0.14845018 0.22995524
-0.21091007 -0.09789121 0.14585616 0.042633995 -0.16802193 -0.029803036 -0.037783798 0.046366047
0.16338508 -0.10940211 0.21922559 -0.12601176 -0.07655176 0.06126664 -0.13393728 -0.056990832
-0.06153138 -0.13796028 0.136033 -0.008153421 0.001617631 -0.15947318 -0.28697768 0.023557067
0.11452301 -0.30873498 0.24416454 0.14975034 0.16846864 -0.31812876 -0.098599054 0.12222747
-0.21296209 -0.001798301 0.0734306 -0.20278461 -0.06678623 0.2687443 -0.18020555 -0.35686302
0.20613348 0.013198736 0.06266192 0.03652535 -0.2561868 0.27952328 -0.056494676 0.023563415
0.033680275 -0.14920394 0.09486585 -0.06205881 -0.27407253 -0.033409745 0.14113173 0.2835024
0.20520815 -0.25919345 -0.0928711 -0.08197191 -0.05530579 0.12610155 0.09233808 -0.11720205
0.01654064 -0.03843318 0.29720435 0.04199398 -0.06459109 0.21055675 -0.075064905 0.0718429
0.003974895 0.063236326 -0.3069042 -0.22239 -0.51117516 -0.018306421 -0.02321478 -0.10520491
-0.08600155 -0.17080025 0.0709529 -0.16650727 -0.073007725 -0.08940615 -0.04152852 0.09990143
0.11740126 -0.24045701 0.06053681 -0.22975303 -0.03395823 0.23092945 0.124107644 -0.022295624
0.07434846 -0.17553833 0.35830867 0.13120243 -0.131227 -0.18040235 -0.12274807 0.13135889
-0.26955226 0.065294236 -0.23809054 0.015168885 0.20367406 -0.173094 -0.3524053 -0.07626283
0.015186557 0.004420615 -0.0009530903 -0.08577413 -0.13877615 -0.02336617 -0.16512552 -0.13019082
0.014829233 0.052204672 -0.022714822 0.045089476 0.016021647 0.07587221 0.0012845716 -0.25740853
0.24442694 -0.004071241 -0.035112165 -0.07866465 0.15169355 -0.01706712 -0.058976505 0.07394634
0.071533784 0.038283933 -0.102167755 -0.058443237 0.11759926 0.13164458 -0.111671 0.14297625
-0.13589066 -0.108718894 -0.18259297 -0.24079548 -0.27873537 -0.16335435 -0.20232512 0.0035518114
-0.06455861 -0.03254037 0.23198234 0.08406368 -0.18284991 -0.02190836 0.15999278 0.11882772
0.045858428 0.0040868972 -0.0024595312 0.012365653 0.03397917 -0.21673074 0.16105892 0.07662082
-0.09852364 0.15603635 0.023730714 0.08961829 -0.09327496 -0.15280744 -0.06858822 -0.015721684
0.12738967 -0.19958586 -0.05796738 0.12639232 -0.055586267 -0.075882785 -0.24735604 0.2385378

predictor/l1/b f4 [41]
00000000: d02c 80bc e1ba 21bd f622 8d3b 7ae0 313c
00000010: b42a a63b 5f0c 723c 6ac6 6f3b ca55 013d
00000020: bd57 2cbc 842c 073c 779a 53bb f6ba f63b
00000030: 88ad 843c 7e3a 943e c52a 0b3d 08b9 533c
00000040: f704 72bc 353f b2bb 8f31 4ebc ccfe 9ebb
00000050: 75e6 2dbb 7095 a4bc cc88 dabc 0000 0000
00000060: 2819 35bc 6de7 593a 2218 663c 347e dabd
00000070: 668d 27bc 6d55 9abc abaa 8cbc 1914 debc
00000080: fb29 f63b efa8 00bc aec4 e1ba 0b71 e33b
00000090: a546 12bd e65b 85bc 1365 a6bc 6d8d 7c3c
000000a0: 34e4 193e
-0.015646368 -0.039484862 0.004307146 0.010856742 0.0050710086 0.014773457 0.003658677 0.031575955
-0.010518965 0.008250359 -0.0032288113 0.0075296117 0.016196027 0.28950876 0.033976335 0.012922533
-0.0147716915 -0.005439664 -0.012585058 -0.0048521515 -0.0026535068 -0.020090789 -0.026676558 0.0
-0.011053361 0.0008312378 0.01404384 -0.106686026 -0.010226583 -0.018839562 -0.017171225 -0.027109193
0.0075123287 -0.007852777 -0.0017224753 0.006940966 -0.035711903 -0.016279172 -0.020311868 0.015414578
0.15028459
